{"format": "layers-model", "generatedBy": "keras v3.10.0", "convertedBy": "TensorFlow.js Converter v4.22.0", "modelTopology": {"keras_version": "3.10.0", "backend": "tensorflow", "model_config": {"class_name": "Functional", "config": {"name": "Generator", "trainable": true, "layers": [{"class_name": "InputLayer", "config": {"batch_shape": [1, 256, 256, 3], "dtype": "float32", "sparse": false, "ragged": false, "name": "input_layer"}, "name": "input_layer", "inbound_nodes": []}, {"class_name": "Conv2D", "config": {"name": "conv2d_5", "trainable": true, "dtype": {"module": "keras", "class_name": "DTypePolicy", "config": {"name": "float32"}, "registered_name": null}, "filters": 64, "kernel_size": [1, 1], "strides": [1, 1], "padding": "same", "data_format": "channels_last", "dilation_rate": [1, 1], "groups": 1, "activation": "relu", "use_bias": true, "kernel_initializer": {"module": "keras.initializers", "class_name": "GlorotUniform", "config": {"seed": null}, "registered_name": null}, "bias_initializer": {"module": "keras.initializers", "class_name": "Zeros", "config": {}, "registered_name": null}, "kernel_regularizer": null, "bias_regularizer": null, "activity_regularizer": null, "kernel_constraint": null, "bias_constraint": null}, "name": "conv2d_5", "inbound_nodes": [{"args": [{"class_name": "__keras_tensor__", "config": {"shape": [null, 256, 256, 3], "dtype": "float32", "keras_history": ["input_layer", 0, 0]}}], "kwargs": {}}]}, {"class_name": "Conv2D", "config": {"name": "conv2d_6", "trainable": true, "dtype": {"module": "keras", "class_name": "DTypePolicy", "config": {"name": "float32"}, "registered_name": null}, "filters": 64, "kernel_size": [3, 3], "strides": [1, 1], "padding": "same", "data_format": "channels_last", "dilation_rate": [1, 1], "groups": 1, "activation": "relu", "use_bias": true, "kernel_initializer": {"module": "keras.initializers", "class_name": "GlorotUniform", "config": {"seed": null}, "registered_name": null}, "bias_initializer": {"module": "keras.initializers", "class_name": "Zeros", "config": {}, "registered_name": null}, "kernel_regularizer": null, "bias_regularizer": null, "activity_regularizer": null, "kernel_constraint": null, "bias_constraint": null}, "name": "conv2d_6", "inbound_nodes": [{"args": [{"class_name": "__keras_tensor__", "config": {"shape": [null, 256, 256, 3], "dtype": "float32", "keras_history": ["input_layer", 0, 0]}}], "kwargs": {}}]}, {"class_name": "Conv2D", "config": {"name": "conv2d_7", "trainable": true, "dtype": {"module": "keras", "class_name": "DTypePolicy", "config": {"name": "float32"}, "registered_name": null}, "filters": 64, "kernel_size": [5, 5], "strides": [1, 1], "padding": "same", "data_format": "channels_last", "dilation_rate": [1, 1], "groups": 1, "activation": "relu", "use_bias": true, "kernel_initializer": {"module": "keras.initializers", "class_name": "GlorotUniform", "config": {"seed": null}, "registered_name": null}, "bias_initializer": {"module": "keras.initializers", "class_name": "Zeros", "config": {}, "registered_name": null}, "kernel_regularizer": null, "bias_regularizer": null, "activity_regularizer": null, "kernel_constraint": null, "bias_constraint": null}, "name": "conv2d_7", "inbound_nodes": [{"args": [{"class_name": "__keras_tensor__", "config": {"shape": [null, 256, 256, 3], "dtype": "float32", "keras_history": ["input_layer", 0, 0]}}], "kwargs": {}}]}, {"class_name": "Conv2D", "config": {"name": "conv2d_8", "trainable": true, "dtype": {"module": "keras", "class_name": "DTypePolicy", "config": {"name": "float32"}, "registered_name": null}, "filters": 64, "kernel_size": [7, 7], "strides": [1, 1], "padding": "same", "data_format": "channels_last", "dilation_rate": [1, 1], "groups": 1, "activation": "relu", "use_bias": true, "kernel_initializer": {"module": "keras.initializers", "class_name": "GlorotUniform", "config": {"seed": null}, "registered_name": null}, "bias_initializer": {"module": "keras.initializers", "class_name": "Zeros", "config": {}, "registered_name": null}, "kernel_regularizer": null, "bias_regularizer": null, "activity_regularizer": null, "kernel_constraint": null, "bias_constraint": null}, "name": "conv2d_8", "inbound_nodes": [{"args": [{"class_name": "__keras_tensor__", "config": {"shape": [null, 256, 256, 3], "dtype": "float32", "keras_history": ["input_layer", 0, 0]}}], "kwargs": {}}]}, {"class_name": "Concatenate", "config": {"name": "concatenate_1", "trainable": true, "dtype": {"module": "keras", "class_name": "DTypePolicy", "config": {"name": "float32"}, "registered_name": null}, "axis": -1}, "name": "concatenate_1", "inbound_nodes": [{"args": [[{"class_name": "__keras_tensor__", "config": {"shape": [null, 256, 256, 64], "dtype": "float32", "keras_history": ["conv2d_5", 0, 0]}}, {"class_name": "__keras_tensor__", "config": {"shape": [null, 256, 256, 64], "dtype": "float32", "keras_history": ["conv2d_6", 0, 0]}}, {"class_name": "__keras_tensor__", "config": {"shape": [null, 256, 256, 64], "dtype": "float32", "keras_history": ["conv2d_7", 0, 0]}}, {"class_name": "__keras_tensor__", "config": {"shape": [null, 256, 256, 64], "dtype": "float32", "keras_history": ["conv2d_8", 0, 0]}}]], "kwargs": {}}]}, {"class_name": "Conv2D", "config": {"name": "conv2d_9", "trainable": true, "dtype": {"module": "keras", "class_name": "DTypePolicy", "config": {"name": "float32"}, "registered_name": null}, "filters": 64, "kernel_size": [1, 1], "strides": [1, 1], "padding": "same", "data_format": "channels_last", "dilation_rate": [1, 1], "groups": 1, "activation": "relu", "use_bias": true, "kernel_initializer": {"module": "keras.initializers", "class_name": "GlorotUniform", "config": {"seed": null}, "registered_name": null}, "bias_initializer": {"module": "keras.initializers", "class_name": "Zeros", "config": {}, "registered_name": null}, "kernel_regularizer": null, "bias_regularizer": null, "activity_regularizer": null, "kernel_constraint": null, "bias_constraint": null}, "name": "conv2d_9", "inbound_nodes": [{"args": [{"class_name": "__keras_tensor__", "config": {"shape": [null, 256, 256, 256], "dtype": "float32", "keras_history": ["concatenate_1", 0, 0]}}], "kwargs": {}}]}, {"class_name": "Conv2D", "config": {"name": "conv2d_10", "trainable": true, "dtype": {"module": "keras", "class_name": "DTypePolicy", "config": {"name": "float32"}, "registered_name": null}, "filters": 128, "kernel_size": [3, 3], "strides": [2, 2], "padding": "same", "data_format": "channels_last", "dilation_rate": [1, 1], "groups": 1, "activation": "linear", "use_bias": true, "kernel_initializer": {"module": "keras.initializers", "class_name": "GlorotUniform", "config": {"seed": null}, "registered_name": null}, "bias_initializer": {"module": "keras.initializers", "class_name": "Zeros", "config": {}, "registered_name": null}, "kernel_regularizer": null, "bias_regularizer": null, "activity_regularizer": null, "kernel_constraint": null, "bias_constraint": null}, "name": "conv2d_10", "inbound_nodes": [{"args": [{"class_name": "__keras_tensor__", "config": {"shape": [null, 256, 256, 64], "dtype": "float32", "keras_history": ["conv2d_9", 0, 0]}}], "kwargs": {}}]}, {"class_name": "Conv2D", "config": {"name": "conv2d_11", "trainable": true, "dtype": {"module": "keras", "class_name": "DTypePolicy", "config": {"name": "float32"}, "registered_name": null}, "filters": 256, "kernel_size": [3, 3], "strides": [2, 2], "padding": "same", "data_format": "channels_last", "dilation_rate": [1, 1], "groups": 1, "activation": "linear", "use_bias": true, "kernel_initializer": {"module": "keras.initializers", "class_name": "GlorotUniform", "config": {"seed": null}, "registered_name": null}, "bias_initializer": {"module": "keras.initializers", "class_name": "Zeros", "config": {}, "registered_name": null}, "kernel_regularizer": null, "bias_regularizer": null, "activity_regularizer": null, "kernel_constraint": null, "bias_constraint": null}, "name": "conv2d_11", "inbound_nodes": [{"args": [{"class_name": "__keras_tensor__", "config": {"shape": [null, 128, 128, 128], "dtype": "float32", "keras_history": ["conv2d_10", 0, 0]}}], "kwargs": {}}]}, {"class_name": "SwitchableNormalization", "config": {"trainable": true, "dtype": {"module": "keras", "class_name": "DTypePolicy", "config": {"name": "float32"}, "registered_name": null}}, "name": "switchable_normalization_1", "inbound_nodes": [{"args": [{"class_name": "__keras_tensor__", "config": {"shape": [null, 64, 64, 256], "dtype": "float32", "keras_history": ["conv2d_11", 0, 0]}}], "kwargs": {}}]}, {"class_name": "Activation", "config": {"name": "activation", "trainable": true, "dtype": {"module": "keras", "class_name": "DTypePolicy", "config": {"name": "float32"}, "registered_name": null}, "activation": "relu"}, "name": "activation", "inbound_nodes": [{"args": [{"class_name": "__keras_tensor__", "config": {"shape": [null, 64, 64, 256], "dtype": "float32", "keras_history": ["switchable_normalization_1", 0, 0]}}], "kwargs": {}}]}, {"class_name": "Conv2D", "config": {"name": "conv2d_12", "trainable": true, "dtype": {"module": "keras", "class_name": "DTypePolicy", "config": {"name": "float32"}, "registered_name": null}, "filters": 256, "kernel_size": [3, 3], "strides": [1, 1], "padding": "same", "data_format": "channels_last", "dilation_rate": [1, 1], "groups": 1, "activation": "linear", "use_bias": true, "kernel_initializer": {"module": "keras.initializers", "class_name": "GlorotUniform", "config": {"seed": null}, "registered_name": null}, "bias_initializer": {"module": "keras.initializers", "class_name": "Zeros", "config": {}, "registered_name": null}, "kernel_regularizer": null, "bias_regularizer": null, "activity_regularizer": null, "kernel_constraint": null, "bias_constraint": null}, "name": "conv2d_12", "inbound_nodes": [{"args": [{"class_name": "__keras_tensor__", "config": {"shape": [null, 64, 64, 256], "dtype": "float32", "keras_history": ["activation", 0, 0]}}], "kwargs": {}}]}, {"class_name": "SwitchableNormalization", "config": {"trainable": true, "dtype": {"module": "keras", "class_name": "DTypePolicy", "config": {"name": "float32"}, "registered_name": null}}, "name": "switchable_normalization_2", "inbound_nodes": [{"args": [{"class_name": "__keras_tensor__", "config": {"shape": [null, 64, 64, 256], "dtype": "float32", "keras_history": ["conv2d_12", 0, 0]}}], "kwargs": {}}]}, {"class_name": "Activation", "config": {"name": "activation_1", "trainable": true, "dtype": {"module": "keras", "class_name": "DTypePolicy", "config": {"name": "float32"}, "registered_name": null}, "activation": "relu"}, "name": "activation_1", "inbound_nodes": [{"args": [{"class_name": "__keras_tensor__", "config": {"shape": [null, 64, 64, 256], "dtype": "float32", "keras_history": ["switchable_normalization_2", 0, 0]}}], "kwargs": {}}]}, {"class_name": "Conv2D", "config": {"name": "conv2d_13", "trainable": true, "dtype": {"module": "keras", "class_name": "DTypePolicy", "config": {"name": "float32"}, "registered_name": null}, "filters": 256, "kernel_size": [3, 3], "strides": [1, 1], "padding": "same", "data_format": "channels_last", "dilation_rate": [1, 1], "groups": 1, "activation": "linear", "use_bias": true, "kernel_initializer": {"module": "keras.initializers", "class_name": "GlorotUniform", "config": {"seed": null}, "registered_name": null}, "bias_initializer": {"module": "keras.initializers", "class_name": "Zeros", "config": {}, "registered_name": null}, "kernel_regularizer": null, "bias_regularizer": null, "activity_regularizer": null, "kernel_constraint": null, "bias_constraint": null}, "name": "conv2d_13", "inbound_nodes": [{"args": [{"class_name": "__keras_tensor__", "config": {"shape": [null, 64, 64, 256], "dtype": "float32", "keras_history": ["activation_1", 0, 0]}}], "kwargs": {}}]}, {"class_name": "GlobalAveragePooling2D", "config": {"name": "global_average_pooling2d", "trainable": true, "dtype": {"module": "keras", "class_name": "DTypePolicy", "config": {"name": "float32"}, "registered_name": null}, "data_format": "channels_last", "keepdims": false}, "name": "global_average_pooling2d", "inbound_nodes": [{"args": [{"class_name": "__keras_tensor__", "config": {"shape": [null, 64, 64, 256], "dtype": "float32", "keras_history": ["conv2d_13", 0, 0]}}], "kwargs": {}}]}, {"class_name": "Reshape", "config": {"name": "reshape", "trainable": true, "dtype": {"module": "keras", "class_name": "DTypePolicy", "config": {"name": "float32"}, "registered_name": null}, "target_shape": [1, 1, 256]}, "name": "reshape", "inbound_nodes": [{"args": [{"class_name": "__keras_tensor__", "config": {"shape": [null, 256], "dtype": "float32", "keras_history": ["global_average_pooling2d", 0, 0]}}], "kwargs": {}}]}, {"class_name": "Dense", "config": {"name": "dense", "trainable": true, "dtype": {"module": "keras", "class_name": "DTypePolicy", "config": {"name": "float32"}, "registered_name": null}, "units": 16, "activation": "relu", "use_bias": true, "kernel_initializer": {"module": "keras.initializers", "class_name": "GlorotUniform", "config": {"seed": null}, "registered_name": null}, "bias_initializer": {"module": "keras.initializers", "class_name": "Zeros", "config": {}, "registered_name": null}, "kernel_regularizer": null, "bias_regularizer": null, "kernel_constraint": null, "bias_constraint": null}, "name": "dense", "inbound_nodes": [{"args": [{"class_name": "__keras_tensor__", "config": {"shape": [null, 1, 1, 256], "dtype": "float32", "keras_history": ["reshape", 0, 0]}}], "kwargs": {}}]}, {"class_name": "Dense", "config": {"name": "dense_1", "trainable": true, "dtype": {"module": "keras", "class_name": "DTypePolicy", "config": {"name": "float32"}, "registered_name": null}, "units": 256, "activation": "sigmoid", "use_bias": true, "kernel_initializer": {"module": "keras.initializers", "class_name": "GlorotUniform", "config": {"seed": null}, "registered_name": null}, "bias_initializer": {"module": "keras.initializers", "class_name": "Zeros", "config": {}, "registered_name": null}, "kernel_regularizer": null, "bias_regularizer": null, "kernel_constraint": null, "bias_constraint": null}, "name": "dense_1", "inbound_nodes": [{"args": [{"class_name": "__keras_tensor__", "config": {"shape": [null, 1, 1, 16], "dtype": "float32", "keras_history": ["dense", 0, 0]}}], "kwargs": {}}]}, {"class_name": "Multiply", "config": {"name": "multiply", "trainable": true, "dtype": {"module": "keras", "class_name": "DTypePolicy", "config": {"name": "float32"}, "registered_name": null}}, "name": "multiply", "inbound_nodes": [{"args": [[{"class_name": "__keras_tensor__", "config": {"shape": [null, 64, 64, 256], "dtype": "float32", "keras_history": ["conv2d_13", 0, 0]}}, {"class_name": "__keras_tensor__", "config": {"shape": [null, 1, 1, 256], "dtype": "float32", "keras_history": ["dense_1", 0, 0]}}]], "kwargs": {}}]}, {"class_name": "Add", "config": {"name": "add", "trainable": true, "dtype": {"module": "keras", "class_name": "DTypePolicy", "config": {"name": "float32"}, "registered_name": null}}, "name": "add", "inbound_nodes": [{"args": [[{"class_name": "__keras_tensor__", "config": {"shape": [null, 64, 64, 256], "dtype": "float32", "keras_history": ["multiply", 0, 0]}}, {"class_name": "__keras_tensor__", "config": {"shape": [null, 64, 64, 256], "dtype": "float32", "keras_history": ["conv2d_11", 0, 0]}}]], "kwargs": {}}]}, {"class_name": "SwitchableNormalization", "config": {"trainable": true, "dtype": {"module": "keras", "class_name": "DTypePolicy", "config": {"name": "float32"}, "registered_name": null}}, "name": "switchable_normalization_3", "inbound_nodes": [{"args": [{"class_name": "__keras_tensor__", "config": {"shape": [null, 64, 64, 256], "dtype": "float32", "keras_history": ["add", 0, 0]}}], "kwargs": {}}]}, {"class_name": "Activation", "config": {"name": "activation_2", "trainable": true, "dtype": {"module": "keras", "class_name": "DTypePolicy", "config": {"name": "float32"}, "registered_name": null}, "activation": "relu"}, "name": "activation_2", "inbound_nodes": [{"args": [{"class_name": "__keras_tensor__", "config": {"shape": [null, 64, 64, 256], "dtype": "float32", "keras_history": ["switchable_normalization_3", 0, 0]}}], "kwargs": {}}]}, {"class_name": "Conv2D", "config": {"name": "conv2d_14", "trainable": true, "dtype": {"module": "keras", "class_name": "DTypePolicy", "config": {"name": "float32"}, "registered_name": null}, "filters": 256, "kernel_size": [3, 3], "strides": [1, 1], "padding": "same", "data_format": "channels_last", "dilation_rate": [1, 1], "groups": 1, "activation": "linear", "use_bias": true, "kernel_initializer": {"module": "keras.initializers", "class_name": "GlorotUniform", "config": {"seed": null}, "registered_name": null}, "bias_initializer": {"module": "keras.initializers", "class_name": "Zeros", "config": {}, "registered_name": null}, "kernel_regularizer": null, "bias_regularizer": null, "activity_regularizer": null, "kernel_constraint": null, "bias_constraint": null}, "name": "conv2d_14", "inbound_nodes": [{"args": [{"class_name": "__keras_tensor__", "config": {"shape": [null, 64, 64, 256], "dtype": "float32", "keras_history": ["activation_2", 0, 0]}}], "kwargs": {}}]}, {"class_name": "SwitchableNormalization", "config": {"trainable": true, "dtype": {"module": "keras", "class_name": "DTypePolicy", "config": {"name": "float32"}, "registered_name": null}}, "name": "switchable_normalization_4", "inbound_nodes": [{"args": [{"class_name": "__keras_tensor__", "config": {"shape": [null, 64, 64, 256], "dtype": "float32", "keras_history": ["conv2d_14", 0, 0]}}], "kwargs": {}}]}, {"class_name": "Activation", "config": {"name": "activation_3", "trainable": true, "dtype": {"module": "keras", "class_name": "DTypePolicy", "config": {"name": "float32"}, "registered_name": null}, "activation": "relu"}, "name": "activation_3", "inbound_nodes": [{"args": [{"class_name": "__keras_tensor__", "config": {"shape": [null, 64, 64, 256], "dtype": "float32", "keras_history": ["switchable_normalization_4", 0, 0]}}], "kwargs": {}}]}, {"class_name": "Conv2D", "config": {"name": "conv2d_15", "trainable": true, "dtype": {"module": "keras", "class_name": "DTypePolicy", "config": {"name": "float32"}, "registered_name": null}, "filters": 256, "kernel_size": [3, 3], "strides": [1, 1], "padding": "same", "data_format": "channels_last", "dilation_rate": [1, 1], "groups": 1, "activation": "linear", "use_bias": true, "kernel_initializer": {"module": "keras.initializers", "class_name": "GlorotUniform", "config": {"seed": null}, "registered_name": null}, "bias_initializer": {"module": "keras.initializers", "class_name": "Zeros", "config": {}, "registered_name": null}, "kernel_regularizer": null, "bias_regularizer": null, "activity_regularizer": null, "kernel_constraint": null, "bias_constraint": null}, "name": "conv2d_15", "inbound_nodes": [{"args": [{"class_name": "__keras_tensor__", "config": {"shape": [null, 64, 64, 256], "dtype": "float32", "keras_history": ["activation_3", 0, 0]}}], "kwargs": {}}]}, {"class_name": "GlobalAveragePooling2D", "config": {"name": "global_average_pooling2d_1", "trainable": true, "dtype": {"module": "keras", "class_name": "DTypePolicy", "config": {"name": "float32"}, "registered_name": null}, "data_format": "channels_last", "keepdims": false}, "name": "global_average_pooling2d_1", "inbound_nodes": [{"args": [{"class_name": "__keras_tensor__", "config": {"shape": [null, 64, 64, 256], "dtype": "float32", "keras_history": ["conv2d_15", 0, 0]}}], "kwargs": {}}]}, {"class_name": "Reshape", "config": {"name": "reshape_1", "trainable": true, "dtype": {"module": "keras", "class_name": "DTypePolicy", "config": {"name": "float32"}, "registered_name": null}, "target_shape": [1, 1, 256]}, "name": "reshape_1", "inbound_nodes": [{"args": [{"class_name": "__keras_tensor__", "config": {"shape": [null, 256], "dtype": "float32", "keras_history": ["global_average_pooling2d_1", 0, 0]}}], "kwargs": {}}]}, {"class_name": "Dense", "config": {"name": "dense_2", "trainable": true, "dtype": {"module": "keras", "class_name": "DTypePolicy", "config": {"name": "float32"}, "registered_name": null}, "units": 16, "activation": "relu", "use_bias": true, "kernel_initializer": {"module": "keras.initializers", "class_name": "GlorotUniform", "config": {"seed": null}, "registered_name": null}, "bias_initializer": {"module": "keras.initializers", "class_name": "Zeros", "config": {}, "registered_name": null}, "kernel_regularizer": null, "bias_regularizer": null, "kernel_constraint": null, "bias_constraint": null}, "name": "dense_2", "inbound_nodes": [{"args": [{"class_name": "__keras_tensor__", "config": {"shape": [null, 1, 1, 256], "dtype": "float32", "keras_history": ["reshape_1", 0, 0]}}], "kwargs": {}}]}, {"class_name": "Dense", "config": {"name": "dense_3", "trainable": true, "dtype": {"module": "keras", "class_name": "DTypePolicy", "config": {"name": "float32"}, "registered_name": null}, "units": 256, "activation": "sigmoid", "use_bias": true, "kernel_initializer": {"module": "keras.initializers", "class_name": "GlorotUniform", "config": {"seed": null}, "registered_name": null}, "bias_initializer": {"module": "keras.initializers", "class_name": "Zeros", "config": {}, "registered_name": null}, "kernel_regularizer": null, "bias_regularizer": null, "kernel_constraint": null, "bias_constraint": null}, "name": "dense_3", "inbound_nodes": [{"args": [{"class_name": "__keras_tensor__", "config": {"shape": [null, 1, 1, 16], "dtype": "float32", "keras_history": ["dense_2", 0, 0]}}], "kwargs": {}}]}, {"class_name": "Multiply", "config": {"name": "multiply_1", "trainable": true, "dtype": {"module": "keras", "class_name": "DTypePolicy", "config": {"name": "float32"}, "registered_name": null}}, "name": "multiply_1", "inbound_nodes": [{"args": [[{"class_name": "__keras_tensor__", "config": {"shape": [null, 64, 64, 256], "dtype": "float32", "keras_history": ["conv2d_15", 0, 0]}}, {"class_name": "__keras_tensor__", "config": {"shape": [null, 1, 1, 256], "dtype": "float32", "keras_history": ["dense_3", 0, 0]}}]], "kwargs": {}}]}, {"class_name": "Add", "config": {"name": "add_1", "trainable": true, "dtype": {"module": "keras", "class_name": "DTypePolicy", "config": {"name": "float32"}, "registered_name": null}}, "name": "add_1", "inbound_nodes": [{"args": [[{"class_name": "__keras_tensor__", "config": {"shape": [null, 64, 64, 256], "dtype": "float32", "keras_history": ["multiply_1", 0, 0]}}, {"class_name": "__keras_tensor__", "config": {"shape": [null, 64, 64, 256], "dtype": "float32", "keras_history": ["add", 0, 0]}}]], "kwargs": {}}]}, {"class_name": "SwitchableNormalization", "config": {"trainable": true, "dtype": {"module": "keras", "class_name": "DTypePolicy", "config": {"name": "float32"}, "registered_name": null}}, "name": "switchable_normalization_5", "inbound_nodes": [{"args": [{"class_name": "__keras_tensor__", "config": {"shape": [null, 64, 64, 256], "dtype": "float32", "keras_history": ["add_1", 0, 0]}}], "kwargs": {}}]}, {"class_name": "Activation", "config": {"name": "activation_4", "trainable": true, "dtype": {"module": "keras", "class_name": "DTypePolicy", "config": {"name": "float32"}, "registered_name": null}, "activation": "relu"}, "name": "activation_4", "inbound_nodes": [{"args": [{"class_name": "__keras_tensor__", "config": {"shape": [null, 64, 64, 256], "dtype": "float32", "keras_history": ["switchable_normalization_5", 0, 0]}}], "kwargs": {}}]}, {"class_name": "Conv2D", "config": {"name": "conv2d_16", "trainable": true, "dtype": {"module": "keras", "class_name": "DTypePolicy", "config": {"name": "float32"}, "registered_name": null}, "filters": 256, "kernel_size": [3, 3], "strides": [1, 1], "padding": "same", "data_format": "channels_last", "dilation_rate": [1, 1], "groups": 1, "activation": "linear", "use_bias": true, "kernel_initializer": {"module": "keras.initializers", "class_name": "GlorotUniform", "config": {"seed": null}, "registered_name": null}, "bias_initializer": {"module": "keras.initializers", "class_name": "Zeros", "config": {}, "registered_name": null}, "kernel_regularizer": null, "bias_regularizer": null, "activity_regularizer": null, "kernel_constraint": null, "bias_constraint": null}, "name": "conv2d_16", "inbound_nodes": [{"args": [{"class_name": "__keras_tensor__", "config": {"shape": [null, 64, 64, 256], "dtype": "float32", "keras_history": ["activation_4", 0, 0]}}], "kwargs": {}}]}, {"class_name": "SwitchableNormalization", "config": {"trainable": true, "dtype": {"module": "keras", "class_name": "DTypePolicy", "config": {"name": "float32"}, "registered_name": null}}, "name": "switchable_normalization_6", "inbound_nodes": [{"args": [{"class_name": "__keras_tensor__", "config": {"shape": [null, 64, 64, 256], "dtype": "float32", "keras_history": ["conv2d_16", 0, 0]}}], "kwargs": {}}]}, {"class_name": "Activation", "config": {"name": "activation_5", "trainable": true, "dtype": {"module": "keras", "class_name": "DTypePolicy", "config": {"name": "float32"}, "registered_name": null}, "activation": "relu"}, "name": "activation_5", "inbound_nodes": [{"args": [{"class_name": "__keras_tensor__", "config": {"shape": [null, 64, 64, 256], "dtype": "float32", "keras_history": ["switchable_normalization_6", 0, 0]}}], "kwargs": {}}]}, {"class_name": "Conv2D", "config": {"name": "conv2d_17", "trainable": true, "dtype": {"module": "keras", "class_name": "DTypePolicy", "config": {"name": "float32"}, "registered_name": null}, "filters": 256, "kernel_size": [3, 3], "strides": [1, 1], "padding": "same", "data_format": "channels_last", "dilation_rate": [1, 1], "groups": 1, "activation": "linear", "use_bias": true, "kernel_initializer": {"module": "keras.initializers", "class_name": "GlorotUniform", "config": {"seed": null}, "registered_name": null}, "bias_initializer": {"module": "keras.initializers", "class_name": "Zeros", "config": {}, "registered_name": null}, "kernel_regularizer": null, "bias_regularizer": null, "activity_regularizer": null, "kernel_constraint": null, "bias_constraint": null}, "name": "conv2d_17", "inbound_nodes": [{"args": [{"class_name": "__keras_tensor__", "config": {"shape": [null, 64, 64, 256], "dtype": "float32", "keras_history": ["activation_5", 0, 0]}}], "kwargs": {}}]}, {"class_name": "GlobalAveragePooling2D", "config": {"name": "global_average_pooling2d_2", "trainable": true, "dtype": {"module": "keras", "class_name": "DTypePolicy", "config": {"name": "float32"}, "registered_name": null}, "data_format": "channels_last", "keepdims": false}, "name": "global_average_pooling2d_2", "inbound_nodes": [{"args": [{"class_name": "__keras_tensor__", "config": {"shape": [null, 64, 64, 256], "dtype": "float32", "keras_history": ["conv2d_17", 0, 0]}}], "kwargs": {}}]}, {"class_name": "Reshape", "config": {"name": "reshape_2", "trainable": true, "dtype": {"module": "keras", "class_name": "DTypePolicy", "config": {"name": "float32"}, "registered_name": null}, "target_shape": [1, 1, 256]}, "name": "reshape_2", "inbound_nodes": [{"args": [{"class_name": "__keras_tensor__", "config": {"shape": [null, 256], "dtype": "float32", "keras_history": ["global_average_pooling2d_2", 0, 0]}}], "kwargs": {}}]}, {"class_name": "Dense", "config": {"name": "dense_4", "trainable": true, "dtype": {"module": "keras", "class_name": "DTypePolicy", "config": {"name": "float32"}, "registered_name": null}, "units": 16, "activation": "relu", "use_bias": true, "kernel_initializer": {"module": "keras.initializers", "class_name": "GlorotUniform", "config": {"seed": null}, "registered_name": null}, "bias_initializer": {"module": "keras.initializers", "class_name": "Zeros", "config": {}, "registered_name": null}, "kernel_regularizer": null, "bias_regularizer": null, "kernel_constraint": null, "bias_constraint": null}, "name": "dense_4", "inbound_nodes": [{"args": [{"class_name": "__keras_tensor__", "config": {"shape": [null, 1, 1, 256], "dtype": "float32", "keras_history": ["reshape_2", 0, 0]}}], "kwargs": {}}]}, {"class_name": "Dense", "config": {"name": "dense_5", "trainable": true, "dtype": {"module": "keras", "class_name": "DTypePolicy", "config": {"name": "float32"}, "registered_name": null}, "units": 256, "activation": "sigmoid", "use_bias": true, "kernel_initializer": {"module": "keras.initializers", "class_name": "GlorotUniform", "config": {"seed": null}, "registered_name": null}, "bias_initializer": {"module": "keras.initializers", "class_name": "Zeros", "config": {}, "registered_name": null}, "kernel_regularizer": null, "bias_regularizer": null, "kernel_constraint": null, "bias_constraint": null}, "name": "dense_5", "inbound_nodes": [{"args": [{"class_name": "__keras_tensor__", "config": {"shape": [null, 1, 1, 16], "dtype": "float32", "keras_history": ["dense_4", 0, 0]}}], "kwargs": {}}]}, {"class_name": "Multiply", "config": {"name": "multiply_2", "trainable": true, "dtype": {"module": "keras", "class_name": "DTypePolicy", "config": {"name": "float32"}, "registered_name": null}}, "name": "multiply_2", "inbound_nodes": [{"args": [[{"class_name": "__keras_tensor__", "config": {"shape": [null, 64, 64, 256], "dtype": "float32", "keras_history": ["conv2d_17", 0, 0]}}, {"class_name": "__keras_tensor__", "config": {"shape": [null, 1, 1, 256], "dtype": "float32", "keras_history": ["dense_5", 0, 0]}}]], "kwargs": {}}]}, {"class_name": "Add", "config": {"name": "add_2", "trainable": true, "dtype": {"module": "keras", "class_name": "DTypePolicy", "config": {"name": "float32"}, "registered_name": null}}, "name": "add_2", "inbound_nodes": [{"args": [[{"class_name": "__keras_tensor__", "config": {"shape": [null, 64, 64, 256], "dtype": "float32", "keras_history": ["multiply_2", 0, 0]}}, {"class_name": "__keras_tensor__", "config": {"shape": [null, 64, 64, 256], "dtype": "float32", "keras_history": ["add_1", 0, 0]}}]], "kwargs": {}}]}, {"class_name": "SwitchableNormalization", "config": {"trainable": true, "dtype": {"module": "keras", "class_name": "DTypePolicy", "config": {"name": "float32"}, "registered_name": null}}, "name": "switchable_normalization_7", "inbound_nodes": [{"args": [{"class_name": "__keras_tensor__", "config": {"shape": [null, 64, 64, 256], "dtype": "float32", "keras_history": ["add_2", 0, 0]}}], "kwargs": {}}]}, {"class_name": "Activation", "config": {"name": "activation_6", "trainable": true, "dtype": {"module": "keras", "class_name": "DTypePolicy", "config": {"name": "float32"}, "registered_name": null}, "activation": "relu"}, "name": "activation_6", "inbound_nodes": [{"args": [{"class_name": "__keras_tensor__", "config": {"shape": [null, 64, 64, 256], "dtype": "float32", "keras_history": ["switchable_normalization_7", 0, 0]}}], "kwargs": {}}]}, {"class_name": "Conv2D", "config": {"name": "conv2d_18", "trainable": true, "dtype": {"module": "keras", "class_name": "DTypePolicy", "config": {"name": "float32"}, "registered_name": null}, "filters": 256, "kernel_size": [3, 3], "strides": [1, 1], "padding": "same", "data_format": "channels_last", "dilation_rate": [1, 1], "groups": 1, "activation": "linear", "use_bias": true, "kernel_initializer": {"module": "keras.initializers", "class_name": "GlorotUniform", "config": {"seed": null}, "registered_name": null}, "bias_initializer": {"module": "keras.initializers", "class_name": "Zeros", "config": {}, "registered_name": null}, "kernel_regularizer": null, "bias_regularizer": null, "activity_regularizer": null, "kernel_constraint": null, "bias_constraint": null}, "name": "conv2d_18", "inbound_nodes": [{"args": [{"class_name": "__keras_tensor__", "config": {"shape": [null, 64, 64, 256], "dtype": "float32", "keras_history": ["activation_6", 0, 0]}}], "kwargs": {}}]}, {"class_name": "SwitchableNormalization", "config": {"trainable": true, "dtype": {"module": "keras", "class_name": "DTypePolicy", "config": {"name": "float32"}, "registered_name": null}}, "name": "switchable_normalization_8", "inbound_nodes": [{"args": [{"class_name": "__keras_tensor__", "config": {"shape": [null, 64, 64, 256], "dtype": "float32", "keras_history": ["conv2d_18", 0, 0]}}], "kwargs": {}}]}, {"class_name": "Activation", "config": {"name": "activation_7", "trainable": true, "dtype": {"module": "keras", "class_name": "DTypePolicy", "config": {"name": "float32"}, "registered_name": null}, "activation": "relu"}, "name": "activation_7", "inbound_nodes": [{"args": [{"class_name": "__keras_tensor__", "config": {"shape": [null, 64, 64, 256], "dtype": "float32", "keras_history": ["switchable_normalization_8", 0, 0]}}], "kwargs": {}}]}, {"class_name": "Conv2D", "config": {"name": "conv2d_19", "trainable": true, "dtype": {"module": "keras", "class_name": "DTypePolicy", "config": {"name": "float32"}, "registered_name": null}, "filters": 256, "kernel_size": [3, 3], "strides": [1, 1], "padding": "same", "data_format": "channels_last", "dilation_rate": [1, 1], "groups": 1, "activation": "linear", "use_bias": true, "kernel_initializer": {"module": "keras.initializers", "class_name": "GlorotUniform", "config": {"seed": null}, "registered_name": null}, "bias_initializer": {"module": "keras.initializers", "class_name": "Zeros", "config": {}, "registered_name": null}, "kernel_regularizer": null, "bias_regularizer": null, "activity_regularizer": null, "kernel_constraint": null, "bias_constraint": null}, "name": "conv2d_19", "inbound_nodes": [{"args": [{"class_name": "__keras_tensor__", "config": {"shape": [null, 64, 64, 256], "dtype": "float32", "keras_history": ["activation_7", 0, 0]}}], "kwargs": {}}]}, {"class_name": "GlobalAveragePooling2D", "config": {"name": "global_average_pooling2d_3", "trainable": true, "dtype": {"module": "keras", "class_name": "DTypePolicy", "config": {"name": "float32"}, "registered_name": null}, "data_format": "channels_last", "keepdims": false}, "name": "global_average_pooling2d_3", "inbound_nodes": [{"args": [{"class_name": "__keras_tensor__", "config": {"shape": [null, 64, 64, 256], "dtype": "float32", "keras_history": ["conv2d_19", 0, 0]}}], "kwargs": {}}]}, {"class_name": "Reshape", "config": {"name": "reshape_3", "trainable": true, "dtype": {"module": "keras", "class_name": "DTypePolicy", "config": {"name": "float32"}, "registered_name": null}, "target_shape": [1, 1, 256]}, "name": "reshape_3", "inbound_nodes": [{"args": [{"class_name": "__keras_tensor__", "config": {"shape": [null, 256], "dtype": "float32", "keras_history": ["global_average_pooling2d_3", 0, 0]}}], "kwargs": {}}]}, {"class_name": "Dense", "config": {"name": "dense_6", "trainable": true, "dtype": {"module": "keras", "class_name": "DTypePolicy", "config": {"name": "float32"}, "registered_name": null}, "units": 16, "activation": "relu", "use_bias": true, "kernel_initializer": {"module": "keras.initializers", "class_name": "GlorotUniform", "config": {"seed": null}, "registered_name": null}, "bias_initializer": {"module": "keras.initializers", "class_name": "Zeros", "config": {}, "registered_name": null}, "kernel_regularizer": null, "bias_regularizer": null, "kernel_constraint": null, "bias_constraint": null}, "name": "dense_6", "inbound_nodes": [{"args": [{"class_name": "__keras_tensor__", "config": {"shape": [null, 1, 1, 256], "dtype": "float32", "keras_history": ["reshape_3", 0, 0]}}], "kwargs": {}}]}, {"class_name": "Dense", "config": {"name": "dense_7", "trainable": true, "dtype": {"module": "keras", "class_name": "DTypePolicy", "config": {"name": "float32"}, "registered_name": null}, "units": 256, "activation": "sigmoid", "use_bias": true, "kernel_initializer": {"module": "keras.initializers", "class_name": "GlorotUniform", "config": {"seed": null}, "registered_name": null}, "bias_initializer": {"module": "keras.initializers", "class_name": "Zeros", "config": {}, "registered_name": null}, "kernel_regularizer": null, "bias_regularizer": null, "kernel_constraint": null, "bias_constraint": null}, "name": "dense_7", "inbound_nodes": [{"args": [{"class_name": "__keras_tensor__", "config": {"shape": [null, 1, 1, 16], "dtype": "float32", "keras_history": ["dense_6", 0, 0]}}], "kwargs": {}}]}, {"class_name": "Multiply", "config": {"name": "multiply_3", "trainable": true, "dtype": {"module": "keras", "class_name": "DTypePolicy", "config": {"name": "float32"}, "registered_name": null}}, "name": "multiply_3", "inbound_nodes": [{"args": [[{"class_name": "__keras_tensor__", "config": {"shape": [null, 64, 64, 256], "dtype": "float32", "keras_history": ["conv2d_19", 0, 0]}}, {"class_name": "__keras_tensor__", "config": {"shape": [null, 1, 1, 256], "dtype": "float32", "keras_history": ["dense_7", 0, 0]}}]], "kwargs": {}}]}, {"class_name": "Add", "config": {"name": "add_3", "trainable": true, "dtype": {"module": "keras", "class_name": "DTypePolicy", "config": {"name": "float32"}, "registered_name": null}}, "name": "add_3", "inbound_nodes": [{"args": [[{"class_name": "__keras_tensor__", "config": {"shape": [null, 64, 64, 256], "dtype": "float32", "keras_history": ["multiply_3", 0, 0]}}, {"class_name": "__keras_tensor__", "config": {"shape": [null, 64, 64, 256], "dtype": "float32", "keras_history": ["add_2", 0, 0]}}]], "kwargs": {}}]}, {"class_name": "SwitchableNormalization", "config": {"trainable": true, "dtype": {"module": "keras", "class_name": "DTypePolicy", "config": {"name": "float32"}, "registered_name": null}}, "name": "switchable_normalization_9", "inbound_nodes": [{"args": [{"class_name": "__keras_tensor__", "config": {"shape": [null, 64, 64, 256], "dtype": "float32", "keras_history": ["add_3", 0, 0]}}], "kwargs": {}}]}, {"class_name": "Activation", "config": {"name": "activation_8", "trainable": true, "dtype": {"module": "keras", "class_name": "DTypePolicy", "config": {"name": "float32"}, "registered_name": null}, "activation": "relu"}, "name": "activation_8", "inbound_nodes": [{"args": [{"class_name": "__keras_tensor__", "config": {"shape": [null, 64, 64, 256], "dtype": "float32", "keras_history": ["switchable_normalization_9", 0, 0]}}], "kwargs": {}}]}, {"class_name": "Conv2D", "config": {"name": "conv2d_20", "trainable": true, "dtype": {"module": "keras", "class_name": "DTypePolicy", "config": {"name": "float32"}, "registered_name": null}, "filters": 256, "kernel_size": [3, 3], "strides": [1, 1], "padding": "same", "data_format": "channels_last", "dilation_rate": [1, 1], "groups": 1, "activation": "linear", "use_bias": true, "kernel_initializer": {"module": "keras.initializers", "class_name": "GlorotUniform", "config": {"seed": null}, "registered_name": null}, "bias_initializer": {"module": "keras.initializers", "class_name": "Zeros", "config": {}, "registered_name": null}, "kernel_regularizer": null, "bias_regularizer": null, "activity_regularizer": null, "kernel_constraint": null, "bias_constraint": null}, "name": "conv2d_20", "inbound_nodes": [{"args": [{"class_name": "__keras_tensor__", "config": {"shape": [null, 64, 64, 256], "dtype": "float32", "keras_history": ["activation_8", 0, 0]}}], "kwargs": {}}]}, {"class_name": "SwitchableNormalization", "config": {"trainable": true, "dtype": {"module": "keras", "class_name": "DTypePolicy", "config": {"name": "float32"}, "registered_name": null}}, "name": "switchable_normalization_10", "inbound_nodes": [{"args": [{"class_name": "__keras_tensor__", "config": {"shape": [null, 64, 64, 256], "dtype": "float32", "keras_history": ["conv2d_20", 0, 0]}}], "kwargs": {}}]}, {"class_name": "Activation", "config": {"name": "activation_9", "trainable": true, "dtype": {"module": "keras", "class_name": "DTypePolicy", "config": {"name": "float32"}, "registered_name": null}, "activation": "relu"}, "name": "activation_9", "inbound_nodes": [{"args": [{"class_name": "__keras_tensor__", "config": {"shape": [null, 64, 64, 256], "dtype": "float32", "keras_history": ["switchable_normalization_10", 0, 0]}}], "kwargs": {}}]}, {"class_name": "Conv2D", "config": {"name": "conv2d_21", "trainable": true, "dtype": {"module": "keras", "class_name": "DTypePolicy", "config": {"name": "float32"}, "registered_name": null}, "filters": 256, "kernel_size": [3, 3], "strides": [1, 1], "padding": "same", "data_format": "channels_last", "dilation_rate": [1, 1], "groups": 1, "activation": "linear", "use_bias": true, "kernel_initializer": {"module": "keras.initializers", "class_name": "GlorotUniform", "config": {"seed": null}, "registered_name": null}, "bias_initializer": {"module": "keras.initializers", "class_name": "Zeros", "config": {}, "registered_name": null}, "kernel_regularizer": null, "bias_regularizer": null, "activity_regularizer": null, "kernel_constraint": null, "bias_constraint": null}, "name": "conv2d_21", "inbound_nodes": [{"args": [{"class_name": "__keras_tensor__", "config": {"shape": [null, 64, 64, 256], "dtype": "float32", "keras_history": ["activation_9", 0, 0]}}], "kwargs": {}}]}, {"class_name": "GlobalAveragePooling2D", "config": {"name": "global_average_pooling2d_4", "trainable": true, "dtype": {"module": "keras", "class_name": "DTypePolicy", "config": {"name": "float32"}, "registered_name": null}, "data_format": "channels_last", "keepdims": false}, "name": "global_average_pooling2d_4", "inbound_nodes": [{"args": [{"class_name": "__keras_tensor__", "config": {"shape": [null, 64, 64, 256], "dtype": "float32", "keras_history": ["conv2d_21", 0, 0]}}], "kwargs": {}}]}, {"class_name": "Reshape", "config": {"name": "reshape_4", "trainable": true, "dtype": {"module": "keras", "class_name": "DTypePolicy", "config": {"name": "float32"}, "registered_name": null}, "target_shape": [1, 1, 256]}, "name": "reshape_4", "inbound_nodes": [{"args": [{"class_name": "__keras_tensor__", "config": {"shape": [null, 256], "dtype": "float32", "keras_history": ["global_average_pooling2d_4", 0, 0]}}], "kwargs": {}}]}, {"class_name": "Dense", "config": {"name": "dense_8", "trainable": true, "dtype": {"module": "keras", "class_name": "DTypePolicy", "config": {"name": "float32"}, "registered_name": null}, "units": 16, "activation": "relu", "use_bias": true, "kernel_initializer": {"module": "keras.initializers", "class_name": "GlorotUniform", "config": {"seed": null}, "registered_name": null}, "bias_initializer": {"module": "keras.initializers", "class_name": "Zeros", "config": {}, "registered_name": null}, "kernel_regularizer": null, "bias_regularizer": null, "kernel_constraint": null, "bias_constraint": null}, "name": "dense_8", "inbound_nodes": [{"args": [{"class_name": "__keras_tensor__", "config": {"shape": [null, 1, 1, 256], "dtype": "float32", "keras_history": ["reshape_4", 0, 0]}}], "kwargs": {}}]}, {"class_name": "Dense", "config": {"name": "dense_9", "trainable": true, "dtype": {"module": "keras", "class_name": "DTypePolicy", "config": {"name": "float32"}, "registered_name": null}, "units": 256, "activation": "sigmoid", "use_bias": true, "kernel_initializer": {"module": "keras.initializers", "class_name": "GlorotUniform", "config": {"seed": null}, "registered_name": null}, "bias_initializer": {"module": "keras.initializers", "class_name": "Zeros", "config": {}, "registered_name": null}, "kernel_regularizer": null, "bias_regularizer": null, "kernel_constraint": null, "bias_constraint": null}, "name": "dense_9", "inbound_nodes": [{"args": [{"class_name": "__keras_tensor__", "config": {"shape": [null, 1, 1, 16], "dtype": "float32", "keras_history": ["dense_8", 0, 0]}}], "kwargs": {}}]}, {"class_name": "Multiply", "config": {"name": "multiply_4", "trainable": true, "dtype": {"module": "keras", "class_name": "DTypePolicy", "config": {"name": "float32"}, "registered_name": null}}, "name": "multiply_4", "inbound_nodes": [{"args": [[{"class_name": "__keras_tensor__", "config": {"shape": [null, 64, 64, 256], "dtype": "float32", "keras_history": ["conv2d_21", 0, 0]}}, {"class_name": "__keras_tensor__", "config": {"shape": [null, 1, 1, 256], "dtype": "float32", "keras_history": ["dense_9", 0, 0]}}]], "kwargs": {}}]}, {"class_name": "Add", "config": {"name": "add_4", "trainable": true, "dtype": {"module": "keras", "class_name": "DTypePolicy", "config": {"name": "float32"}, "registered_name": null}}, "name": "add_4", "inbound_nodes": [{"args": [[{"class_name": "__keras_tensor__", "config": {"shape": [null, 64, 64, 256], "dtype": "float32", "keras_history": ["multiply_4", 0, 0]}}, {"class_name": "__keras_tensor__", "config": {"shape": [null, 64, 64, 256], "dtype": "float32", "keras_history": ["add_3", 0, 0]}}]], "kwargs": {}}]}, {"class_name": "SwitchableNormalization", "config": {"trainable": true, "dtype": {"module": "keras", "class_name": "DTypePolicy", "config": {"name": "float32"}, "registered_name": null}}, "name": "switchable_normalization_11", "inbound_nodes": [{"args": [{"class_name": "__keras_tensor__", "config": {"shape": [null, 64, 64, 256], "dtype": "float32", "keras_history": ["add_4", 0, 0]}}], "kwargs": {}}]}, {"class_name": "Activation", "config": {"name": "activation_10", "trainable": true, "dtype": {"module": "keras", "class_name": "DTypePolicy", "config": {"name": "float32"}, "registered_name": null}, "activation": "relu"}, "name": "activation_10", "inbound_nodes": [{"args": [{"class_name": "__keras_tensor__", "config": {"shape": [null, 64, 64, 256], "dtype": "float32", "keras_history": ["switchable_normalization_11", 0, 0]}}], "kwargs": {}}]}, {"class_name": "Conv2D", "config": {"name": "conv2d_22", "trainable": true, "dtype": {"module": "keras", "class_name": "DTypePolicy", "config": {"name": "float32"}, "registered_name": null}, "filters": 256, "kernel_size": [3, 3], "strides": [1, 1], "padding": "same", "data_format": "channels_last", "dilation_rate": [1, 1], "groups": 1, "activation": "linear", "use_bias": true, "kernel_initializer": {"module": "keras.initializers", "class_name": "GlorotUniform", "config": {"seed": null}, "registered_name": null}, "bias_initializer": {"module": "keras.initializers", "class_name": "Zeros", "config": {}, "registered_name": null}, "kernel_regularizer": null, "bias_regularizer": null, "activity_regularizer": null, "kernel_constraint": null, "bias_constraint": null}, "name": "conv2d_22", "inbound_nodes": [{"args": [{"class_name": "__keras_tensor__", "config": {"shape": [null, 64, 64, 256], "dtype": "float32", "keras_history": ["activation_10", 0, 0]}}], "kwargs": {}}]}, {"class_name": "SwitchableNormalization", "config": {"trainable": true, "dtype": {"module": "keras", "class_name": "DTypePolicy", "config": {"name": "float32"}, "registered_name": null}}, "name": "switchable_normalization_12", "inbound_nodes": [{"args": [{"class_name": "__keras_tensor__", "config": {"shape": [null, 64, 64, 256], "dtype": "float32", "keras_history": ["conv2d_22", 0, 0]}}], "kwargs": {}}]}, {"class_name": "Activation", "config": {"name": "activation_11", "trainable": true, "dtype": {"module": "keras", "class_name": "DTypePolicy", "config": {"name": "float32"}, "registered_name": null}, "activation": "relu"}, "name": "activation_11", "inbound_nodes": [{"args": [{"class_name": "__keras_tensor__", "config": {"shape": [null, 64, 64, 256], "dtype": "float32", "keras_history": ["switchable_normalization_12", 0, 0]}}], "kwargs": {}}]}, {"class_name": "Conv2D", "config": {"name": "conv2d_23", "trainable": true, "dtype": {"module": "keras", "class_name": "DTypePolicy", "config": {"name": "float32"}, "registered_name": null}, "filters": 256, "kernel_size": [3, 3], "strides": [1, 1], "padding": "same", "data_format": "channels_last", "dilation_rate": [1, 1], "groups": 1, "activation": "linear", "use_bias": true, "kernel_initializer": {"module": "keras.initializers", "class_name": "GlorotUniform", "config": {"seed": null}, "registered_name": null}, "bias_initializer": {"module": "keras.initializers", "class_name": "Zeros", "config": {}, "registered_name": null}, "kernel_regularizer": null, "bias_regularizer": null, "activity_regularizer": null, "kernel_constraint": null, "bias_constraint": null}, "name": "conv2d_23", "inbound_nodes": [{"args": [{"class_name": "__keras_tensor__", "config": {"shape": [null, 64, 64, 256], "dtype": "float32", "keras_history": ["activation_11", 0, 0]}}], "kwargs": {}}]}, {"class_name": "GlobalAveragePooling2D", "config": {"name": "global_average_pooling2d_5", "trainable": true, "dtype": {"module": "keras", "class_name": "DTypePolicy", "config": {"name": "float32"}, "registered_name": null}, "data_format": "channels_last", "keepdims": false}, "name": "global_average_pooling2d_5", "inbound_nodes": [{"args": [{"class_name": "__keras_tensor__", "config": {"shape": [null, 64, 64, 256], "dtype": "float32", "keras_history": ["conv2d_23", 0, 0]}}], "kwargs": {}}]}, {"class_name": "Reshape", "config": {"name": "reshape_5", "trainable": true, "dtype": {"module": "keras", "class_name": "DTypePolicy", "config": {"name": "float32"}, "registered_name": null}, "target_shape": [1, 1, 256]}, "name": "reshape_5", "inbound_nodes": [{"args": [{"class_name": "__keras_tensor__", "config": {"shape": [null, 256], "dtype": "float32", "keras_history": ["global_average_pooling2d_5", 0, 0]}}], "kwargs": {}}]}, {"class_name": "Dense", "config": {"name": "dense_10", "trainable": true, "dtype": {"module": "keras", "class_name": "DTypePolicy", "config": {"name": "float32"}, "registered_name": null}, "units": 16, "activation": "relu", "use_bias": true, "kernel_initializer": {"module": "keras.initializers", "class_name": "GlorotUniform", "config": {"seed": null}, "registered_name": null}, "bias_initializer": {"module": "keras.initializers", "class_name": "Zeros", "config": {}, "registered_name": null}, "kernel_regularizer": null, "bias_regularizer": null, "kernel_constraint": null, "bias_constraint": null}, "name": "dense_10", "inbound_nodes": [{"args": [{"class_name": "__keras_tensor__", "config": {"shape": [null, 1, 1, 256], "dtype": "float32", "keras_history": ["reshape_5", 0, 0]}}], "kwargs": {}}]}, {"class_name": "Dense", "config": {"name": "dense_11", "trainable": true, "dtype": {"module": "keras", "class_name": "DTypePolicy", "config": {"name": "float32"}, "registered_name": null}, "units": 256, "activation": "sigmoid", "use_bias": true, "kernel_initializer": {"module": "keras.initializers", "class_name": "GlorotUniform", "config": {"seed": null}, "registered_name": null}, "bias_initializer": {"module": "keras.initializers", "class_name": "Zeros", "config": {}, "registered_name": null}, "kernel_regularizer": null, "bias_regularizer": null, "kernel_constraint": null, "bias_constraint": null}, "name": "dense_11", "inbound_nodes": [{"args": [{"class_name": "__keras_tensor__", "config": {"shape": [null, 1, 1, 16], "dtype": "float32", "keras_history": ["dense_10", 0, 0]}}], "kwargs": {}}]}, {"class_name": "Multiply", "config": {"name": "multiply_5", "trainable": true, "dtype": {"module": "keras", "class_name": "DTypePolicy", "config": {"name": "float32"}, "registered_name": null}}, "name": "multiply_5", "inbound_nodes": [{"args": [[{"class_name": "__keras_tensor__", "config": {"shape": [null, 64, 64, 256], "dtype": "float32", "keras_history": ["conv2d_23", 0, 0]}}, {"class_name": "__keras_tensor__", "config": {"shape": [null, 1, 1, 256], "dtype": "float32", "keras_history": ["dense_11", 0, 0]}}]], "kwargs": {}}]}, {"class_name": "Add", "config": {"name": "add_5", "trainable": true, "dtype": {"module": "keras", "class_name": "DTypePolicy", "config": {"name": "float32"}, "registered_name": null}}, "name": "add_5", "inbound_nodes": [{"args": [[{"class_name": "__keras_tensor__", "config": {"shape": [null, 64, 64, 256], "dtype": "float32", "keras_history": ["multiply_5", 0, 0]}}, {"class_name": "__keras_tensor__", "config": {"shape": [null, 64, 64, 256], "dtype": "float32", "keras_history": ["add_4", 0, 0]}}]], "kwargs": {}}]}, {"class_name": "SwitchableNormalization", "config": {"trainable": true, "dtype": {"module": "keras", "class_name": "DTypePolicy", "config": {"name": "float32"}, "registered_name": null}}, "name": "switchable_normalization_13", "inbound_nodes": [{"args": [{"class_name": "__keras_tensor__", "config": {"shape": [null, 64, 64, 256], "dtype": "float32", "keras_history": ["add_5", 0, 0]}}], "kwargs": {}}]}, {"class_name": "Activation", "config": {"name": "activation_12", "trainable": true, "dtype": {"module": "keras", "class_name": "DTypePolicy", "config": {"name": "float32"}, "registered_name": null}, "activation": "relu"}, "name": "activation_12", "inbound_nodes": [{"args": [{"class_name": "__keras_tensor__", "config": {"shape": [null, 64, 64, 256], "dtype": "float32", "keras_history": ["switchable_normalization_13", 0, 0]}}], "kwargs": {}}]}, {"class_name": "Conv2D", "config": {"name": "conv2d_24", "trainable": true, "dtype": {"module": "keras", "class_name": "DTypePolicy", "config": {"name": "float32"}, "registered_name": null}, "filters": 256, "kernel_size": [3, 3], "strides": [1, 1], "padding": "same", "data_format": "channels_last", "dilation_rate": [1, 1], "groups": 1, "activation": "linear", "use_bias": true, "kernel_initializer": {"module": "keras.initializers", "class_name": "GlorotUniform", "config": {"seed": null}, "registered_name": null}, "bias_initializer": {"module": "keras.initializers", "class_name": "Zeros", "config": {}, "registered_name": null}, "kernel_regularizer": null, "bias_regularizer": null, "activity_regularizer": null, "kernel_constraint": null, "bias_constraint": null}, "name": "conv2d_24", "inbound_nodes": [{"args": [{"class_name": "__keras_tensor__", "config": {"shape": [null, 64, 64, 256], "dtype": "float32", "keras_history": ["activation_12", 0, 0]}}], "kwargs": {}}]}, {"class_name": "SwitchableNormalization", "config": {"trainable": true, "dtype": {"module": "keras", "class_name": "DTypePolicy", "config": {"name": "float32"}, "registered_name": null}}, "name": "switchable_normalization_14", "inbound_nodes": [{"args": [{"class_name": "__keras_tensor__", "config": {"shape": [null, 64, 64, 256], "dtype": "float32", "keras_history": ["conv2d_24", 0, 0]}}], "kwargs": {}}]}, {"class_name": "Activation", "config": {"name": "activation_13", "trainable": true, "dtype": {"module": "keras", "class_name": "DTypePolicy", "config": {"name": "float32"}, "registered_name": null}, "activation": "relu"}, "name": "activation_13", "inbound_nodes": [{"args": [{"class_name": "__keras_tensor__", "config": {"shape": [null, 64, 64, 256], "dtype": "float32", "keras_history": ["switchable_normalization_14", 0, 0]}}], "kwargs": {}}]}, {"class_name": "Conv2D", "config": {"name": "conv2d_25", "trainable": true, "dtype": {"module": "keras", "class_name": "DTypePolicy", "config": {"name": "float32"}, "registered_name": null}, "filters": 256, "kernel_size": [3, 3], "strides": [1, 1], "padding": "same", "data_format": "channels_last", "dilation_rate": [1, 1], "groups": 1, "activation": "linear", "use_bias": true, "kernel_initializer": {"module": "keras.initializers", "class_name": "GlorotUniform", "config": {"seed": null}, "registered_name": null}, "bias_initializer": {"module": "keras.initializers", "class_name": "Zeros", "config": {}, "registered_name": null}, "kernel_regularizer": null, "bias_regularizer": null, "activity_regularizer": null, "kernel_constraint": null, "bias_constraint": null}, "name": "conv2d_25", "inbound_nodes": [{"args": [{"class_name": "__keras_tensor__", "config": {"shape": [null, 64, 64, 256], "dtype": "float32", "keras_history": ["activation_13", 0, 0]}}], "kwargs": {}}]}, {"class_name": "GlobalAveragePooling2D", "config": {"name": "global_average_pooling2d_6", "trainable": true, "dtype": {"module": "keras", "class_name": "DTypePolicy", "config": {"name": "float32"}, "registered_name": null}, "data_format": "channels_last", "keepdims": false}, "name": "global_average_pooling2d_6", "inbound_nodes": [{"args": [{"class_name": "__keras_tensor__", "config": {"shape": [null, 64, 64, 256], "dtype": "float32", "keras_history": ["conv2d_25", 0, 0]}}], "kwargs": {}}]}, {"class_name": "Reshape", "config": {"name": "reshape_6", "trainable": true, "dtype": {"module": "keras", "class_name": "DTypePolicy", "config": {"name": "float32"}, "registered_name": null}, "target_shape": [1, 1, 256]}, "name": "reshape_6", "inbound_nodes": [{"args": [{"class_name": "__keras_tensor__", "config": {"shape": [null, 256], "dtype": "float32", "keras_history": ["global_average_pooling2d_6", 0, 0]}}], "kwargs": {}}]}, {"class_name": "Dense", "config": {"name": "dense_12", "trainable": true, "dtype": {"module": "keras", "class_name": "DTypePolicy", "config": {"name": "float32"}, "registered_name": null}, "units": 16, "activation": "relu", "use_bias": true, "kernel_initializer": {"module": "keras.initializers", "class_name": "GlorotUniform", "config": {"seed": null}, "registered_name": null}, "bias_initializer": {"module": "keras.initializers", "class_name": "Zeros", "config": {}, "registered_name": null}, "kernel_regularizer": null, "bias_regularizer": null, "kernel_constraint": null, "bias_constraint": null}, "name": "dense_12", "inbound_nodes": [{"args": [{"class_name": "__keras_tensor__", "config": {"shape": [null, 1, 1, 256], "dtype": "float32", "keras_history": ["reshape_6", 0, 0]}}], "kwargs": {}}]}, {"class_name": "Dense", "config": {"name": "dense_13", "trainable": true, "dtype": {"module": "keras", "class_name": "DTypePolicy", "config": {"name": "float32"}, "registered_name": null}, "units": 256, "activation": "sigmoid", "use_bias": true, "kernel_initializer": {"module": "keras.initializers", "class_name": "GlorotUniform", "config": {"seed": null}, "registered_name": null}, "bias_initializer": {"module": "keras.initializers", "class_name": "Zeros", "config": {}, "registered_name": null}, "kernel_regularizer": null, "bias_regularizer": null, "kernel_constraint": null, "bias_constraint": null}, "name": "dense_13", "inbound_nodes": [{"args": [{"class_name": "__keras_tensor__", "config": {"shape": [null, 1, 1, 16], "dtype": "float32", "keras_history": ["dense_12", 0, 0]}}], "kwargs": {}}]}, {"class_name": "Multiply", "config": {"name": "multiply_6", "trainable": true, "dtype": {"module": "keras", "class_name": "DTypePolicy", "config": {"name": "float32"}, "registered_name": null}}, "name": "multiply_6", "inbound_nodes": [{"args": [[{"class_name": "__keras_tensor__", "config": {"shape": [null, 64, 64, 256], "dtype": "float32", "keras_history": ["conv2d_25", 0, 0]}}, {"class_name": "__keras_tensor__", "config": {"shape": [null, 1, 1, 256], "dtype": "float32", "keras_history": ["dense_13", 0, 0]}}]], "kwargs": {}}]}, {"class_name": "Add", "config": {"name": "add_6", "trainable": true, "dtype": {"module": "keras", "class_name": "DTypePolicy", "config": {"name": "float32"}, "registered_name": null}}, "name": "add_6", "inbound_nodes": [{"args": [[{"class_name": "__keras_tensor__", "config": {"shape": [null, 64, 64, 256], "dtype": "float32", "keras_history": ["multiply_6", 0, 0]}}, {"class_name": "__keras_tensor__", "config": {"shape": [null, 64, 64, 256], "dtype": "float32", "keras_history": ["add_5", 0, 0]}}]], "kwargs": {}}]}, {"class_name": "SwitchableNormalization", "config": {"trainable": true, "dtype": {"module": "keras", "class_name": "DTypePolicy", "config": {"name": "float32"}, "registered_name": null}}, "name": "switchable_normalization_15", "inbound_nodes": [{"args": [{"class_name": "__keras_tensor__", "config": {"shape": [null, 64, 64, 256], "dtype": "float32", "keras_history": ["add_6", 0, 0]}}], "kwargs": {}}]}, {"class_name": "Activation", "config": {"name": "activation_14", "trainable": true, "dtype": {"module": "keras", "class_name": "DTypePolicy", "config": {"name": "float32"}, "registered_name": null}, "activation": "relu"}, "name": "activation_14", "inbound_nodes": [{"args": [{"class_name": "__keras_tensor__", "config": {"shape": [null, 64, 64, 256], "dtype": "float32", "keras_history": ["switchable_normalization_15", 0, 0]}}], "kwargs": {}}]}, {"class_name": "Conv2D", "config": {"name": "conv2d_26", "trainable": true, "dtype": {"module": "keras", "class_name": "DTypePolicy", "config": {"name": "float32"}, "registered_name": null}, "filters": 256, "kernel_size": [3, 3], "strides": [1, 1], "padding": "same", "data_format": "channels_last", "dilation_rate": [1, 1], "groups": 1, "activation": "linear", "use_bias": true, "kernel_initializer": {"module": "keras.initializers", "class_name": "GlorotUniform", "config": {"seed": null}, "registered_name": null}, "bias_initializer": {"module": "keras.initializers", "class_name": "Zeros", "config": {}, "registered_name": null}, "kernel_regularizer": null, "bias_regularizer": null, "activity_regularizer": null, "kernel_constraint": null, "bias_constraint": null}, "name": "conv2d_26", "inbound_nodes": [{"args": [{"class_name": "__keras_tensor__", "config": {"shape": [null, 64, 64, 256], "dtype": "float32", "keras_history": ["activation_14", 0, 0]}}], "kwargs": {}}]}, {"class_name": "SwitchableNormalization", "config": {"trainable": true, "dtype": {"module": "keras", "class_name": "DTypePolicy", "config": {"name": "float32"}, "registered_name": null}}, "name": "switchable_normalization_16", "inbound_nodes": [{"args": [{"class_name": "__keras_tensor__", "config": {"shape": [null, 64, 64, 256], "dtype": "float32", "keras_history": ["conv2d_26", 0, 0]}}], "kwargs": {}}]}, {"class_name": "Activation", "config": {"name": "activation_15", "trainable": true, "dtype": {"module": "keras", "class_name": "DTypePolicy", "config": {"name": "float32"}, "registered_name": null}, "activation": "relu"}, "name": "activation_15", "inbound_nodes": [{"args": [{"class_name": "__keras_tensor__", "config": {"shape": [null, 64, 64, 256], "dtype": "float32", "keras_history": ["switchable_normalization_16", 0, 0]}}], "kwargs": {}}]}, {"class_name": "Conv2D", "config": {"name": "conv2d_27", "trainable": true, "dtype": {"module": "keras", "class_name": "DTypePolicy", "config": {"name": "float32"}, "registered_name": null}, "filters": 256, "kernel_size": [3, 3], "strides": [1, 1], "padding": "same", "data_format": "channels_last", "dilation_rate": [1, 1], "groups": 1, "activation": "linear", "use_bias": true, "kernel_initializer": {"module": "keras.initializers", "class_name": "GlorotUniform", "config": {"seed": null}, "registered_name": null}, "bias_initializer": {"module": "keras.initializers", "class_name": "Zeros", "config": {}, "registered_name": null}, "kernel_regularizer": null, "bias_regularizer": null, "activity_regularizer": null, "kernel_constraint": null, "bias_constraint": null}, "name": "conv2d_27", "inbound_nodes": [{"args": [{"class_name": "__keras_tensor__", "config": {"shape": [null, 64, 64, 256], "dtype": "float32", "keras_history": ["activation_15", 0, 0]}}], "kwargs": {}}]}, {"class_name": "GlobalAveragePooling2D", "config": {"name": "global_average_pooling2d_7", "trainable": true, "dtype": {"module": "keras", "class_name": "DTypePolicy", "config": {"name": "float32"}, "registered_name": null}, "data_format": "channels_last", "keepdims": false}, "name": "global_average_pooling2d_7", "inbound_nodes": [{"args": [{"class_name": "__keras_tensor__", "config": {"shape": [null, 64, 64, 256], "dtype": "float32", "keras_history": ["conv2d_27", 0, 0]}}], "kwargs": {}}]}, {"class_name": "Reshape", "config": {"name": "reshape_7", "trainable": true, "dtype": {"module": "keras", "class_name": "DTypePolicy", "config": {"name": "float32"}, "registered_name": null}, "target_shape": [1, 1, 256]}, "name": "reshape_7", "inbound_nodes": [{"args": [{"class_name": "__keras_tensor__", "config": {"shape": [null, 256], "dtype": "float32", "keras_history": ["global_average_pooling2d_7", 0, 0]}}], "kwargs": {}}]}, {"class_name": "Dense", "config": {"name": "dense_14", "trainable": true, "dtype": {"module": "keras", "class_name": "DTypePolicy", "config": {"name": "float32"}, "registered_name": null}, "units": 16, "activation": "relu", "use_bias": true, "kernel_initializer": {"module": "keras.initializers", "class_name": "GlorotUniform", "config": {"seed": null}, "registered_name": null}, "bias_initializer": {"module": "keras.initializers", "class_name": "Zeros", "config": {}, "registered_name": null}, "kernel_regularizer": null, "bias_regularizer": null, "kernel_constraint": null, "bias_constraint": null}, "name": "dense_14", "inbound_nodes": [{"args": [{"class_name": "__keras_tensor__", "config": {"shape": [null, 1, 1, 256], "dtype": "float32", "keras_history": ["reshape_7", 0, 0]}}], "kwargs": {}}]}, {"class_name": "Dense", "config": {"name": "dense_15", "trainable": true, "dtype": {"module": "keras", "class_name": "DTypePolicy", "config": {"name": "float32"}, "registered_name": null}, "units": 256, "activation": "sigmoid", "use_bias": true, "kernel_initializer": {"module": "keras.initializers", "class_name": "GlorotUniform", "config": {"seed": null}, "registered_name": null}, "bias_initializer": {"module": "keras.initializers", "class_name": "Zeros", "config": {}, "registered_name": null}, "kernel_regularizer": null, "bias_regularizer": null, "kernel_constraint": null, "bias_constraint": null}, "name": "dense_15", "inbound_nodes": [{"args": [{"class_name": "__keras_tensor__", "config": {"shape": [null, 1, 1, 16], "dtype": "float32", "keras_history": ["dense_14", 0, 0]}}], "kwargs": {}}]}, {"class_name": "Multiply", "config": {"name": "multiply_7", "trainable": true, "dtype": {"module": "keras", "class_name": "DTypePolicy", "config": {"name": "float32"}, "registered_name": null}}, "name": "multiply_7", "inbound_nodes": [{"args": [[{"class_name": "__keras_tensor__", "config": {"shape": [null, 64, 64, 256], "dtype": "float32", "keras_history": ["conv2d_27", 0, 0]}}, {"class_name": "__keras_tensor__", "config": {"shape": [null, 1, 1, 256], "dtype": "float32", "keras_history": ["dense_15", 0, 0]}}]], "kwargs": {}}]}, {"class_name": "Add", "config": {"name": "add_7", "trainable": true, "dtype": {"module": "keras", "class_name": "DTypePolicy", "config": {"name": "float32"}, "registered_name": null}}, "name": "add_7", "inbound_nodes": [{"args": [[{"class_name": "__keras_tensor__", "config": {"shape": [null, 64, 64, 256], "dtype": "float32", "keras_history": ["multiply_7", 0, 0]}}, {"class_name": "__keras_tensor__", "config": {"shape": [null, 64, 64, 256], "dtype": "float32", "keras_history": ["add_6", 0, 0]}}]], "kwargs": {}}]}, {"class_name": "SwitchableNormalization", "config": {"trainable": true, "dtype": {"module": "keras", "class_name": "DTypePolicy", "config": {"name": "float32"}, "registered_name": null}}, "name": "switchable_normalization_17", "inbound_nodes": [{"args": [{"class_name": "__keras_tensor__", "config": {"shape": [null, 64, 64, 256], "dtype": "float32", "keras_history": ["add_7", 0, 0]}}], "kwargs": {}}]}, {"class_name": "Activation", "config": {"name": "activation_16", "trainable": true, "dtype": {"module": "keras", "class_name": "DTypePolicy", "config": {"name": "float32"}, "registered_name": null}, "activation": "relu"}, "name": "activation_16", "inbound_nodes": [{"args": [{"class_name": "__keras_tensor__", "config": {"shape": [null, 64, 64, 256], "dtype": "float32", "keras_history": ["switchable_normalization_17", 0, 0]}}], "kwargs": {}}]}, {"class_name": "Conv2D", "config": {"name": "conv2d_28", "trainable": true, "dtype": {"module": "keras", "class_name": "DTypePolicy", "config": {"name": "float32"}, "registered_name": null}, "filters": 256, "kernel_size": [3, 3], "strides": [1, 1], "padding": "same", "data_format": "channels_last", "dilation_rate": [1, 1], "groups": 1, "activation": "linear", "use_bias": true, "kernel_initializer": {"module": "keras.initializers", "class_name": "GlorotUniform", "config": {"seed": null}, "registered_name": null}, "bias_initializer": {"module": "keras.initializers", "class_name": "Zeros", "config": {}, "registered_name": null}, "kernel_regularizer": null, "bias_regularizer": null, "activity_regularizer": null, "kernel_constraint": null, "bias_constraint": null}, "name": "conv2d_28", "inbound_nodes": [{"args": [{"class_name": "__keras_tensor__", "config": {"shape": [null, 64, 64, 256], "dtype": "float32", "keras_history": ["activation_16", 0, 0]}}], "kwargs": {}}]}, {"class_name": "SwitchableNormalization", "config": {"trainable": true, "dtype": {"module": "keras", "class_name": "DTypePolicy", "config": {"name": "float32"}, "registered_name": null}}, "name": "switchable_normalization_18", "inbound_nodes": [{"args": [{"class_name": "__keras_tensor__", "config": {"shape": [null, 64, 64, 256], "dtype": "float32", "keras_history": ["conv2d_28", 0, 0]}}], "kwargs": {}}]}, {"class_name": "Activation", "config": {"name": "activation_17", "trainable": true, "dtype": {"module": "keras", "class_name": "DTypePolicy", "config": {"name": "float32"}, "registered_name": null}, "activation": "relu"}, "name": "activation_17", "inbound_nodes": [{"args": [{"class_name": "__keras_tensor__", "config": {"shape": [null, 64, 64, 256], "dtype": "float32", "keras_history": ["switchable_normalization_18", 0, 0]}}], "kwargs": {}}]}, {"class_name": "Conv2D", "config": {"name": "conv2d_29", "trainable": true, "dtype": {"module": "keras", "class_name": "DTypePolicy", "config": {"name": "float32"}, "registered_name": null}, "filters": 256, "kernel_size": [3, 3], "strides": [1, 1], "padding": "same", "data_format": "channels_last", "dilation_rate": [1, 1], "groups": 1, "activation": "linear", "use_bias": true, "kernel_initializer": {"module": "keras.initializers", "class_name": "GlorotUniform", "config": {"seed": null}, "registered_name": null}, "bias_initializer": {"module": "keras.initializers", "class_name": "Zeros", "config": {}, "registered_name": null}, "kernel_regularizer": null, "bias_regularizer": null, "activity_regularizer": null, "kernel_constraint": null, "bias_constraint": null}, "name": "conv2d_29", "inbound_nodes": [{"args": [{"class_name": "__keras_tensor__", "config": {"shape": [null, 64, 64, 256], "dtype": "float32", "keras_history": ["activation_17", 0, 0]}}], "kwargs": {}}]}, {"class_name": "GlobalAveragePooling2D", "config": {"name": "global_average_pooling2d_8", "trainable": true, "dtype": {"module": "keras", "class_name": "DTypePolicy", "config": {"name": "float32"}, "registered_name": null}, "data_format": "channels_last", "keepdims": false}, "name": "global_average_pooling2d_8", "inbound_nodes": [{"args": [{"class_name": "__keras_tensor__", "config": {"shape": [null, 64, 64, 256], "dtype": "float32", "keras_history": ["conv2d_29", 0, 0]}}], "kwargs": {}}]}, {"class_name": "Reshape", "config": {"name": "reshape_8", "trainable": true, "dtype": {"module": "keras", "class_name": "DTypePolicy", "config": {"name": "float32"}, "registered_name": null}, "target_shape": [1, 1, 256]}, "name": "reshape_8", "inbound_nodes": [{"args": [{"class_name": "__keras_tensor__", "config": {"shape": [null, 256], "dtype": "float32", "keras_history": ["global_average_pooling2d_8", 0, 0]}}], "kwargs": {}}]}, {"class_name": "Dense", "config": {"name": "dense_16", "trainable": true, "dtype": {"module": "keras", "class_name": "DTypePolicy", "config": {"name": "float32"}, "registered_name": null}, "units": 16, "activation": "relu", "use_bias": true, "kernel_initializer": {"module": "keras.initializers", "class_name": "GlorotUniform", "config": {"seed": null}, "registered_name": null}, "bias_initializer": {"module": "keras.initializers", "class_name": "Zeros", "config": {}, "registered_name": null}, "kernel_regularizer": null, "bias_regularizer": null, "kernel_constraint": null, "bias_constraint": null}, "name": "dense_16", "inbound_nodes": [{"args": [{"class_name": "__keras_tensor__", "config": {"shape": [null, 1, 1, 256], "dtype": "float32", "keras_history": ["reshape_8", 0, 0]}}], "kwargs": {}}]}, {"class_name": "Dense", "config": {"name": "dense_17", "trainable": true, "dtype": {"module": "keras", "class_name": "DTypePolicy", "config": {"name": "float32"}, "registered_name": null}, "units": 256, "activation": "sigmoid", "use_bias": true, "kernel_initializer": {"module": "keras.initializers", "class_name": "GlorotUniform", "config": {"seed": null}, "registered_name": null}, "bias_initializer": {"module": "keras.initializers", "class_name": "Zeros", "config": {}, "registered_name": null}, "kernel_regularizer": null, "bias_regularizer": null, "kernel_constraint": null, "bias_constraint": null}, "name": "dense_17", "inbound_nodes": [{"args": [{"class_name": "__keras_tensor__", "config": {"shape": [null, 1, 1, 16], "dtype": "float32", "keras_history": ["dense_16", 0, 0]}}], "kwargs": {}}]}, {"class_name": "Multiply", "config": {"name": "multiply_8", "trainable": true, "dtype": {"module": "keras", "class_name": "DTypePolicy", "config": {"name": "float32"}, "registered_name": null}}, "name": "multiply_8", "inbound_nodes": [{"args": [[{"class_name": "__keras_tensor__", "config": {"shape": [null, 64, 64, 256], "dtype": "float32", "keras_history": ["conv2d_29", 0, 0]}}, {"class_name": "__keras_tensor__", "config": {"shape": [null, 1, 1, 256], "dtype": "float32", "keras_history": ["dense_17", 0, 0]}}]], "kwargs": {}}]}, {"class_name": "Add", "config": {"name": "add_8", "trainable": true, "dtype": {"module": "keras", "class_name": "DTypePolicy", "config": {"name": "float32"}, "registered_name": null}}, "name": "add_8", "inbound_nodes": [{"args": [[{"class_name": "__keras_tensor__", "config": {"shape": [null, 64, 64, 256], "dtype": "float32", "keras_history": ["multiply_8", 0, 0]}}, {"class_name": "__keras_tensor__", "config": {"shape": [null, 64, 64, 256], "dtype": "float32", "keras_history": ["add_7", 0, 0]}}]], "kwargs": {}}]}, {"class_name": "Conv2DTranspose", "config": {"name": "conv2d_transpose", "trainable": true, "dtype": {"module": "keras", "class_name": "DTypePolicy", "config": {"name": "float32"}, "registered_name": null}, "filters": 128, "kernel_size": [3, 3], "strides": [2, 2], "padding": "same", "data_format": "channels_last", "dilation_rate": [1, 1], "activation": "linear", "use_bias": true, "kernel_initializer": {"module": "keras.initializers", "class_name": "GlorotUniform", "config": {"seed": null}, "registered_name": null}, "bias_initializer": {"module": "keras.initializers", "class_name": "Zeros", "config": {}, "registered_name": null}, "kernel_regularizer": null, "bias_regularizer": null, "activity_regularizer": null, "kernel_constraint": null, "bias_constraint": null}, "name": "conv2d_transpose", "inbound_nodes": [{"args": [{"class_name": "__keras_tensor__", "config": {"shape": [null, 64, 64, 256], "dtype": "float32", "keras_history": ["add_8", 0, 0]}}], "kwargs": {}}]}, {"class_name": "Conv2DTranspose", "config": {"name": "conv2d_transpose_1", "trainable": true, "dtype": {"module": "keras", "class_name": "DTypePolicy", "config": {"name": "float32"}, "registered_name": null}, "filters": 64, "kernel_size": [3, 3], "strides": [2, 2], "padding": "same", "data_format": "channels_last", "dilation_rate": [1, 1], "activation": "linear", "use_bias": true, "kernel_initializer": {"module": "keras.initializers", "class_name": "GlorotUniform", "config": {"seed": null}, "registered_name": null}, "bias_initializer": {"module": "keras.initializers", "class_name": "Zeros", "config": {}, "registered_name": null}, "kernel_regularizer": null, "bias_regularizer": null, "activity_regularizer": null, "kernel_constraint": null, "bias_constraint": null}, "name": "conv2d_transpose_1", "inbound_nodes": [{"args": [{"class_name": "__keras_tensor__", "config": {"shape": [null, 128, 128, 128], "dtype": "float32", "keras_history": ["conv2d_transpose", 0, 0]}}], "kwargs": {}}]}, {"class_name": "Conv2D", "config": {"name": "conv2d_30", "trainable": true, "dtype": {"module": "keras", "class_name": "DTypePolicy", "config": {"name": "float32"}, "registered_name": null}, "filters": 3, "kernel_size": [7, 7], "strides": [1, 1], "padding": "same", "data_format": "channels_last", "dilation_rate": [1, 1], "groups": 1, "activation": "tanh", "use_bias": true, "kernel_initializer": {"module": "keras.initializers", "class_name": "GlorotUniform", "config": {"seed": null}, "registered_name": null}, "bias_initializer": {"module": "keras.initializers", "class_name": "Zeros", "config": {}, "registered_name": null}, "kernel_regularizer": null, "bias_regularizer": null, "activity_regularizer": null, "kernel_constraint": null, "bias_constraint": null}, "name": "conv2d_30", "inbound_nodes": [{"args": [{"class_name": "__keras_tensor__", "config": {"shape": [null, 256, 256, 64], "dtype": "float32", "keras_history": ["conv2d_transpose_1", 0, 0]}}], "kwargs": {}}]}], "input_layers": [["input_layer", 0, 0]], "output_layers": [["conv2d_30", 0, 0]]}}}, "weightsManifest": [{"paths": ["group1-shard1of11.bin", "group1-shard2of11.bin", "group1-shard3of11.bin", "group1-shard4of11.bin", "group1-shard5of11.bin", "group1-shard6of11.bin", "group1-shard7of11.bin", "group1-shard8of11.bin", "group1-shard9of11.bin", "group1-shard10of11.bin", "group1-shard11of11.bin"], "weights": [{"name": "conv2d_10/kernel", "shape": [3, 3, 64, 128], "dtype": "float32"}, {"name": "conv2d_10/bias", "shape": [128], "dtype": "float32"}, {"name": "conv2d_11/kernel", "shape": [3, 3, 128, 256], "dtype": "float32"}, {"name": "conv2d_11/bias", "shape": [256], "dtype": "float32"}, {"name": "conv2d_12/kernel", "shape": [3, 3, 256, 256], "dtype": "float32"}, {"name": "conv2d_12/bias", "shape": [256], "dtype": "float32"}, {"name": "conv2d_13/kernel", "shape": [3, 3, 256, 256], "dtype": "float32"}, {"name": "conv2d_13/bias", "shape": [256], "dtype": "float32"}, {"name": "conv2d_14/kernel", "shape": [3, 3, 256, 256], "dtype": "float32"}, {"name": "conv2d_14/bias", "shape": [256], "dtype": "float32"}, {"name": "conv2d_15/kernel", "shape": [3, 3, 256, 256], "dtype": "float32"}, {"name": "conv2d_15/bias", "shape": [256], "dtype": "float32"}, {"name": "conv2d_16/kernel", "shape": [3, 3, 256, 256], "dtype": "float32"}, {"name": "conv2d_16/bias", "shape": [256], "dtype": "float32"}, {"name": "conv2d_17/kernel", "shape": [3, 3, 256, 256], "dtype": "float32"}, {"name": "conv2d_17/bias", "shape": [256], "dtype": "float32"}, {"name": "conv2d_18/kernel", "shape": [3, 3, 256, 256], "dtype": "float32"}, {"name": "conv2d_18/bias", "shape": [256], "dtype": "float32"}, {"name": "conv2d_19/kernel", "shape": [3, 3, 256, 256], "dtype": "float32"}, {"name": "conv2d_19/bias", "shape": [256], "dtype": "float32"}, {"name": "conv2d_20/kernel", "shape": [3, 3, 256, 256], "dtype": "float32"}, {"name": "conv2d_20/bias", "shape": [256], "dtype": "float32"}, {"name": "conv2d_21/kernel", "shape": [3, 3, 256, 256], "dtype": "float32"}, {"name": "conv2d_21/bias", "shape": [256], "dtype": "float32"}, {"name": "conv2d_22/kernel", "shape": [3, 3, 256, 256], "dtype": "float32"}, {"name": "conv2d_22/bias", "shape": [256], "dtype": "float32"}, {"name": "conv2d_23/kernel", "shape": [3, 3, 256, 256], "dtype": "float32"}, {"name": "conv2d_23/bias", "shape": [256], "dtype": "float32"}, {"name": "conv2d_24/kernel", "shape": [3, 3, 256, 256], "dtype": "float32"}, {"name": "conv2d_24/bias", "shape": [256], "dtype": "float32"}, {"name": "conv2d_25/kernel", "shape": [3, 3, 256, 256], "dtype": "float32"}, {"name": "conv2d_25/bias", "shape": [256], "dtype": "float32"}, {"name": "conv2d_26/kernel", "shape": [3, 3, 256, 256], "dtype": "float32"}, {"name": "conv2d_26/bias", "shape": [256], "dtype": "float32"}, {"name": "conv2d_27/kernel", "shape": [3, 3, 256, 256], "dtype": "float32"}, {"name": "conv2d_27/bias", "shape": [256], "dtype": "float32"}, {"name": "conv2d_28/kernel", "shape": [3, 3, 256, 256], "dtype": "float32"}, {"name": "conv2d_28/bias", "shape": [256], "dtype": "float32"}, {"name": "conv2d_29/kernel", "shape": [3, 3, 256, 256], "dtype": "float32"}, {"name": "conv2d_29/bias", "shape": [256], "dtype": "float32"}, {"name": "conv2d_30/kernel", "shape": [7, 7, 64, 3], "dtype": "float32"}, {"name": "conv2d_30/bias", "shape": [3], "dtype": "float32"}, {"name": "conv2d_5/kernel", "shape": [1, 1, 3, 64], "dtype": "float32"}, {"name": "conv2d_5/bias", "shape": [64], "dtype": "float32"}, {"name": "conv2d_6/kernel", "shape": [3, 3, 3, 64], "dtype": "float32"}, {"name": "conv2d_6/bias", "shape": [64], "dtype": "float32"}, {"name": "conv2d_7/kernel", "shape": [5, 5, 3, 64], "dtype": "float32"}, {"name": "conv2d_7/bias", "shape": [64], "dtype": "float32"}, {"name": "conv2d_8/kernel", "shape": [7, 7, 3, 64], "dtype": "float32"}, {"name": "conv2d_8/bias", "shape": [64], "dtype": "float32"}, {"name": "conv2d_9/kernel", "shape": [1, 1, 256, 64], "dtype": "float32"}, {"name": "conv2d_9/bias", "shape": [64], "dtype": "float32"}, {"name": "conv2d_transpose/kernel", "shape": [3, 3, 128, 256], "dtype": "float32"}, {"name": "conv2d_transpose/bias", "shape": [128], "dtype": "float32"}, {"name": "conv2d_transpose_1/kernel", "shape": [3, 3, 64, 128], "dtype": "float32"}, {"name": "conv2d_transpose_1/bias", "shape": [64], "dtype": "float32"}, {"name": "dense/kernel", "shape": [256, 16], "dtype": "float32"}, {"name": "dense/bias", "shape": [16], "dtype": "float32"}, {"name": "dense_1/kernel", "shape": [16, 256], "dtype": "float32"}, {"name": "dense_1/bias", "shape": [256], "dtype": "float32"}, {"name": "dense_10/kernel", "shape": [256, 16], "dtype": "float32"}, {"name": "dense_10/bias", "shape": [16], "dtype": "float32"}, {"name": "dense_11/kernel", "shape": [16, 256], "dtype": "float32"}, {"name": "dense_11/bias", "shape": [256], "dtype": "float32"}, {"name": "dense_12/kernel", "shape": [256, 16], "dtype": "float32"}, {"name": "dense_12/bias", "shape": [16], "dtype": "float32"}, {"name": "dense_13/kernel", "shape": [16, 256], "dtype": "float32"}, {"name": "dense_13/bias", "shape": [256], "dtype": "float32"}, {"name": "dense_14/kernel", "shape": [256, 16], "dtype": "float32"}, {"name": "dense_14/bias", "shape": [16], "dtype": "float32"}, {"name": "dense_15/kernel", "shape": [16, 256], "dtype": "float32"}, {"name": "dense_15/bias", "shape": [256], "dtype": "float32"}, {"name": "dense_16/kernel", "shape": [256, 16], "dtype": "float32"}, {"name": "dense_16/bias", "shape": [16], "dtype": "float32"}, {"name": "dense_17/kernel", "shape": [16, 256], "dtype": "float32"}, {"name": "dense_17/bias", "shape": [256], "dtype": "float32"}, {"name": "dense_2/kernel", "shape": [256, 16], "dtype": "float32"}, {"name": "dense_2/bias", "shape": [16], "dtype": "float32"}, {"name": "dense_3/kernel", "shape": [16, 256], "dtype": "float32"}, {"name": "dense_3/bias", "shape": [256], "dtype": "float32"}, {"name": "dense_4/kernel", "shape": [256, 16], "dtype": "float32"}, {"name": "dense_4/bias", "shape": [16], "dtype": "float32"}, {"name": "dense_5/kernel", "shape": [16, 256], "dtype": "float32"}, {"name": "dense_5/bias", "shape": [256], "dtype": "float32"}, {"name": "dense_6/kernel", "shape": [256, 16], "dtype": "float32"}, {"name": "dense_6/bias", "shape": [16], "dtype": "float32"}, {"name": "dense_7/kernel", "shape": [16, 256], "dtype": "float32"}, {"name": "dense_7/bias", "shape": [256], "dtype": "float32"}, {"name": "dense_8/kernel", "shape": [256, 16], "dtype": "float32"}, {"name": "dense_8/bias", "shape": [16], "dtype": "float32"}, {"name": "dense_9/kernel", "shape": [16, 256], "dtype": "float32"}, {"name": "dense_9/bias", "shape": [256], "dtype": "float32"}, {"name": "switchable_normalization_1/variable_1", "shape": [3], "dtype": "float32"}, {"name": "switchable_normalization_1/batch_normalization_1/gamma", "shape": [256], "dtype": "float32"}, {"name": "switchable_normalization_1/batch_normalization_1/beta", "shape": [256], "dtype": "float32"}, {"name": "switchable_normalization_1/layer_normalization_1/gamma", "shape": [256], "dtype": "float32"}, {"name": "switchable_normalization_1/layer_normalization_1/beta", "shape": [256], "dtype": "float32"}, {"name": "switchable_normalization_1/group_normalization_1/gamma", "shape": [256], "dtype": "float32"}, {"name": "switchable_normalization_1/group_normalization_1/beta", "shape": [256], "dtype": "float32"}, {"name": "switchable_normalization_1/batch_normalization_1/moving_mean", "shape": [256], "dtype": "float32"}, {"name": "switchable_normalization_1/batch_normalization_1/moving_variance", "shape": [256], "dtype": "float32"}, {"name": "switchable_normalization_10/variable_10", "shape": [3], "dtype": "float32"}, {"name": "switchable_normalization_10/batch_normalization_10/gamma", "shape": [256], "dtype": "float32"}, {"name": "switchable_normalization_10/batch_normalization_10/beta", "shape": [256], "dtype": "float32"}, {"name": "switchable_normalization_10/layer_normalization_10/gamma", "shape": [256], "dtype": "float32"}, {"name": "switchable_normalization_10/layer_normalization_10/beta", "shape": [256], "dtype": "float32"}, {"name": "switchable_normalization_10/group_normalization_10/gamma", "shape": [256], "dtype": "float32"}, {"name": "switchable_normalization_10/group_normalization_10/beta", "shape": [256], "dtype": "float32"}, {"name": "switchable_normalization_10/batch_normalization_10/moving_mean", "shape": [256], "dtype": "float32"}, {"name": "switchable_normalization_10/batch_normalization_10/moving_variance", "shape": [256], "dtype": "float32"}, {"name": "switchable_normalization_11/variable_11", "shape": [3], "dtype": "float32"}, {"name": "switchable_normalization_11/batch_normalization_11/gamma", "shape": [256], "dtype": "float32"}, {"name": "switchable_normalization_11/batch_normalization_11/beta", "shape": [256], "dtype": "float32"}, {"name": "switchable_normalization_11/layer_normalization_11/gamma", "shape": [256], "dtype": "float32"}, {"name": "switchable_normalization_11/layer_normalization_11/beta", "shape": [256], "dtype": "float32"}, {"name": "switchable_normalization_11/group_normalization_11/gamma", "shape": [256], "dtype": "float32"}, {"name": "switchable_normalization_11/group_normalization_11/beta", "shape": [256], "dtype": "float32"}, {"name": "switchable_normalization_11/batch_normalization_11/moving_mean", "shape": [256], "dtype": "float32"}, {"name": "switchable_normalization_11/batch_normalization_11/moving_variance", "shape": [256], "dtype": "float32"}, {"name": "switchable_normalization_12/variable_12", "shape": [3], "dtype": "float32"}, {"name": "switchable_normalization_12/batch_normalization_12/gamma", "shape": [256], "dtype": "float32"}, {"name": "switchable_normalization_12/batch_normalization_12/beta", "shape": [256], "dtype": "float32"}, {"name": "switchable_normalization_12/layer_normalization_12/gamma", "shape": [256], "dtype": "float32"}, {"name": "switchable_normalization_12/layer_normalization_12/beta", "shape": [256], "dtype": "float32"}, {"name": "switchable_normalization_12/group_normalization_12/gamma", "shape": [256], "dtype": "float32"}, {"name": "switchable_normalization_12/group_normalization_12/beta", "shape": [256], "dtype": "float32"}, {"name": "switchable_normalization_12/batch_normalization_12/moving_mean", "shape": [256], "dtype": "float32"}, {"name": "switchable_normalization_12/batch_normalization_12/moving_variance", "shape": [256], "dtype": "float32"}, {"name": "switchable_normalization_13/variable_13", "shape": [3], "dtype": "float32"}, {"name": "switchable_normalization_13/batch_normalization_13/gamma", "shape": [256], "dtype": "float32"}, {"name": "switchable_normalization_13/batch_normalization_13/beta", "shape": [256], "dtype": "float32"}, {"name": "switchable_normalization_13/layer_normalization_13/gamma", "shape": [256], "dtype": "float32"}, {"name": "switchable_normalization_13/layer_normalization_13/beta", "shape": [256], "dtype": "float32"}, {"name": "switchable_normalization_13/group_normalization_13/gamma", "shape": [256], "dtype": "float32"}, {"name": "switchable_normalization_13/group_normalization_13/beta", "shape": [256], "dtype": "float32"}, {"name": "switchable_normalization_13/batch_normalization_13/moving_mean", "shape": [256], "dtype": "float32"}, {"name": "switchable_normalization_13/batch_normalization_13/moving_variance", "shape": [256], "dtype": "float32"}, {"name": "switchable_normalization_14/variable_14", "shape": [3], "dtype": "float32"}, {"name": "switchable_normalization_14/batch_normalization_14/gamma", "shape": [256], "dtype": "float32"}, {"name": "switchable_normalization_14/batch_normalization_14/beta", "shape": [256], "dtype": "float32"}, {"name": "switchable_normalization_14/layer_normalization_14/gamma", "shape": [256], "dtype": "float32"}, {"name": "switchable_normalization_14/layer_normalization_14/beta", "shape": [256], "dtype": "float32"}, {"name": "switchable_normalization_14/group_normalization_14/gamma", "shape": [256], "dtype": "float32"}, {"name": "switchable_normalization_14/group_normalization_14/beta", "shape": [256], "dtype": "float32"}, {"name": "switchable_normalization_14/batch_normalization_14/moving_mean", "shape": [256], "dtype": "float32"}, {"name": "switchable_normalization_14/batch_normalization_14/moving_variance", "shape": [256], "dtype": "float32"}, {"name": "switchable_normalization_15/variable_15", "shape": [3], "dtype": "float32"}, {"name": "switchable_normalization_15/batch_normalization_15/gamma", "shape": [256], "dtype": "float32"}, {"name": "switchable_normalization_15/batch_normalization_15/beta", "shape": [256], "dtype": "float32"}, {"name": "switchable_normalization_15/layer_normalization_15/gamma", "shape": [256], "dtype": "float32"}, {"name": "switchable_normalization_15/layer_normalization_15/beta", "shape": [256], "dtype": "float32"}, {"name": "switchable_normalization_15/group_normalization_15/gamma", "shape": [256], "dtype": "float32"}, {"name": "switchable_normalization_15/group_normalization_15/beta", "shape": [256], "dtype": "float32"}, {"name": "switchable_normalization_15/batch_normalization_15/moving_mean", "shape": [256], "dtype": "float32"}, {"name": "switchable_normalization_15/batch_normalization_15/moving_variance", "shape": [256], "dtype": "float32"}, {"name": "switchable_normalization_16/variable_16", "shape": [3], "dtype": "float32"}, {"name": "switchable_normalization_16/batch_normalization_16/gamma", "shape": [256], "dtype": "float32"}, {"name": "switchable_normalization_16/batch_normalization_16/beta", "shape": [256], "dtype": "float32"}, {"name": "switchable_normalization_16/layer_normalization_16/gamma", "shape": [256], "dtype": "float32"}, {"name": "switchable_normalization_16/layer_normalization_16/beta", "shape": [256], "dtype": "float32"}, {"name": "switchable_normalization_16/group_normalization_16/gamma", "shape": [256], "dtype": "float32"}, {"name": "switchable_normalization_16/group_normalization_16/beta", "shape": [256], "dtype": "float32"}, {"name": "switchable_normalization_16/batch_normalization_16/moving_mean", "shape": [256], "dtype": "float32"}, {"name": "switchable_normalization_16/batch_normalization_16/moving_variance", "shape": [256], "dtype": "float32"}, {"name": "switchable_normalization_17/variable_17", "shape": [3], "dtype": "float32"}, {"name": "switchable_normalization_17/batch_normalization_17/gamma", "shape": [256], "dtype": "float32"}, {"name": "switchable_normalization_17/batch_normalization_17/beta", "shape": [256], "dtype": "float32"}, {"name": "switchable_normalization_17/layer_normalization_17/gamma", "shape": [256], "dtype": "float32"}, {"name": "switchable_normalization_17/layer_normalization_17/beta", "shape": [256], "dtype": "float32"}, {"name": "switchable_normalization_17/group_normalization_17/gamma", "shape": [256], "dtype": "float32"}, {"name": "switchable_normalization_17/group_normalization_17/beta", "shape": [256], "dtype": "float32"}, {"name": "switchable_normalization_17/batch_normalization_17/moving_mean", "shape": [256], "dtype": "float32"}, {"name": "switchable_normalization_17/batch_normalization_17/moving_variance", "shape": [256], "dtype": "float32"}, {"name": "switchable_normalization_18/variable_18", "shape": [3], "dtype": "float32"}, {"name": "switchable_normalization_18/batch_normalization_18/gamma", "shape": [256], "dtype": "float32"}, {"name": "switchable_normalization_18/batch_normalization_18/beta", "shape": [256], "dtype": "float32"}, {"name": "switchable_normalization_18/layer_normalization_18/gamma", "shape": [256], "dtype": "float32"}, {"name": "switchable_normalization_18/layer_normalization_18/beta", "shape": [256], "dtype": "float32"}, {"name": "switchable_normalization_18/group_normalization_18/gamma", "shape": [256], "dtype": "float32"}, {"name": "switchable_normalization_18/group_normalization_18/beta", "shape": [256], "dtype": "float32"}, {"name": "switchable_normalization_18/batch_normalization_18/moving_mean", "shape": [256], "dtype": "float32"}, {"name": "switchable_normalization_18/batch_normalization_18/moving_variance", "shape": [256], "dtype": "float32"}, {"name": "switchable_normalization_2/variable_2", "shape": [3], "dtype": "float32"}, {"name": "switchable_normalization_2/batch_normalization_2/gamma", "shape": [256], "dtype": "float32"}, {"name": "switchable_normalization_2/batch_normalization_2/beta", "shape": [256], "dtype": "float32"}, {"name": "switchable_normalization_2/layer_normalization_2/gamma", "shape": [256], "dtype": "float32"}, {"name": "switchable_normalization_2/layer_normalization_2/beta", "shape": [256], "dtype": "float32"}, {"name": "switchable_normalization_2/group_normalization_2/gamma", "shape": [256], "dtype": "float32"}, {"name": "switchable_normalization_2/group_normalization_2/beta", "shape": [256], "dtype": "float32"}, {"name": "switchable_normalization_2/batch_normalization_2/moving_mean", "shape": [256], "dtype": "float32"}, {"name": "switchable_normalization_2/batch_normalization_2/moving_variance", "shape": [256], "dtype": "float32"}, {"name": "switchable_normalization_3/variable_3", "shape": [3], "dtype": "float32"}, {"name": "switchable_normalization_3/batch_normalization_3/gamma", "shape": [256], "dtype": "float32"}, {"name": "switchable_normalization_3/batch_normalization_3/beta", "shape": [256], "dtype": "float32"}, {"name": "switchable_normalization_3/layer_normalization_3/gamma", "shape": [256], "dtype": "float32"}, {"name": "switchable_normalization_3/layer_normalization_3/beta", "shape": [256], "dtype": "float32"}, {"name": "switchable_normalization_3/group_normalization_3/gamma", "shape": [256], "dtype": "float32"}, {"name": "switchable_normalization_3/group_normalization_3/beta", "shape": [256], "dtype": "float32"}, {"name": "switchable_normalization_3/batch_normalization_3/moving_mean", "shape": [256], "dtype": "float32"}, {"name": "switchable_normalization_3/batch_normalization_3/moving_variance", "shape": [256], "dtype": "float32"}, {"name": "switchable_normalization_4/variable_4", "shape": [3], "dtype": "float32"}, {"name": "switchable_normalization_4/batch_normalization_4/gamma", "shape": [256], "dtype": "float32"}, {"name": "switchable_normalization_4/batch_normalization_4/beta", "shape": [256], "dtype": "float32"}, {"name": "switchable_normalization_4/layer_normalization_4/gamma", "shape": [256], "dtype": "float32"}, {"name": "switchable_normalization_4/layer_normalization_4/beta", "shape": [256], "dtype": "float32"}, {"name": "switchable_normalization_4/group_normalization_4/gamma", "shape": [256], "dtype": "float32"}, {"name": "switchable_normalization_4/group_normalization_4/beta", "shape": [256], "dtype": "float32"}, {"name": "switchable_normalization_4/batch_normalization_4/moving_mean", "shape": [256], "dtype": "float32"}, {"name": "switchable_normalization_4/batch_normalization_4/moving_variance", "shape": [256], "dtype": "float32"}, {"name": "switchable_normalization_5/variable_5", "shape": [3], "dtype": "float32"}, {"name": "switchable_normalization_5/batch_normalization_5/gamma", "shape": [256], "dtype": "float32"}, {"name": "switchable_normalization_5/batch_normalization_5/beta", "shape": [256], "dtype": "float32"}, {"name": "switchable_normalization_5/layer_normalization_5/gamma", "shape": [256], "dtype": "float32"}, {"name": "switchable_normalization_5/layer_normalization_5/beta", "shape": [256], "dtype": "float32"}, {"name": "switchable_normalization_5/group_normalization_5/gamma", "shape": [256], "dtype": "float32"}, {"name": "switchable_normalization_5/group_normalization_5/beta", "shape": [256], "dtype": "float32"}, {"name": "switchable_normalization_5/batch_normalization_5/moving_mean", "shape": [256], "dtype": "float32"}, {"name": "switchable_normalization_5/batch_normalization_5/moving_variance", "shape": [256], "dtype": "float32"}, {"name": "switchable_normalization_6/variable_6", "shape": [3], "dtype": "float32"}, {"name": "switchable_normalization_6/batch_normalization_6/gamma", "shape": [256], "dtype": "float32"}, {"name": "switchable_normalization_6/batch_normalization_6/beta", "shape": [256], "dtype": "float32"}, {"name": "switchable_normalization_6/layer_normalization_6/gamma", "shape": [256], "dtype": "float32"}, {"name": "switchable_normalization_6/layer_normalization_6/beta", "shape": [256], "dtype": "float32"}, {"name": "switchable_normalization_6/group_normalization_6/gamma", "shape": [256], "dtype": "float32"}, {"name": "switchable_normalization_6/group_normalization_6/beta", "shape": [256], "dtype": "float32"}, {"name": "switchable_normalization_6/batch_normalization_6/moving_mean", "shape": [256], "dtype": "float32"}, {"name": "switchable_normalization_6/batch_normalization_6/moving_variance", "shape": [256], "dtype": "float32"}, {"name": "switchable_normalization_7/variable_7", "shape": [3], "dtype": "float32"}, {"name": "switchable_normalization_7/batch_normalization_7/gamma", "shape": [256], "dtype": "float32"}, {"name": "switchable_normalization_7/batch_normalization_7/beta", "shape": [256], "dtype": "float32"}, {"name": "switchable_normalization_7/layer_normalization_7/gamma", "shape": [256], "dtype": "float32"}, {"name": "switchable_normalization_7/layer_normalization_7/beta", "shape": [256], "dtype": "float32"}, {"name": "switchable_normalization_7/group_normalization_7/gamma", "shape": [256], "dtype": "float32"}, {"name": "switchable_normalization_7/group_normalization_7/beta", "shape": [256], "dtype": "float32"}, {"name": "switchable_normalization_7/batch_normalization_7/moving_mean", "shape": [256], "dtype": "float32"}, {"name": "switchable_normalization_7/batch_normalization_7/moving_variance", "shape": [256], "dtype": "float32"}, {"name": "switchable_normalization_8/variable_8", "shape": [3], "dtype": "float32"}, {"name": "switchable_normalization_8/batch_normalization_8/gamma", "shape": [256], "dtype": "float32"}, {"name": "switchable_normalization_8/batch_normalization_8/beta", "shape": [256], "dtype": "float32"}, {"name": "switchable_normalization_8/layer_normalization_8/gamma", "shape": [256], "dtype": "float32"}, {"name": "switchable_normalization_8/layer_normalization_8/beta", "shape": [256], "dtype": "float32"}, {"name": "switchable_normalization_8/group_normalization_8/gamma", "shape": [256], "dtype": "float32"}, {"name": "switchable_normalization_8/group_normalization_8/beta", "shape": [256], "dtype": "float32"}, {"name": "switchable_normalization_8/batch_normalization_8/moving_mean", "shape": [256], "dtype": "float32"}, {"name": "switchable_normalization_8/batch_normalization_8/moving_variance", "shape": [256], "dtype": "float32"}, {"name": "switchable_normalization_9/variable_9", "shape": [3], "dtype": "float32"}, {"name": "switchable_normalization_9/batch_normalization_9/gamma", "shape": [256], "dtype": "float32"}, {"name": "switchable_normalization_9/batch_normalization_9/beta", "shape": [256], "dtype": "float32"}, {"name": "switchable_normalization_9/layer_normalization_9/gamma", "shape": [256], "dtype": "float32"}, {"name": "switchable_normalization_9/layer_normalization_9/beta", "shape": [256], "dtype": "float32"}, {"name": "switchable_normalization_9/group_normalization_9/gamma", "shape": [256], "dtype": "float32"}, {"name": "switchable_normalization_9/group_normalization_9/beta", "shape": [256], "dtype": "float32"}, {"name": "switchable_normalization_9/batch_normalization_9/moving_mean", "shape": [256], "dtype": "float32"}, {"name": "switchable_normalization_9/batch_normalization_9/moving_variance", "shape": [256], "dtype": "float32"}]}]}