{"format": "layers-model", "generatedBy": "keras v3.10.0", "convertedBy": "TensorFlow.js Converter v4.22.0", "modelTopology": {"keras_version": "3.10.0", "backend": "tensorflow", "model_config": {"class_name": "Functional", "config": {"name": "Generator", "trainable": true, "layers": [{"class_name": "InputLayer", "config": {"batch_shape": [null, 256, 256, 3], "dtype": "float32", "sparse": false, "ragged": false, "name": "input_layer_3"}, "name": "input_layer_3", "inbound_nodes": []}, {"class_name": "Conv2D", "config": {"name": "conv2d_36", "trainable": true, "dtype": {"module": "keras", "class_name": "DTypePolicy", "config": {"name": "float32"}, "registered_name": null}, "filters": 64, "kernel_size": [1, 1], "strides": [1, 1], "padding": "same", "data_format": "channels_last", "dilation_rate": [1, 1], "groups": 1, "activation": "relu", "use_bias": true, "kernel_initializer": {"module": "keras.initializers", "class_name": "GlorotUniform", "config": {"seed": null}, "registered_name": null}, "bias_initializer": {"module": "keras.initializers", "class_name": "Zeros", "config": {}, "registered_name": null}, "kernel_regularizer": null, "bias_regularizer": null, "activity_regularizer": null, "kernel_constraint": null, "bias_constraint": null}, "name": "conv2d_36", "inbound_nodes": [{"args": [{"class_name": "__keras_tensor__", "config": {"shape": [null, 256, 256, 3], "dtype": "float32", "keras_history": ["input_layer_3", 0, 0]}}], "kwargs": {}}]}, {"class_name": "Conv2D", "config": {"name": "conv2d_37", "trainable": true, "dtype": {"module": "keras", "class_name": "DTypePolicy", "config": {"name": "float32"}, "registered_name": null}, "filters": 64, "kernel_size": [3, 3], "strides": [1, 1], "padding": "same", "data_format": "channels_last", "dilation_rate": [1, 1], "groups": 1, "activation": "relu", "use_bias": true, "kernel_initializer": {"module": "keras.initializers", "class_name": "GlorotUniform", "config": {"seed": null}, "registered_name": null}, "bias_initializer": {"module": "keras.initializers", "class_name": "Zeros", "config": {}, "registered_name": null}, "kernel_regularizer": null, "bias_regularizer": null, "activity_regularizer": null, "kernel_constraint": null, "bias_constraint": null}, "name": "conv2d_37", "inbound_nodes": [{"args": [{"class_name": "__keras_tensor__", "config": {"shape": [null, 256, 256, 3], "dtype": "float32", "keras_history": ["input_layer_3", 0, 0]}}], "kwargs": {}}]}, {"class_name": "Conv2D", "config": {"name": "conv2d_38", "trainable": true, "dtype": {"module": "keras", "class_name": "DTypePolicy", "config": {"name": "float32"}, "registered_name": null}, "filters": 64, "kernel_size": [5, 5], "strides": [1, 1], "padding": "same", "data_format": "channels_last", "dilation_rate": [1, 1], "groups": 1, "activation": "relu", "use_bias": true, "kernel_initializer": {"module": "keras.initializers", "class_name": "GlorotUniform", "config": {"seed": null}, "registered_name": null}, "bias_initializer": {"module": "keras.initializers", "class_name": "Zeros", "config": {}, "registered_name": null}, "kernel_regularizer": null, "bias_regularizer": null, "activity_regularizer": null, "kernel_constraint": null, "bias_constraint": null}, "name": "conv2d_38", "inbound_nodes": [{"args": [{"class_name": "__keras_tensor__", "config": {"shape": [null, 256, 256, 3], "dtype": "float32", "keras_history": ["input_layer_3", 0, 0]}}], "kwargs": {}}]}, {"class_name": "Conv2D", "config": {"name": "conv2d_39", "trainable": true, "dtype": {"module": "keras", "class_name": "DTypePolicy", "config": {"name": "float32"}, "registered_name": null}, "filters": 64, "kernel_size": [7, 7], "strides": [1, 1], "padding": "same", "data_format": "channels_last", "dilation_rate": [1, 1], "groups": 1, "activation": "relu", "use_bias": true, "kernel_initializer": {"module": "keras.initializers", "class_name": "GlorotUniform", "config": {"seed": null}, "registered_name": null}, "bias_initializer": {"module": "keras.initializers", "class_name": "Zeros", "config": {}, "registered_name": null}, "kernel_regularizer": null, "bias_regularizer": null, "activity_regularizer": null, "kernel_constraint": null, "bias_constraint": null}, "name": "conv2d_39", "inbound_nodes": [{"args": [{"class_name": "__keras_tensor__", "config": {"shape": [null, 256, 256, 3], "dtype": "float32", "keras_history": ["input_layer_3", 0, 0]}}], "kwargs": {}}]}, {"class_name": "Concatenate", "config": {"name": "concatenate_2", "trainable": true, "dtype": {"module": "keras", "class_name": "DTypePolicy", "config": {"name": "float32"}, "registered_name": null}, "axis": -1}, "name": "concatenate_2", "inbound_nodes": [{"args": [[{"class_name": "__keras_tensor__", "config": {"shape": [null, 256, 256, 64], "dtype": "float32", "keras_history": ["conv2d_36", 0, 0]}}, {"class_name": "__keras_tensor__", "config": {"shape": [null, 256, 256, 64], "dtype": "float32", "keras_history": ["conv2d_37", 0, 0]}}, {"class_name": "__keras_tensor__", "config": {"shape": [null, 256, 256, 64], "dtype": "float32", "keras_history": ["conv2d_38", 0, 0]}}, {"class_name": "__keras_tensor__", "config": {"shape": [null, 256, 256, 64], "dtype": "float32", "keras_history": ["conv2d_39", 0, 0]}}]], "kwargs": {}}]}, {"class_name": "Conv2D", "config": {"name": "conv2d_40", "trainable": true, "dtype": {"module": "keras", "class_name": "DTypePolicy", "config": {"name": "float32"}, "registered_name": null}, "filters": 64, "kernel_size": [1, 1], "strides": [1, 1], "padding": "same", "data_format": "channels_last", "dilation_rate": [1, 1], "groups": 1, "activation": "relu", "use_bias": true, "kernel_initializer": {"module": "keras.initializers", "class_name": "GlorotUniform", "config": {"seed": null}, "registered_name": null}, "bias_initializer": {"module": "keras.initializers", "class_name": "Zeros", "config": {}, "registered_name": null}, "kernel_regularizer": null, "bias_regularizer": null, "activity_regularizer": null, "kernel_constraint": null, "bias_constraint": null}, "name": "conv2d_40", "inbound_nodes": [{"args": [{"class_name": "__keras_tensor__", "config": {"shape": [null, 256, 256, 256], "dtype": "float32", "keras_history": ["concatenate_2", 0, 0]}}], "kwargs": {}}]}, {"class_name": "Conv2D", "config": {"name": "conv2d_41", "trainable": true, "dtype": {"module": "keras", "class_name": "DTypePolicy", "config": {"name": "float32"}, "registered_name": null}, "filters": 128, "kernel_size": [3, 3], "strides": [2, 2], "padding": "same", "data_format": "channels_last", "dilation_rate": [1, 1], "groups": 1, "activation": "linear", "use_bias": true, "kernel_initializer": {"module": "keras.initializers", "class_name": "GlorotUniform", "config": {"seed": null}, "registered_name": null}, "bias_initializer": {"module": "keras.initializers", "class_name": "Zeros", "config": {}, "registered_name": null}, "kernel_regularizer": null, "bias_regularizer": null, "activity_regularizer": null, "kernel_constraint": null, "bias_constraint": null}, "name": "conv2d_41", "inbound_nodes": [{"args": [{"class_name": "__keras_tensor__", "config": {"shape": [null, 256, 256, 64], "dtype": "float32", "keras_history": ["conv2d_40", 0, 0]}}], "kwargs": {}}]}, {"class_name": "Conv2D", "config": {"name": "conv2d_42", "trainable": true, "dtype": {"module": "keras", "class_name": "DTypePolicy", "config": {"name": "float32"}, "registered_name": null}, "filters": 256, "kernel_size": [3, 3], "strides": [2, 2], "padding": "same", "data_format": "channels_last", "dilation_rate": [1, 1], "groups": 1, "activation": "linear", "use_bias": true, "kernel_initializer": {"module": "keras.initializers", "class_name": "GlorotUniform", "config": {"seed": null}, "registered_name": null}, "bias_initializer": {"module": "keras.initializers", "class_name": "Zeros", "config": {}, "registered_name": null}, "kernel_regularizer": null, "bias_regularizer": null, "activity_regularizer": null, "kernel_constraint": null, "bias_constraint": null}, "name": "conv2d_42", "inbound_nodes": [{"args": [{"class_name": "__keras_tensor__", "config": {"shape": [null, 128, 128, 128], "dtype": "float32", "keras_history": ["conv2d_41", 0, 0]}}], "kwargs": {}}]}, {"class_name": "SwitchableNormalization", "config": {"trainable": true, "dtype": {"module": "keras", "class_name": "DTypePolicy", "config": {"name": "float32"}, "registered_name": null}}, "name": "switchable_normalization_19", "inbound_nodes": [{"args": [{"class_name": "__keras_tensor__", "config": {"shape": [null, 64, 64, 256], "dtype": "float32", "keras_history": ["conv2d_42", 0, 0]}}], "kwargs": {}}]}, {"class_name": "Activation", "config": {"name": "activation_18", "trainable": true, "dtype": {"module": "keras", "class_name": "DTypePolicy", "config": {"name": "float32"}, "registered_name": null}, "activation": "relu"}, "name": "activation_18", "inbound_nodes": [{"args": [{"class_name": "__keras_tensor__", "config": {"shape": [null, 64, 64, 256], "dtype": "float32", "keras_history": ["switchable_normalization_19", 0, 0]}}], "kwargs": {}}]}, {"class_name": "Conv2D", "config": {"name": "conv2d_43", "trainable": true, "dtype": {"module": "keras", "class_name": "DTypePolicy", "config": {"name": "float32"}, "registered_name": null}, "filters": 256, "kernel_size": [3, 3], "strides": [1, 1], "padding": "same", "data_format": "channels_last", "dilation_rate": [1, 1], "groups": 1, "activation": "linear", "use_bias": true, "kernel_initializer": {"module": "keras.initializers", "class_name": "GlorotUniform", "config": {"seed": null}, "registered_name": null}, "bias_initializer": {"module": "keras.initializers", "class_name": "Zeros", "config": {}, "registered_name": null}, "kernel_regularizer": null, "bias_regularizer": null, "activity_regularizer": null, "kernel_constraint": null, "bias_constraint": null}, "name": "conv2d_43", "inbound_nodes": [{"args": [{"class_name": "__keras_tensor__", "config": {"shape": [null, 64, 64, 256], "dtype": "float32", "keras_history": ["activation_18", 0, 0]}}], "kwargs": {}}]}, {"class_name": "SwitchableNormalization", "config": {"trainable": true, "dtype": {"module": "keras", "class_name": "DTypePolicy", "config": {"name": "float32"}, "registered_name": null}}, "name": "switchable_normalization_20", "inbound_nodes": [{"args": [{"class_name": "__keras_tensor__", "config": {"shape": [null, 64, 64, 256], "dtype": "float32", "keras_history": ["conv2d_43", 0, 0]}}], "kwargs": {}}]}, {"class_name": "Activation", "config": {"name": "activation_19", "trainable": true, "dtype": {"module": "keras", "class_name": "DTypePolicy", "config": {"name": "float32"}, "registered_name": null}, "activation": "relu"}, "name": "activation_19", "inbound_nodes": [{"args": [{"class_name": "__keras_tensor__", "config": {"shape": [null, 64, 64, 256], "dtype": "float32", "keras_history": ["switchable_normalization_20", 0, 0]}}], "kwargs": {}}]}, {"class_name": "Conv2D", "config": {"name": "conv2d_44", "trainable": true, "dtype": {"module": "keras", "class_name": "DTypePolicy", "config": {"name": "float32"}, "registered_name": null}, "filters": 256, "kernel_size": [3, 3], "strides": [1, 1], "padding": "same", "data_format": "channels_last", "dilation_rate": [1, 1], "groups": 1, "activation": "linear", "use_bias": true, "kernel_initializer": {"module": "keras.initializers", "class_name": "GlorotUniform", "config": {"seed": null}, "registered_name": null}, "bias_initializer": {"module": "keras.initializers", "class_name": "Zeros", "config": {}, "registered_name": null}, "kernel_regularizer": null, "bias_regularizer": null, "activity_regularizer": null, "kernel_constraint": null, "bias_constraint": null}, "name": "conv2d_44", "inbound_nodes": [{"args": [{"class_name": "__keras_tensor__", "config": {"shape": [null, 64, 64, 256], "dtype": "float32", "keras_history": ["activation_19", 0, 0]}}], "kwargs": {}}]}, {"class_name": "GlobalAveragePooling2D", "config": {"name": "global_average_pooling2d_9", "trainable": true, "dtype": {"module": "keras", "class_name": "DTypePolicy", "config": {"name": "float32"}, "registered_name": null}, "data_format": "channels_last", "keepdims": false}, "name": "global_average_pooling2d_9", "inbound_nodes": [{"args": [{"class_name": "__keras_tensor__", "config": {"shape": [null, 64, 64, 256], "dtype": "float32", "keras_history": ["conv2d_44", 0, 0]}}], "kwargs": {}}]}, {"class_name": "Reshape", "config": {"name": "reshape_9", "trainable": true, "dtype": {"module": "keras", "class_name": "DTypePolicy", "config": {"name": "float32"}, "registered_name": null}, "target_shape": [1, 1, 256]}, "name": "reshape_9", "inbound_nodes": [{"args": [{"class_name": "__keras_tensor__", "config": {"shape": [null, 256], "dtype": "float32", "keras_history": ["global_average_pooling2d_9", 0, 0]}}], "kwargs": {}}]}, {"class_name": "Dense", "config": {"name": "dense_18", "trainable": true, "dtype": {"module": "keras", "class_name": "DTypePolicy", "config": {"name": "float32"}, "registered_name": null}, "units": 16, "activation": "relu", "use_bias": true, "kernel_initializer": {"module": "keras.initializers", "class_name": "GlorotUniform", "config": {"seed": null}, "registered_name": null}, "bias_initializer": {"module": "keras.initializers", "class_name": "Zeros", "config": {}, "registered_name": null}, "kernel_regularizer": null, "bias_regularizer": null, "kernel_constraint": null, "bias_constraint": null}, "name": "dense_18", "inbound_nodes": [{"args": [{"class_name": "__keras_tensor__", "config": {"shape": [null, 1, 1, 256], "dtype": "float32", "keras_history": ["reshape_9", 0, 0]}}], "kwargs": {}}]}, {"class_name": "Dense", "config": {"name": "dense_19", "trainable": true, "dtype": {"module": "keras", "class_name": "DTypePolicy", "config": {"name": "float32"}, "registered_name": null}, "units": 256, "activation": "sigmoid", "use_bias": true, "kernel_initializer": {"module": "keras.initializers", "class_name": "GlorotUniform", "config": {"seed": null}, "registered_name": null}, "bias_initializer": {"module": "keras.initializers", "class_name": "Zeros", "config": {}, "registered_name": null}, "kernel_regularizer": null, "bias_regularizer": null, "kernel_constraint": null, "bias_constraint": null}, "name": "dense_19", "inbound_nodes": [{"args": [{"class_name": "__keras_tensor__", "config": {"shape": [null, 1, 1, 16], "dtype": "float32", "keras_history": ["dense_18", 0, 0]}}], "kwargs": {}}]}, {"class_name": "Multiply", "config": {"name": "multiply_9", "trainable": true, "dtype": {"module": "keras", "class_name": "DTypePolicy", "config": {"name": "float32"}, "registered_name": null}}, "name": "multiply_9", "inbound_nodes": [{"args": [[{"class_name": "__keras_tensor__", "config": {"shape": [null, 64, 64, 256], "dtype": "float32", "keras_history": ["conv2d_44", 0, 0]}}, {"class_name": "__keras_tensor__", "config": {"shape": [null, 1, 1, 256], "dtype": "float32", "keras_history": ["dense_19", 0, 0]}}]], "kwargs": {}}]}, {"class_name": "Add", "config": {"name": "add_9", "trainable": true, "dtype": {"module": "keras", "class_name": "DTypePolicy", "config": {"name": "float32"}, "registered_name": null}}, "name": "add_9", "inbound_nodes": [{"args": [[{"class_name": "__keras_tensor__", "config": {"shape": [null, 64, 64, 256], "dtype": "float32", "keras_history": ["multiply_9", 0, 0]}}, {"class_name": "__keras_tensor__", "config": {"shape": [null, 64, 64, 256], "dtype": "float32", "keras_history": ["conv2d_42", 0, 0]}}]], "kwargs": {}}]}, {"class_name": "SwitchableNormalization", "config": {"trainable": true, "dtype": {"module": "keras", "class_name": "DTypePolicy", "config": {"name": "float32"}, "registered_name": null}}, "name": "switchable_normalization_21", "inbound_nodes": [{"args": [{"class_name": "__keras_tensor__", "config": {"shape": [null, 64, 64, 256], "dtype": "float32", "keras_history": ["add_9", 0, 0]}}], "kwargs": {}}]}, {"class_name": "Activation", "config": {"name": "activation_20", "trainable": true, "dtype": {"module": "keras", "class_name": "DTypePolicy", "config": {"name": "float32"}, "registered_name": null}, "activation": "relu"}, "name": "activation_20", "inbound_nodes": [{"args": [{"class_name": "__keras_tensor__", "config": {"shape": [null, 64, 64, 256], "dtype": "float32", "keras_history": ["switchable_normalization_21", 0, 0]}}], "kwargs": {}}]}, {"class_name": "Conv2D", "config": {"name": "conv2d_45", "trainable": true, "dtype": {"module": "keras", "class_name": "DTypePolicy", "config": {"name": "float32"}, "registered_name": null}, "filters": 256, "kernel_size": [3, 3], "strides": [1, 1], "padding": "same", "data_format": "channels_last", "dilation_rate": [1, 1], "groups": 1, "activation": "linear", "use_bias": true, "kernel_initializer": {"module": "keras.initializers", "class_name": "GlorotUniform", "config": {"seed": null}, "registered_name": null}, "bias_initializer": {"module": "keras.initializers", "class_name": "Zeros", "config": {}, "registered_name": null}, "kernel_regularizer": null, "bias_regularizer": null, "activity_regularizer": null, "kernel_constraint": null, "bias_constraint": null}, "name": "conv2d_45", "inbound_nodes": [{"args": [{"class_name": "__keras_tensor__", "config": {"shape": [null, 64, 64, 256], "dtype": "float32", "keras_history": ["activation_20", 0, 0]}}], "kwargs": {}}]}, {"class_name": "SwitchableNormalization", "config": {"trainable": true, "dtype": {"module": "keras", "class_name": "DTypePolicy", "config": {"name": "float32"}, "registered_name": null}}, "name": "switchable_normalization_22", "inbound_nodes": [{"args": [{"class_name": "__keras_tensor__", "config": {"shape": [null, 64, 64, 256], "dtype": "float32", "keras_history": ["conv2d_45", 0, 0]}}], "kwargs": {}}]}, {"class_name": "Activation", "config": {"name": "activation_21", "trainable": true, "dtype": {"module": "keras", "class_name": "DTypePolicy", "config": {"name": "float32"}, "registered_name": null}, "activation": "relu"}, "name": "activation_21", "inbound_nodes": [{"args": [{"class_name": "__keras_tensor__", "config": {"shape": [null, 64, 64, 256], "dtype": "float32", "keras_history": ["switchable_normalization_22", 0, 0]}}], "kwargs": {}}]}, {"class_name": "Conv2D", "config": {"name": "conv2d_46", "trainable": true, "dtype": {"module": "keras", "class_name": "DTypePolicy", "config": {"name": "float32"}, "registered_name": null}, "filters": 256, "kernel_size": [3, 3], "strides": [1, 1], "padding": "same", "data_format": "channels_last", "dilation_rate": [1, 1], "groups": 1, "activation": "linear", "use_bias": true, "kernel_initializer": {"module": "keras.initializers", "class_name": "GlorotUniform", "config": {"seed": null}, "registered_name": null}, "bias_initializer": {"module": "keras.initializers", "class_name": "Zeros", "config": {}, "registered_name": null}, "kernel_regularizer": null, "bias_regularizer": null, "activity_regularizer": null, "kernel_constraint": null, "bias_constraint": null}, "name": "conv2d_46", "inbound_nodes": [{"args": [{"class_name": "__keras_tensor__", "config": {"shape": [null, 64, 64, 256], "dtype": "float32", "keras_history": ["activation_21", 0, 0]}}], "kwargs": {}}]}, {"class_name": "GlobalAveragePooling2D", "config": {"name": "global_average_pooling2d_10", "trainable": true, "dtype": {"module": "keras", "class_name": "DTypePolicy", "config": {"name": "float32"}, "registered_name": null}, "data_format": "channels_last", "keepdims": false}, "name": "global_average_pooling2d_10", "inbound_nodes": [{"args": [{"class_name": "__keras_tensor__", "config": {"shape": [null, 64, 64, 256], "dtype": "float32", "keras_history": ["conv2d_46", 0, 0]}}], "kwargs": {}}]}, {"class_name": "Reshape", "config": {"name": "reshape_10", "trainable": true, "dtype": {"module": "keras", "class_name": "DTypePolicy", "config": {"name": "float32"}, "registered_name": null}, "target_shape": [1, 1, 256]}, "name": "reshape_10", "inbound_nodes": [{"args": [{"class_name": "__keras_tensor__", "config": {"shape": [null, 256], "dtype": "float32", "keras_history": ["global_average_pooling2d_10", 0, 0]}}], "kwargs": {}}]}, {"class_name": "Dense", "config": {"name": "dense_20", "trainable": true, "dtype": {"module": "keras", "class_name": "DTypePolicy", "config": {"name": "float32"}, "registered_name": null}, "units": 16, "activation": "relu", "use_bias": true, "kernel_initializer": {"module": "keras.initializers", "class_name": "GlorotUniform", "config": {"seed": null}, "registered_name": null}, "bias_initializer": {"module": "keras.initializers", "class_name": "Zeros", "config": {}, "registered_name": null}, "kernel_regularizer": null, "bias_regularizer": null, "kernel_constraint": null, "bias_constraint": null}, "name": "dense_20", "inbound_nodes": [{"args": [{"class_name": "__keras_tensor__", "config": {"shape": [null, 1, 1, 256], "dtype": "float32", "keras_history": ["reshape_10", 0, 0]}}], "kwargs": {}}]}, {"class_name": "Dense", "config": {"name": "dense_21", "trainable": true, "dtype": {"module": "keras", "class_name": "DTypePolicy", "config": {"name": "float32"}, "registered_name": null}, "units": 256, "activation": "sigmoid", "use_bias": true, "kernel_initializer": {"module": "keras.initializers", "class_name": "GlorotUniform", "config": {"seed": null}, "registered_name": null}, "bias_initializer": {"module": "keras.initializers", "class_name": "Zeros", "config": {}, "registered_name": null}, "kernel_regularizer": null, "bias_regularizer": null, "kernel_constraint": null, "bias_constraint": null}, "name": "dense_21", "inbound_nodes": [{"args": [{"class_name": "__keras_tensor__", "config": {"shape": [null, 1, 1, 16], "dtype": "float32", "keras_history": ["dense_20", 0, 0]}}], "kwargs": {}}]}, {"class_name": "Multiply", "config": {"name": "multiply_10", "trainable": true, "dtype": {"module": "keras", "class_name": "DTypePolicy", "config": {"name": "float32"}, "registered_name": null}}, "name": "multiply_10", "inbound_nodes": [{"args": [[{"class_name": "__keras_tensor__", "config": {"shape": [null, 64, 64, 256], "dtype": "float32", "keras_history": ["conv2d_46", 0, 0]}}, {"class_name": "__keras_tensor__", "config": {"shape": [null, 1, 1, 256], "dtype": "float32", "keras_history": ["dense_21", 0, 0]}}]], "kwargs": {}}]}, {"class_name": "Add", "config": {"name": "add_10", "trainable": true, "dtype": {"module": "keras", "class_name": "DTypePolicy", "config": {"name": "float32"}, "registered_name": null}}, "name": "add_10", "inbound_nodes": [{"args": [[{"class_name": "__keras_tensor__", "config": {"shape": [null, 64, 64, 256], "dtype": "float32", "keras_history": ["multiply_10", 0, 0]}}, {"class_name": "__keras_tensor__", "config": {"shape": [null, 64, 64, 256], "dtype": "float32", "keras_history": ["add_9", 0, 0]}}]], "kwargs": {}}]}, {"class_name": "SwitchableNormalization", "config": {"trainable": true, "dtype": {"module": "keras", "class_name": "DTypePolicy", "config": {"name": "float32"}, "registered_name": null}}, "name": "switchable_normalization_23", "inbound_nodes": [{"args": [{"class_name": "__keras_tensor__", "config": {"shape": [null, 64, 64, 256], "dtype": "float32", "keras_history": ["add_10", 0, 0]}}], "kwargs": {}}]}, {"class_name": "Activation", "config": {"name": "activation_22", "trainable": true, "dtype": {"module": "keras", "class_name": "DTypePolicy", "config": {"name": "float32"}, "registered_name": null}, "activation": "relu"}, "name": "activation_22", "inbound_nodes": [{"args": [{"class_name": "__keras_tensor__", "config": {"shape": [null, 64, 64, 256], "dtype": "float32", "keras_history": ["switchable_normalization_23", 0, 0]}}], "kwargs": {}}]}, {"class_name": "Conv2D", "config": {"name": "conv2d_47", "trainable": true, "dtype": {"module": "keras", "class_name": "DTypePolicy", "config": {"name": "float32"}, "registered_name": null}, "filters": 256, "kernel_size": [3, 3], "strides": [1, 1], "padding": "same", "data_format": "channels_last", "dilation_rate": [1, 1], "groups": 1, "activation": "linear", "use_bias": true, "kernel_initializer": {"module": "keras.initializers", "class_name": "GlorotUniform", "config": {"seed": null}, "registered_name": null}, "bias_initializer": {"module": "keras.initializers", "class_name": "Zeros", "config": {}, "registered_name": null}, "kernel_regularizer": null, "bias_regularizer": null, "activity_regularizer": null, "kernel_constraint": null, "bias_constraint": null}, "name": "conv2d_47", "inbound_nodes": [{"args": [{"class_name": "__keras_tensor__", "config": {"shape": [null, 64, 64, 256], "dtype": "float32", "keras_history": ["activation_22", 0, 0]}}], "kwargs": {}}]}, {"class_name": "SwitchableNormalization", "config": {"trainable": true, "dtype": {"module": "keras", "class_name": "DTypePolicy", "config": {"name": "float32"}, "registered_name": null}}, "name": "switchable_normalization_24", "inbound_nodes": [{"args": [{"class_name": "__keras_tensor__", "config": {"shape": [null, 64, 64, 256], "dtype": "float32", "keras_history": ["conv2d_47", 0, 0]}}], "kwargs": {}}]}, {"class_name": "Activation", "config": {"name": "activation_23", "trainable": true, "dtype": {"module": "keras", "class_name": "DTypePolicy", "config": {"name": "float32"}, "registered_name": null}, "activation": "relu"}, "name": "activation_23", "inbound_nodes": [{"args": [{"class_name": "__keras_tensor__", "config": {"shape": [null, 64, 64, 256], "dtype": "float32", "keras_history": ["switchable_normalization_24", 0, 0]}}], "kwargs": {}}]}, {"class_name": "Conv2D", "config": {"name": "conv2d_48", "trainable": true, "dtype": {"module": "keras", "class_name": "DTypePolicy", "config": {"name": "float32"}, "registered_name": null}, "filters": 256, "kernel_size": [3, 3], "strides": [1, 1], "padding": "same", "data_format": "channels_last", "dilation_rate": [1, 1], "groups": 1, "activation": "linear", "use_bias": true, "kernel_initializer": {"module": "keras.initializers", "class_name": "GlorotUniform", "config": {"seed": null}, "registered_name": null}, "bias_initializer": {"module": "keras.initializers", "class_name": "Zeros", "config": {}, "registered_name": null}, "kernel_regularizer": null, "bias_regularizer": null, "activity_regularizer": null, "kernel_constraint": null, "bias_constraint": null}, "name": "conv2d_48", "inbound_nodes": [{"args": [{"class_name": "__keras_tensor__", "config": {"shape": [null, 64, 64, 256], "dtype": "float32", "keras_history": ["activation_23", 0, 0]}}], "kwargs": {}}]}, {"class_name": "GlobalAveragePooling2D", "config": {"name": "global_average_pooling2d_11", "trainable": true, "dtype": {"module": "keras", "class_name": "DTypePolicy", "config": {"name": "float32"}, "registered_name": null}, "data_format": "channels_last", "keepdims": false}, "name": "global_average_pooling2d_11", "inbound_nodes": [{"args": [{"class_name": "__keras_tensor__", "config": {"shape": [null, 64, 64, 256], "dtype": "float32", "keras_history": ["conv2d_48", 0, 0]}}], "kwargs": {}}]}, {"class_name": "Reshape", "config": {"name": "reshape_11", "trainable": true, "dtype": {"module": "keras", "class_name": "DTypePolicy", "config": {"name": "float32"}, "registered_name": null}, "target_shape": [1, 1, 256]}, "name": "reshape_11", "inbound_nodes": [{"args": [{"class_name": "__keras_tensor__", "config": {"shape": [null, 256], "dtype": "float32", "keras_history": ["global_average_pooling2d_11", 0, 0]}}], "kwargs": {}}]}, {"class_name": "Dense", "config": {"name": "dense_22", "trainable": true, "dtype": {"module": "keras", "class_name": "DTypePolicy", "config": {"name": "float32"}, "registered_name": null}, "units": 16, "activation": "relu", "use_bias": true, "kernel_initializer": {"module": "keras.initializers", "class_name": "GlorotUniform", "config": {"seed": null}, "registered_name": null}, "bias_initializer": {"module": "keras.initializers", "class_name": "Zeros", "config": {}, "registered_name": null}, "kernel_regularizer": null, "bias_regularizer": null, "kernel_constraint": null, "bias_constraint": null}, "name": "dense_22", "inbound_nodes": [{"args": [{"class_name": "__keras_tensor__", "config": {"shape": [null, 1, 1, 256], "dtype": "float32", "keras_history": ["reshape_11", 0, 0]}}], "kwargs": {}}]}, {"class_name": "Dense", "config": {"name": "dense_23", "trainable": true, "dtype": {"module": "keras", "class_name": "DTypePolicy", "config": {"name": "float32"}, "registered_name": null}, "units": 256, "activation": "sigmoid", "use_bias": true, "kernel_initializer": {"module": "keras.initializers", "class_name": "GlorotUniform", "config": {"seed": null}, "registered_name": null}, "bias_initializer": {"module": "keras.initializers", "class_name": "Zeros", "config": {}, "registered_name": null}, "kernel_regularizer": null, "bias_regularizer": null, "kernel_constraint": null, "bias_constraint": null}, "name": "dense_23", "inbound_nodes": [{"args": [{"class_name": "__keras_tensor__", "config": {"shape": [null, 1, 1, 16], "dtype": "float32", "keras_history": ["dense_22", 0, 0]}}], "kwargs": {}}]}, {"class_name": "Multiply", "config": {"name": "multiply_11", "trainable": true, "dtype": {"module": "keras", "class_name": "DTypePolicy", "config": {"name": "float32"}, "registered_name": null}}, "name": "multiply_11", "inbound_nodes": [{"args": [[{"class_name": "__keras_tensor__", "config": {"shape": [null, 64, 64, 256], "dtype": "float32", "keras_history": ["conv2d_48", 0, 0]}}, {"class_name": "__keras_tensor__", "config": {"shape": [null, 1, 1, 256], "dtype": "float32", "keras_history": ["dense_23", 0, 0]}}]], "kwargs": {}}]}, {"class_name": "Add", "config": {"name": "add_11", "trainable": true, "dtype": {"module": "keras", "class_name": "DTypePolicy", "config": {"name": "float32"}, "registered_name": null}}, "name": "add_11", "inbound_nodes": [{"args": [[{"class_name": "__keras_tensor__", "config": {"shape": [null, 64, 64, 256], "dtype": "float32", "keras_history": ["multiply_11", 0, 0]}}, {"class_name": "__keras_tensor__", "config": {"shape": [null, 64, 64, 256], "dtype": "float32", "keras_history": ["add_10", 0, 0]}}]], "kwargs": {}}]}, {"class_name": "SwitchableNormalization", "config": {"trainable": true, "dtype": {"module": "keras", "class_name": "DTypePolicy", "config": {"name": "float32"}, "registered_name": null}}, "name": "switchable_normalization_25", "inbound_nodes": [{"args": [{"class_name": "__keras_tensor__", "config": {"shape": [null, 64, 64, 256], "dtype": "float32", "keras_history": ["add_11", 0, 0]}}], "kwargs": {}}]}, {"class_name": "Activation", "config": {"name": "activation_24", "trainable": true, "dtype": {"module": "keras", "class_name": "DTypePolicy", "config": {"name": "float32"}, "registered_name": null}, "activation": "relu"}, "name": "activation_24", "inbound_nodes": [{"args": [{"class_name": "__keras_tensor__", "config": {"shape": [null, 64, 64, 256], "dtype": "float32", "keras_history": ["switchable_normalization_25", 0, 0]}}], "kwargs": {}}]}, {"class_name": "Conv2D", "config": {"name": "conv2d_49", "trainable": true, "dtype": {"module": "keras", "class_name": "DTypePolicy", "config": {"name": "float32"}, "registered_name": null}, "filters": 256, "kernel_size": [3, 3], "strides": [1, 1], "padding": "same", "data_format": "channels_last", "dilation_rate": [1, 1], "groups": 1, "activation": "linear", "use_bias": true, "kernel_initializer": {"module": "keras.initializers", "class_name": "GlorotUniform", "config": {"seed": null}, "registered_name": null}, "bias_initializer": {"module": "keras.initializers", "class_name": "Zeros", "config": {}, "registered_name": null}, "kernel_regularizer": null, "bias_regularizer": null, "activity_regularizer": null, "kernel_constraint": null, "bias_constraint": null}, "name": "conv2d_49", "inbound_nodes": [{"args": [{"class_name": "__keras_tensor__", "config": {"shape": [null, 64, 64, 256], "dtype": "float32", "keras_history": ["activation_24", 0, 0]}}], "kwargs": {}}]}, {"class_name": "SwitchableNormalization", "config": {"trainable": true, "dtype": {"module": "keras", "class_name": "DTypePolicy", "config": {"name": "float32"}, "registered_name": null}}, "name": "switchable_normalization_26", "inbound_nodes": [{"args": [{"class_name": "__keras_tensor__", "config": {"shape": [null, 64, 64, 256], "dtype": "float32", "keras_history": ["conv2d_49", 0, 0]}}], "kwargs": {}}]}, {"class_name": "Activation", "config": {"name": "activation_25", "trainable": true, "dtype": {"module": "keras", "class_name": "DTypePolicy", "config": {"name": "float32"}, "registered_name": null}, "activation": "relu"}, "name": "activation_25", "inbound_nodes": [{"args": [{"class_name": "__keras_tensor__", "config": {"shape": [null, 64, 64, 256], "dtype": "float32", "keras_history": ["switchable_normalization_26", 0, 0]}}], "kwargs": {}}]}, {"class_name": "Conv2D", "config": {"name": "conv2d_50", "trainable": true, "dtype": {"module": "keras", "class_name": "DTypePolicy", "config": {"name": "float32"}, "registered_name": null}, "filters": 256, "kernel_size": [3, 3], "strides": [1, 1], "padding": "same", "data_format": "channels_last", "dilation_rate": [1, 1], "groups": 1, "activation": "linear", "use_bias": true, "kernel_initializer": {"module": "keras.initializers", "class_name": "GlorotUniform", "config": {"seed": null}, "registered_name": null}, "bias_initializer": {"module": "keras.initializers", "class_name": "Zeros", "config": {}, "registered_name": null}, "kernel_regularizer": null, "bias_regularizer": null, "activity_regularizer": null, "kernel_constraint": null, "bias_constraint": null}, "name": "conv2d_50", "inbound_nodes": [{"args": [{"class_name": "__keras_tensor__", "config": {"shape": [null, 64, 64, 256], "dtype": "float32", "keras_history": ["activation_25", 0, 0]}}], "kwargs": {}}]}, {"class_name": "GlobalAveragePooling2D", "config": {"name": "global_average_pooling2d_12", "trainable": true, "dtype": {"module": "keras", "class_name": "DTypePolicy", "config": {"name": "float32"}, "registered_name": null}, "data_format": "channels_last", "keepdims": false}, "name": "global_average_pooling2d_12", "inbound_nodes": [{"args": [{"class_name": "__keras_tensor__", "config": {"shape": [null, 64, 64, 256], "dtype": "float32", "keras_history": ["conv2d_50", 0, 0]}}], "kwargs": {}}]}, {"class_name": "Reshape", "config": {"name": "reshape_12", "trainable": true, "dtype": {"module": "keras", "class_name": "DTypePolicy", "config": {"name": "float32"}, "registered_name": null}, "target_shape": [1, 1, 256]}, "name": "reshape_12", "inbound_nodes": [{"args": [{"class_name": "__keras_tensor__", "config": {"shape": [null, 256], "dtype": "float32", "keras_history": ["global_average_pooling2d_12", 0, 0]}}], "kwargs": {}}]}, {"class_name": "Dense", "config": {"name": "dense_24", "trainable": true, "dtype": {"module": "keras", "class_name": "DTypePolicy", "config": {"name": "float32"}, "registered_name": null}, "units": 16, "activation": "relu", "use_bias": true, "kernel_initializer": {"module": "keras.initializers", "class_name": "GlorotUniform", "config": {"seed": null}, "registered_name": null}, "bias_initializer": {"module": "keras.initializers", "class_name": "Zeros", "config": {}, "registered_name": null}, "kernel_regularizer": null, "bias_regularizer": null, "kernel_constraint": null, "bias_constraint": null}, "name": "dense_24", "inbound_nodes": [{"args": [{"class_name": "__keras_tensor__", "config": {"shape": [null, 1, 1, 256], "dtype": "float32", "keras_history": ["reshape_12", 0, 0]}}], "kwargs": {}}]}, {"class_name": "Dense", "config": {"name": "dense_25", "trainable": true, "dtype": {"module": "keras", "class_name": "DTypePolicy", "config": {"name": "float32"}, "registered_name": null}, "units": 256, "activation": "sigmoid", "use_bias": true, "kernel_initializer": {"module": "keras.initializers", "class_name": "GlorotUniform", "config": {"seed": null}, "registered_name": null}, "bias_initializer": {"module": "keras.initializers", "class_name": "Zeros", "config": {}, "registered_name": null}, "kernel_regularizer": null, "bias_regularizer": null, "kernel_constraint": null, "bias_constraint": null}, "name": "dense_25", "inbound_nodes": [{"args": [{"class_name": "__keras_tensor__", "config": {"shape": [null, 1, 1, 16], "dtype": "float32", "keras_history": ["dense_24", 0, 0]}}], "kwargs": {}}]}, {"class_name": "Multiply", "config": {"name": "multiply_12", "trainable": true, "dtype": {"module": "keras", "class_name": "DTypePolicy", "config": {"name": "float32"}, "registered_name": null}}, "name": "multiply_12", "inbound_nodes": [{"args": [[{"class_name": "__keras_tensor__", "config": {"shape": [null, 64, 64, 256], "dtype": "float32", "keras_history": ["conv2d_50", 0, 0]}}, {"class_name": "__keras_tensor__", "config": {"shape": [null, 1, 1, 256], "dtype": "float32", "keras_history": ["dense_25", 0, 0]}}]], "kwargs": {}}]}, {"class_name": "Add", "config": {"name": "add_12", "trainable": true, "dtype": {"module": "keras", "class_name": "DTypePolicy", "config": {"name": "float32"}, "registered_name": null}}, "name": "add_12", "inbound_nodes": [{"args": [[{"class_name": "__keras_tensor__", "config": {"shape": [null, 64, 64, 256], "dtype": "float32", "keras_history": ["multiply_12", 0, 0]}}, {"class_name": "__keras_tensor__", "config": {"shape": [null, 64, 64, 256], "dtype": "float32", "keras_history": ["add_11", 0, 0]}}]], "kwargs": {}}]}, {"class_name": "SwitchableNormalization", "config": {"trainable": true, "dtype": {"module": "keras", "class_name": "DTypePolicy", "config": {"name": "float32"}, "registered_name": null}}, "name": "switchable_normalization_27", "inbound_nodes": [{"args": [{"class_name": "__keras_tensor__", "config": {"shape": [null, 64, 64, 256], "dtype": "float32", "keras_history": ["add_12", 0, 0]}}], "kwargs": {}}]}, {"class_name": "Activation", "config": {"name": "activation_26", "trainable": true, "dtype": {"module": "keras", "class_name": "DTypePolicy", "config": {"name": "float32"}, "registered_name": null}, "activation": "relu"}, "name": "activation_26", "inbound_nodes": [{"args": [{"class_name": "__keras_tensor__", "config": {"shape": [null, 64, 64, 256], "dtype": "float32", "keras_history": ["switchable_normalization_27", 0, 0]}}], "kwargs": {}}]}, {"class_name": "Conv2D", "config": {"name": "conv2d_51", "trainable": true, "dtype": {"module": "keras", "class_name": "DTypePolicy", "config": {"name": "float32"}, "registered_name": null}, "filters": 256, "kernel_size": [3, 3], "strides": [1, 1], "padding": "same", "data_format": "channels_last", "dilation_rate": [1, 1], "groups": 1, "activation": "linear", "use_bias": true, "kernel_initializer": {"module": "keras.initializers", "class_name": "GlorotUniform", "config": {"seed": null}, "registered_name": null}, "bias_initializer": {"module": "keras.initializers", "class_name": "Zeros", "config": {}, "registered_name": null}, "kernel_regularizer": null, "bias_regularizer": null, "activity_regularizer": null, "kernel_constraint": null, "bias_constraint": null}, "name": "conv2d_51", "inbound_nodes": [{"args": [{"class_name": "__keras_tensor__", "config": {"shape": [null, 64, 64, 256], "dtype": "float32", "keras_history": ["activation_26", 0, 0]}}], "kwargs": {}}]}, {"class_name": "SwitchableNormalization", "config": {"trainable": true, "dtype": {"module": "keras", "class_name": "DTypePolicy", "config": {"name": "float32"}, "registered_name": null}}, "name": "switchable_normalization_28", "inbound_nodes": [{"args": [{"class_name": "__keras_tensor__", "config": {"shape": [null, 64, 64, 256], "dtype": "float32", "keras_history": ["conv2d_51", 0, 0]}}], "kwargs": {}}]}, {"class_name": "Activation", "config": {"name": "activation_27", "trainable": true, "dtype": {"module": "keras", "class_name": "DTypePolicy", "config": {"name": "float32"}, "registered_name": null}, "activation": "relu"}, "name": "activation_27", "inbound_nodes": [{"args": [{"class_name": "__keras_tensor__", "config": {"shape": [null, 64, 64, 256], "dtype": "float32", "keras_history": ["switchable_normalization_28", 0, 0]}}], "kwargs": {}}]}, {"class_name": "Conv2D", "config": {"name": "conv2d_52", "trainable": true, "dtype": {"module": "keras", "class_name": "DTypePolicy", "config": {"name": "float32"}, "registered_name": null}, "filters": 256, "kernel_size": [3, 3], "strides": [1, 1], "padding": "same", "data_format": "channels_last", "dilation_rate": [1, 1], "groups": 1, "activation": "linear", "use_bias": true, "kernel_initializer": {"module": "keras.initializers", "class_name": "GlorotUniform", "config": {"seed": null}, "registered_name": null}, "bias_initializer": {"module": "keras.initializers", "class_name": "Zeros", "config": {}, "registered_name": null}, "kernel_regularizer": null, "bias_regularizer": null, "activity_regularizer": null, "kernel_constraint": null, "bias_constraint": null}, "name": "conv2d_52", "inbound_nodes": [{"args": [{"class_name": "__keras_tensor__", "config": {"shape": [null, 64, 64, 256], "dtype": "float32", "keras_history": ["activation_27", 0, 0]}}], "kwargs": {}}]}, {"class_name": "GlobalAveragePooling2D", "config": {"name": "global_average_pooling2d_13", "trainable": true, "dtype": {"module": "keras", "class_name": "DTypePolicy", "config": {"name": "float32"}, "registered_name": null}, "data_format": "channels_last", "keepdims": false}, "name": "global_average_pooling2d_13", "inbound_nodes": [{"args": [{"class_name": "__keras_tensor__", "config": {"shape": [null, 64, 64, 256], "dtype": "float32", "keras_history": ["conv2d_52", 0, 0]}}], "kwargs": {}}]}, {"class_name": "Reshape", "config": {"name": "reshape_13", "trainable": true, "dtype": {"module": "keras", "class_name": "DTypePolicy", "config": {"name": "float32"}, "registered_name": null}, "target_shape": [1, 1, 256]}, "name": "reshape_13", "inbound_nodes": [{"args": [{"class_name": "__keras_tensor__", "config": {"shape": [null, 256], "dtype": "float32", "keras_history": ["global_average_pooling2d_13", 0, 0]}}], "kwargs": {}}]}, {"class_name": "Dense", "config": {"name": "dense_26", "trainable": true, "dtype": {"module": "keras", "class_name": "DTypePolicy", "config": {"name": "float32"}, "registered_name": null}, "units": 16, "activation": "relu", "use_bias": true, "kernel_initializer": {"module": "keras.initializers", "class_name": "GlorotUniform", "config": {"seed": null}, "registered_name": null}, "bias_initializer": {"module": "keras.initializers", "class_name": "Zeros", "config": {}, "registered_name": null}, "kernel_regularizer": null, "bias_regularizer": null, "kernel_constraint": null, "bias_constraint": null}, "name": "dense_26", "inbound_nodes": [{"args": [{"class_name": "__keras_tensor__", "config": {"shape": [null, 1, 1, 256], "dtype": "float32", "keras_history": ["reshape_13", 0, 0]}}], "kwargs": {}}]}, {"class_name": "Dense", "config": {"name": "dense_27", "trainable": true, "dtype": {"module": "keras", "class_name": "DTypePolicy", "config": {"name": "float32"}, "registered_name": null}, "units": 256, "activation": "sigmoid", "use_bias": true, "kernel_initializer": {"module": "keras.initializers", "class_name": "GlorotUniform", "config": {"seed": null}, "registered_name": null}, "bias_initializer": {"module": "keras.initializers", "class_name": "Zeros", "config": {}, "registered_name": null}, "kernel_regularizer": null, "bias_regularizer": null, "kernel_constraint": null, "bias_constraint": null}, "name": "dense_27", "inbound_nodes": [{"args": [{"class_name": "__keras_tensor__", "config": {"shape": [null, 1, 1, 16], "dtype": "float32", "keras_history": ["dense_26", 0, 0]}}], "kwargs": {}}]}, {"class_name": "Multiply", "config": {"name": "multiply_13", "trainable": true, "dtype": {"module": "keras", "class_name": "DTypePolicy", "config": {"name": "float32"}, "registered_name": null}}, "name": "multiply_13", "inbound_nodes": [{"args": [[{"class_name": "__keras_tensor__", "config": {"shape": [null, 64, 64, 256], "dtype": "float32", "keras_history": ["conv2d_52", 0, 0]}}, {"class_name": "__keras_tensor__", "config": {"shape": [null, 1, 1, 256], "dtype": "float32", "keras_history": ["dense_27", 0, 0]}}]], "kwargs": {}}]}, {"class_name": "Add", "config": {"name": "add_13", "trainable": true, "dtype": {"module": "keras", "class_name": "DTypePolicy", "config": {"name": "float32"}, "registered_name": null}}, "name": "add_13", "inbound_nodes": [{"args": [[{"class_name": "__keras_tensor__", "config": {"shape": [null, 64, 64, 256], "dtype": "float32", "keras_history": ["multiply_13", 0, 0]}}, {"class_name": "__keras_tensor__", "config": {"shape": [null, 64, 64, 256], "dtype": "float32", "keras_history": ["add_12", 0, 0]}}]], "kwargs": {}}]}, {"class_name": "SwitchableNormalization", "config": {"trainable": true, "dtype": {"module": "keras", "class_name": "DTypePolicy", "config": {"name": "float32"}, "registered_name": null}}, "name": "switchable_normalization_29", "inbound_nodes": [{"args": [{"class_name": "__keras_tensor__", "config": {"shape": [null, 64, 64, 256], "dtype": "float32", "keras_history": ["add_13", 0, 0]}}], "kwargs": {}}]}, {"class_name": "Activation", "config": {"name": "activation_28", "trainable": true, "dtype": {"module": "keras", "class_name": "DTypePolicy", "config": {"name": "float32"}, "registered_name": null}, "activation": "relu"}, "name": "activation_28", "inbound_nodes": [{"args": [{"class_name": "__keras_tensor__", "config": {"shape": [null, 64, 64, 256], "dtype": "float32", "keras_history": ["switchable_normalization_29", 0, 0]}}], "kwargs": {}}]}, {"class_name": "Conv2D", "config": {"name": "conv2d_53", "trainable": true, "dtype": {"module": "keras", "class_name": "DTypePolicy", "config": {"name": "float32"}, "registered_name": null}, "filters": 256, "kernel_size": [3, 3], "strides": [1, 1], "padding": "same", "data_format": "channels_last", "dilation_rate": [1, 1], "groups": 1, "activation": "linear", "use_bias": true, "kernel_initializer": {"module": "keras.initializers", "class_name": "GlorotUniform", "config": {"seed": null}, "registered_name": null}, "bias_initializer": {"module": "keras.initializers", "class_name": "Zeros", "config": {}, "registered_name": null}, "kernel_regularizer": null, "bias_regularizer": null, "activity_regularizer": null, "kernel_constraint": null, "bias_constraint": null}, "name": "conv2d_53", "inbound_nodes": [{"args": [{"class_name": "__keras_tensor__", "config": {"shape": [null, 64, 64, 256], "dtype": "float32", "keras_history": ["activation_28", 0, 0]}}], "kwargs": {}}]}, {"class_name": "SwitchableNormalization", "config": {"trainable": true, "dtype": {"module": "keras", "class_name": "DTypePolicy", "config": {"name": "float32"}, "registered_name": null}}, "name": "switchable_normalization_30", "inbound_nodes": [{"args": [{"class_name": "__keras_tensor__", "config": {"shape": [null, 64, 64, 256], "dtype": "float32", "keras_history": ["conv2d_53", 0, 0]}}], "kwargs": {}}]}, {"class_name": "Activation", "config": {"name": "activation_29", "trainable": true, "dtype": {"module": "keras", "class_name": "DTypePolicy", "config": {"name": "float32"}, "registered_name": null}, "activation": "relu"}, "name": "activation_29", "inbound_nodes": [{"args": [{"class_name": "__keras_tensor__", "config": {"shape": [null, 64, 64, 256], "dtype": "float32", "keras_history": ["switchable_normalization_30", 0, 0]}}], "kwargs": {}}]}, {"class_name": "Conv2D", "config": {"name": "conv2d_54", "trainable": true, "dtype": {"module": "keras", "class_name": "DTypePolicy", "config": {"name": "float32"}, "registered_name": null}, "filters": 256, "kernel_size": [3, 3], "strides": [1, 1], "padding": "same", "data_format": "channels_last", "dilation_rate": [1, 1], "groups": 1, "activation": "linear", "use_bias": true, "kernel_initializer": {"module": "keras.initializers", "class_name": "GlorotUniform", "config": {"seed": null}, "registered_name": null}, "bias_initializer": {"module": "keras.initializers", "class_name": "Zeros", "config": {}, "registered_name": null}, "kernel_regularizer": null, "bias_regularizer": null, "activity_regularizer": null, "kernel_constraint": null, "bias_constraint": null}, "name": "conv2d_54", "inbound_nodes": [{"args": [{"class_name": "__keras_tensor__", "config": {"shape": [null, 64, 64, 256], "dtype": "float32", "keras_history": ["activation_29", 0, 0]}}], "kwargs": {}}]}, {"class_name": "GlobalAveragePooling2D", "config": {"name": "global_average_pooling2d_14", "trainable": true, "dtype": {"module": "keras", "class_name": "DTypePolicy", "config": {"name": "float32"}, "registered_name": null}, "data_format": "channels_last", "keepdims": false}, "name": "global_average_pooling2d_14", "inbound_nodes": [{"args": [{"class_name": "__keras_tensor__", "config": {"shape": [null, 64, 64, 256], "dtype": "float32", "keras_history": ["conv2d_54", 0, 0]}}], "kwargs": {}}]}, {"class_name": "Reshape", "config": {"name": "reshape_14", "trainable": true, "dtype": {"module": "keras", "class_name": "DTypePolicy", "config": {"name": "float32"}, "registered_name": null}, "target_shape": [1, 1, 256]}, "name": "reshape_14", "inbound_nodes": [{"args": [{"class_name": "__keras_tensor__", "config": {"shape": [null, 256], "dtype": "float32", "keras_history": ["global_average_pooling2d_14", 0, 0]}}], "kwargs": {}}]}, {"class_name": "Dense", "config": {"name": "dense_28", "trainable": true, "dtype": {"module": "keras", "class_name": "DTypePolicy", "config": {"name": "float32"}, "registered_name": null}, "units": 16, "activation": "relu", "use_bias": true, "kernel_initializer": {"module": "keras.initializers", "class_name": "GlorotUniform", "config": {"seed": null}, "registered_name": null}, "bias_initializer": {"module": "keras.initializers", "class_name": "Zeros", "config": {}, "registered_name": null}, "kernel_regularizer": null, "bias_regularizer": null, "kernel_constraint": null, "bias_constraint": null}, "name": "dense_28", "inbound_nodes": [{"args": [{"class_name": "__keras_tensor__", "config": {"shape": [null, 1, 1, 256], "dtype": "float32", "keras_history": ["reshape_14", 0, 0]}}], "kwargs": {}}]}, {"class_name": "Dense", "config": {"name": "dense_29", "trainable": true, "dtype": {"module": "keras", "class_name": "DTypePolicy", "config": {"name": "float32"}, "registered_name": null}, "units": 256, "activation": "sigmoid", "use_bias": true, "kernel_initializer": {"module": "keras.initializers", "class_name": "GlorotUniform", "config": {"seed": null}, "registered_name": null}, "bias_initializer": {"module": "keras.initializers", "class_name": "Zeros", "config": {}, "registered_name": null}, "kernel_regularizer": null, "bias_regularizer": null, "kernel_constraint": null, "bias_constraint": null}, "name": "dense_29", "inbound_nodes": [{"args": [{"class_name": "__keras_tensor__", "config": {"shape": [null, 1, 1, 16], "dtype": "float32", "keras_history": ["dense_28", 0, 0]}}], "kwargs": {}}]}, {"class_name": "Multiply", "config": {"name": "multiply_14", "trainable": true, "dtype": {"module": "keras", "class_name": "DTypePolicy", "config": {"name": "float32"}, "registered_name": null}}, "name": "multiply_14", "inbound_nodes": [{"args": [[{"class_name": "__keras_tensor__", "config": {"shape": [null, 64, 64, 256], "dtype": "float32", "keras_history": ["conv2d_54", 0, 0]}}, {"class_name": "__keras_tensor__", "config": {"shape": [null, 1, 1, 256], "dtype": "float32", "keras_history": ["dense_29", 0, 0]}}]], "kwargs": {}}]}, {"class_name": "Add", "config": {"name": "add_14", "trainable": true, "dtype": {"module": "keras", "class_name": "DTypePolicy", "config": {"name": "float32"}, "registered_name": null}}, "name": "add_14", "inbound_nodes": [{"args": [[{"class_name": "__keras_tensor__", "config": {"shape": [null, 64, 64, 256], "dtype": "float32", "keras_history": ["multiply_14", 0, 0]}}, {"class_name": "__keras_tensor__", "config": {"shape": [null, 64, 64, 256], "dtype": "float32", "keras_history": ["add_13", 0, 0]}}]], "kwargs": {}}]}, {"class_name": "SwitchableNormalization", "config": {"trainable": true, "dtype": {"module": "keras", "class_name": "DTypePolicy", "config": {"name": "float32"}, "registered_name": null}}, "name": "switchable_normalization_31", "inbound_nodes": [{"args": [{"class_name": "__keras_tensor__", "config": {"shape": [null, 64, 64, 256], "dtype": "float32", "keras_history": ["add_14", 0, 0]}}], "kwargs": {}}]}, {"class_name": "Activation", "config": {"name": "activation_30", "trainable": true, "dtype": {"module": "keras", "class_name": "DTypePolicy", "config": {"name": "float32"}, "registered_name": null}, "activation": "relu"}, "name": "activation_30", "inbound_nodes": [{"args": [{"class_name": "__keras_tensor__", "config": {"shape": [null, 64, 64, 256], "dtype": "float32", "keras_history": ["switchable_normalization_31", 0, 0]}}], "kwargs": {}}]}, {"class_name": "Conv2D", "config": {"name": "conv2d_55", "trainable": true, "dtype": {"module": "keras", "class_name": "DTypePolicy", "config": {"name": "float32"}, "registered_name": null}, "filters": 256, "kernel_size": [3, 3], "strides": [1, 1], "padding": "same", "data_format": "channels_last", "dilation_rate": [1, 1], "groups": 1, "activation": "linear", "use_bias": true, "kernel_initializer": {"module": "keras.initializers", "class_name": "GlorotUniform", "config": {"seed": null}, "registered_name": null}, "bias_initializer": {"module": "keras.initializers", "class_name": "Zeros", "config": {}, "registered_name": null}, "kernel_regularizer": null, "bias_regularizer": null, "activity_regularizer": null, "kernel_constraint": null, "bias_constraint": null}, "name": "conv2d_55", "inbound_nodes": [{"args": [{"class_name": "__keras_tensor__", "config": {"shape": [null, 64, 64, 256], "dtype": "float32", "keras_history": ["activation_30", 0, 0]}}], "kwargs": {}}]}, {"class_name": "SwitchableNormalization", "config": {"trainable": true, "dtype": {"module": "keras", "class_name": "DTypePolicy", "config": {"name": "float32"}, "registered_name": null}}, "name": "switchable_normalization_32", "inbound_nodes": [{"args": [{"class_name": "__keras_tensor__", "config": {"shape": [null, 64, 64, 256], "dtype": "float32", "keras_history": ["conv2d_55", 0, 0]}}], "kwargs": {}}]}, {"class_name": "Activation", "config": {"name": "activation_31", "trainable": true, "dtype": {"module": "keras", "class_name": "DTypePolicy", "config": {"name": "float32"}, "registered_name": null}, "activation": "relu"}, "name": "activation_31", "inbound_nodes": [{"args": [{"class_name": "__keras_tensor__", "config": {"shape": [null, 64, 64, 256], "dtype": "float32", "keras_history": ["switchable_normalization_32", 0, 0]}}], "kwargs": {}}]}, {"class_name": "Conv2D", "config": {"name": "conv2d_56", "trainable": true, "dtype": {"module": "keras", "class_name": "DTypePolicy", "config": {"name": "float32"}, "registered_name": null}, "filters": 256, "kernel_size": [3, 3], "strides": [1, 1], "padding": "same", "data_format": "channels_last", "dilation_rate": [1, 1], "groups": 1, "activation": "linear", "use_bias": true, "kernel_initializer": {"module": "keras.initializers", "class_name": "GlorotUniform", "config": {"seed": null}, "registered_name": null}, "bias_initializer": {"module": "keras.initializers", "class_name": "Zeros", "config": {}, "registered_name": null}, "kernel_regularizer": null, "bias_regularizer": null, "activity_regularizer": null, "kernel_constraint": null, "bias_constraint": null}, "name": "conv2d_56", "inbound_nodes": [{"args": [{"class_name": "__keras_tensor__", "config": {"shape": [null, 64, 64, 256], "dtype": "float32", "keras_history": ["activation_31", 0, 0]}}], "kwargs": {}}]}, {"class_name": "GlobalAveragePooling2D", "config": {"name": "global_average_pooling2d_15", "trainable": true, "dtype": {"module": "keras", "class_name": "DTypePolicy", "config": {"name": "float32"}, "registered_name": null}, "data_format": "channels_last", "keepdims": false}, "name": "global_average_pooling2d_15", "inbound_nodes": [{"args": [{"class_name": "__keras_tensor__", "config": {"shape": [null, 64, 64, 256], "dtype": "float32", "keras_history": ["conv2d_56", 0, 0]}}], "kwargs": {}}]}, {"class_name": "Reshape", "config": {"name": "reshape_15", "trainable": true, "dtype": {"module": "keras", "class_name": "DTypePolicy", "config": {"name": "float32"}, "registered_name": null}, "target_shape": [1, 1, 256]}, "name": "reshape_15", "inbound_nodes": [{"args": [{"class_name": "__keras_tensor__", "config": {"shape": [null, 256], "dtype": "float32", "keras_history": ["global_average_pooling2d_15", 0, 0]}}], "kwargs": {}}]}, {"class_name": "Dense", "config": {"name": "dense_30", "trainable": true, "dtype": {"module": "keras", "class_name": "DTypePolicy", "config": {"name": "float32"}, "registered_name": null}, "units": 16, "activation": "relu", "use_bias": true, "kernel_initializer": {"module": "keras.initializers", "class_name": "GlorotUniform", "config": {"seed": null}, "registered_name": null}, "bias_initializer": {"module": "keras.initializers", "class_name": "Zeros", "config": {}, "registered_name": null}, "kernel_regularizer": null, "bias_regularizer": null, "kernel_constraint": null, "bias_constraint": null}, "name": "dense_30", "inbound_nodes": [{"args": [{"class_name": "__keras_tensor__", "config": {"shape": [null, 1, 1, 256], "dtype": "float32", "keras_history": ["reshape_15", 0, 0]}}], "kwargs": {}}]}, {"class_name": "Dense", "config": {"name": "dense_31", "trainable": true, "dtype": {"module": "keras", "class_name": "DTypePolicy", "config": {"name": "float32"}, "registered_name": null}, "units": 256, "activation": "sigmoid", "use_bias": true, "kernel_initializer": {"module": "keras.initializers", "class_name": "GlorotUniform", "config": {"seed": null}, "registered_name": null}, "bias_initializer": {"module": "keras.initializers", "class_name": "Zeros", "config": {}, "registered_name": null}, "kernel_regularizer": null, "bias_regularizer": null, "kernel_constraint": null, "bias_constraint": null}, "name": "dense_31", "inbound_nodes": [{"args": [{"class_name": "__keras_tensor__", "config": {"shape": [null, 1, 1, 16], "dtype": "float32", "keras_history": ["dense_30", 0, 0]}}], "kwargs": {}}]}, {"class_name": "Multiply", "config": {"name": "multiply_15", "trainable": true, "dtype": {"module": "keras", "class_name": "DTypePolicy", "config": {"name": "float32"}, "registered_name": null}}, "name": "multiply_15", "inbound_nodes": [{"args": [[{"class_name": "__keras_tensor__", "config": {"shape": [null, 64, 64, 256], "dtype": "float32", "keras_history": ["conv2d_56", 0, 0]}}, {"class_name": "__keras_tensor__", "config": {"shape": [null, 1, 1, 256], "dtype": "float32", "keras_history": ["dense_31", 0, 0]}}]], "kwargs": {}}]}, {"class_name": "Add", "config": {"name": "add_15", "trainable": true, "dtype": {"module": "keras", "class_name": "DTypePolicy", "config": {"name": "float32"}, "registered_name": null}}, "name": "add_15", "inbound_nodes": [{"args": [[{"class_name": "__keras_tensor__", "config": {"shape": [null, 64, 64, 256], "dtype": "float32", "keras_history": ["multiply_15", 0, 0]}}, {"class_name": "__keras_tensor__", "config": {"shape": [null, 64, 64, 256], "dtype": "float32", "keras_history": ["add_14", 0, 0]}}]], "kwargs": {}}]}, {"class_name": "SwitchableNormalization", "config": {"trainable": true, "dtype": {"module": "keras", "class_name": "DTypePolicy", "config": {"name": "float32"}, "registered_name": null}}, "name": "switchable_normalization_33", "inbound_nodes": [{"args": [{"class_name": "__keras_tensor__", "config": {"shape": [null, 64, 64, 256], "dtype": "float32", "keras_history": ["add_15", 0, 0]}}], "kwargs": {}}]}, {"class_name": "Activation", "config": {"name": "activation_32", "trainable": true, "dtype": {"module": "keras", "class_name": "DTypePolicy", "config": {"name": "float32"}, "registered_name": null}, "activation": "relu"}, "name": "activation_32", "inbound_nodes": [{"args": [{"class_name": "__keras_tensor__", "config": {"shape": [null, 64, 64, 256], "dtype": "float32", "keras_history": ["switchable_normalization_33", 0, 0]}}], "kwargs": {}}]}, {"class_name": "Conv2D", "config": {"name": "conv2d_57", "trainable": true, "dtype": {"module": "keras", "class_name": "DTypePolicy", "config": {"name": "float32"}, "registered_name": null}, "filters": 256, "kernel_size": [3, 3], "strides": [1, 1], "padding": "same", "data_format": "channels_last", "dilation_rate": [1, 1], "groups": 1, "activation": "linear", "use_bias": true, "kernel_initializer": {"module": "keras.initializers", "class_name": "GlorotUniform", "config": {"seed": null}, "registered_name": null}, "bias_initializer": {"module": "keras.initializers", "class_name": "Zeros", "config": {}, "registered_name": null}, "kernel_regularizer": null, "bias_regularizer": null, "activity_regularizer": null, "kernel_constraint": null, "bias_constraint": null}, "name": "conv2d_57", "inbound_nodes": [{"args": [{"class_name": "__keras_tensor__", "config": {"shape": [null, 64, 64, 256], "dtype": "float32", "keras_history": ["activation_32", 0, 0]}}], "kwargs": {}}]}, {"class_name": "SwitchableNormalization", "config": {"trainable": true, "dtype": {"module": "keras", "class_name": "DTypePolicy", "config": {"name": "float32"}, "registered_name": null}}, "name": "switchable_normalization_34", "inbound_nodes": [{"args": [{"class_name": "__keras_tensor__", "config": {"shape": [null, 64, 64, 256], "dtype": "float32", "keras_history": ["conv2d_57", 0, 0]}}], "kwargs": {}}]}, {"class_name": "Activation", "config": {"name": "activation_33", "trainable": true, "dtype": {"module": "keras", "class_name": "DTypePolicy", "config": {"name": "float32"}, "registered_name": null}, "activation": "relu"}, "name": "activation_33", "inbound_nodes": [{"args": [{"class_name": "__keras_tensor__", "config": {"shape": [null, 64, 64, 256], "dtype": "float32", "keras_history": ["switchable_normalization_34", 0, 0]}}], "kwargs": {}}]}, {"class_name": "Conv2D", "config": {"name": "conv2d_58", "trainable": true, "dtype": {"module": "keras", "class_name": "DTypePolicy", "config": {"name": "float32"}, "registered_name": null}, "filters": 256, "kernel_size": [3, 3], "strides": [1, 1], "padding": "same", "data_format": "channels_last", "dilation_rate": [1, 1], "groups": 1, "activation": "linear", "use_bias": true, "kernel_initializer": {"module": "keras.initializers", "class_name": "GlorotUniform", "config": {"seed": null}, "registered_name": null}, "bias_initializer": {"module": "keras.initializers", "class_name": "Zeros", "config": {}, "registered_name": null}, "kernel_regularizer": null, "bias_regularizer": null, "activity_regularizer": null, "kernel_constraint": null, "bias_constraint": null}, "name": "conv2d_58", "inbound_nodes": [{"args": [{"class_name": "__keras_tensor__", "config": {"shape": [null, 64, 64, 256], "dtype": "float32", "keras_history": ["activation_33", 0, 0]}}], "kwargs": {}}]}, {"class_name": "GlobalAveragePooling2D", "config": {"name": "global_average_pooling2d_16", "trainable": true, "dtype": {"module": "keras", "class_name": "DTypePolicy", "config": {"name": "float32"}, "registered_name": null}, "data_format": "channels_last", "keepdims": false}, "name": "global_average_pooling2d_16", "inbound_nodes": [{"args": [{"class_name": "__keras_tensor__", "config": {"shape": [null, 64, 64, 256], "dtype": "float32", "keras_history": ["conv2d_58", 0, 0]}}], "kwargs": {}}]}, {"class_name": "Reshape", "config": {"name": "reshape_16", "trainable": true, "dtype": {"module": "keras", "class_name": "DTypePolicy", "config": {"name": "float32"}, "registered_name": null}, "target_shape": [1, 1, 256]}, "name": "reshape_16", "inbound_nodes": [{"args": [{"class_name": "__keras_tensor__", "config": {"shape": [null, 256], "dtype": "float32", "keras_history": ["global_average_pooling2d_16", 0, 0]}}], "kwargs": {}}]}, {"class_name": "Dense", "config": {"name": "dense_32", "trainable": true, "dtype": {"module": "keras", "class_name": "DTypePolicy", "config": {"name": "float32"}, "registered_name": null}, "units": 16, "activation": "relu", "use_bias": true, "kernel_initializer": {"module": "keras.initializers", "class_name": "GlorotUniform", "config": {"seed": null}, "registered_name": null}, "bias_initializer": {"module": "keras.initializers", "class_name": "Zeros", "config": {}, "registered_name": null}, "kernel_regularizer": null, "bias_regularizer": null, "kernel_constraint": null, "bias_constraint": null}, "name": "dense_32", "inbound_nodes": [{"args": [{"class_name": "__keras_tensor__", "config": {"shape": [null, 1, 1, 256], "dtype": "float32", "keras_history": ["reshape_16", 0, 0]}}], "kwargs": {}}]}, {"class_name": "Dense", "config": {"name": "dense_33", "trainable": true, "dtype": {"module": "keras", "class_name": "DTypePolicy", "config": {"name": "float32"}, "registered_name": null}, "units": 256, "activation": "sigmoid", "use_bias": true, "kernel_initializer": {"module": "keras.initializers", "class_name": "GlorotUniform", "config": {"seed": null}, "registered_name": null}, "bias_initializer": {"module": "keras.initializers", "class_name": "Zeros", "config": {}, "registered_name": null}, "kernel_regularizer": null, "bias_regularizer": null, "kernel_constraint": null, "bias_constraint": null}, "name": "dense_33", "inbound_nodes": [{"args": [{"class_name": "__keras_tensor__", "config": {"shape": [null, 1, 1, 16], "dtype": "float32", "keras_history": ["dense_32", 0, 0]}}], "kwargs": {}}]}, {"class_name": "Multiply", "config": {"name": "multiply_16", "trainable": true, "dtype": {"module": "keras", "class_name": "DTypePolicy", "config": {"name": "float32"}, "registered_name": null}}, "name": "multiply_16", "inbound_nodes": [{"args": [[{"class_name": "__keras_tensor__", "config": {"shape": [null, 64, 64, 256], "dtype": "float32", "keras_history": ["conv2d_58", 0, 0]}}, {"class_name": "__keras_tensor__", "config": {"shape": [null, 1, 1, 256], "dtype": "float32", "keras_history": ["dense_33", 0, 0]}}]], "kwargs": {}}]}, {"class_name": "Add", "config": {"name": "add_16", "trainable": true, "dtype": {"module": "keras", "class_name": "DTypePolicy", "config": {"name": "float32"}, "registered_name": null}}, "name": "add_16", "inbound_nodes": [{"args": [[{"class_name": "__keras_tensor__", "config": {"shape": [null, 64, 64, 256], "dtype": "float32", "keras_history": ["multiply_16", 0, 0]}}, {"class_name": "__keras_tensor__", "config": {"shape": [null, 64, 64, 256], "dtype": "float32", "keras_history": ["add_15", 0, 0]}}]], "kwargs": {}}]}, {"class_name": "SwitchableNormalization", "config": {"trainable": true, "dtype": {"module": "keras", "class_name": "DTypePolicy", "config": {"name": "float32"}, "registered_name": null}}, "name": "switchable_normalization_35", "inbound_nodes": [{"args": [{"class_name": "__keras_tensor__", "config": {"shape": [null, 64, 64, 256], "dtype": "float32", "keras_history": ["add_16", 0, 0]}}], "kwargs": {}}]}, {"class_name": "Activation", "config": {"name": "activation_34", "trainable": true, "dtype": {"module": "keras", "class_name": "DTypePolicy", "config": {"name": "float32"}, "registered_name": null}, "activation": "relu"}, "name": "activation_34", "inbound_nodes": [{"args": [{"class_name": "__keras_tensor__", "config": {"shape": [null, 64, 64, 256], "dtype": "float32", "keras_history": ["switchable_normalization_35", 0, 0]}}], "kwargs": {}}]}, {"class_name": "Conv2D", "config": {"name": "conv2d_59", "trainable": true, "dtype": {"module": "keras", "class_name": "DTypePolicy", "config": {"name": "float32"}, "registered_name": null}, "filters": 256, "kernel_size": [3, 3], "strides": [1, 1], "padding": "same", "data_format": "channels_last", "dilation_rate": [1, 1], "groups": 1, "activation": "linear", "use_bias": true, "kernel_initializer": {"module": "keras.initializers", "class_name": "GlorotUniform", "config": {"seed": null}, "registered_name": null}, "bias_initializer": {"module": "keras.initializers", "class_name": "Zeros", "config": {}, "registered_name": null}, "kernel_regularizer": null, "bias_regularizer": null, "activity_regularizer": null, "kernel_constraint": null, "bias_constraint": null}, "name": "conv2d_59", "inbound_nodes": [{"args": [{"class_name": "__keras_tensor__", "config": {"shape": [null, 64, 64, 256], "dtype": "float32", "keras_history": ["activation_34", 0, 0]}}], "kwargs": {}}]}, {"class_name": "SwitchableNormalization", "config": {"trainable": true, "dtype": {"module": "keras", "class_name": "DTypePolicy", "config": {"name": "float32"}, "registered_name": null}}, "name": "switchable_normalization_36", "inbound_nodes": [{"args": [{"class_name": "__keras_tensor__", "config": {"shape": [null, 64, 64, 256], "dtype": "float32", "keras_history": ["conv2d_59", 0, 0]}}], "kwargs": {}}]}, {"class_name": "Activation", "config": {"name": "activation_35", "trainable": true, "dtype": {"module": "keras", "class_name": "DTypePolicy", "config": {"name": "float32"}, "registered_name": null}, "activation": "relu"}, "name": "activation_35", "inbound_nodes": [{"args": [{"class_name": "__keras_tensor__", "config": {"shape": [null, 64, 64, 256], "dtype": "float32", "keras_history": ["switchable_normalization_36", 0, 0]}}], "kwargs": {}}]}, {"class_name": "Conv2D", "config": {"name": "conv2d_60", "trainable": true, "dtype": {"module": "keras", "class_name": "DTypePolicy", "config": {"name": "float32"}, "registered_name": null}, "filters": 256, "kernel_size": [3, 3], "strides": [1, 1], "padding": "same", "data_format": "channels_last", "dilation_rate": [1, 1], "groups": 1, "activation": "linear", "use_bias": true, "kernel_initializer": {"module": "keras.initializers", "class_name": "GlorotUniform", "config": {"seed": null}, "registered_name": null}, "bias_initializer": {"module": "keras.initializers", "class_name": "Zeros", "config": {}, "registered_name": null}, "kernel_regularizer": null, "bias_regularizer": null, "activity_regularizer": null, "kernel_constraint": null, "bias_constraint": null}, "name": "conv2d_60", "inbound_nodes": [{"args": [{"class_name": "__keras_tensor__", "config": {"shape": [null, 64, 64, 256], "dtype": "float32", "keras_history": ["activation_35", 0, 0]}}], "kwargs": {}}]}, {"class_name": "GlobalAveragePooling2D", "config": {"name": "global_average_pooling2d_17", "trainable": true, "dtype": {"module": "keras", "class_name": "DTypePolicy", "config": {"name": "float32"}, "registered_name": null}, "data_format": "channels_last", "keepdims": false}, "name": "global_average_pooling2d_17", "inbound_nodes": [{"args": [{"class_name": "__keras_tensor__", "config": {"shape": [null, 64, 64, 256], "dtype": "float32", "keras_history": ["conv2d_60", 0, 0]}}], "kwargs": {}}]}, {"class_name": "Reshape", "config": {"name": "reshape_17", "trainable": true, "dtype": {"module": "keras", "class_name": "DTypePolicy", "config": {"name": "float32"}, "registered_name": null}, "target_shape": [1, 1, 256]}, "name": "reshape_17", "inbound_nodes": [{"args": [{"class_name": "__keras_tensor__", "config": {"shape": [null, 256], "dtype": "float32", "keras_history": ["global_average_pooling2d_17", 0, 0]}}], "kwargs": {}}]}, {"class_name": "Dense", "config": {"name": "dense_34", "trainable": true, "dtype": {"module": "keras", "class_name": "DTypePolicy", "config": {"name": "float32"}, "registered_name": null}, "units": 16, "activation": "relu", "use_bias": true, "kernel_initializer": {"module": "keras.initializers", "class_name": "GlorotUniform", "config": {"seed": null}, "registered_name": null}, "bias_initializer": {"module": "keras.initializers", "class_name": "Zeros", "config": {}, "registered_name": null}, "kernel_regularizer": null, "bias_regularizer": null, "kernel_constraint": null, "bias_constraint": null}, "name": "dense_34", "inbound_nodes": [{"args": [{"class_name": "__keras_tensor__", "config": {"shape": [null, 1, 1, 256], "dtype": "float32", "keras_history": ["reshape_17", 0, 0]}}], "kwargs": {}}]}, {"class_name": "Dense", "config": {"name": "dense_35", "trainable": true, "dtype": {"module": "keras", "class_name": "DTypePolicy", "config": {"name": "float32"}, "registered_name": null}, "units": 256, "activation": "sigmoid", "use_bias": true, "kernel_initializer": {"module": "keras.initializers", "class_name": "GlorotUniform", "config": {"seed": null}, "registered_name": null}, "bias_initializer": {"module": "keras.initializers", "class_name": "Zeros", "config": {}, "registered_name": null}, "kernel_regularizer": null, "bias_regularizer": null, "kernel_constraint": null, "bias_constraint": null}, "name": "dense_35", "inbound_nodes": [{"args": [{"class_name": "__keras_tensor__", "config": {"shape": [null, 1, 1, 16], "dtype": "float32", "keras_history": ["dense_34", 0, 0]}}], "kwargs": {}}]}, {"class_name": "Multiply", "config": {"name": "multiply_17", "trainable": true, "dtype": {"module": "keras", "class_name": "DTypePolicy", "config": {"name": "float32"}, "registered_name": null}}, "name": "multiply_17", "inbound_nodes": [{"args": [[{"class_name": "__keras_tensor__", "config": {"shape": [null, 64, 64, 256], "dtype": "float32", "keras_history": ["conv2d_60", 0, 0]}}, {"class_name": "__keras_tensor__", "config": {"shape": [null, 1, 1, 256], "dtype": "float32", "keras_history": ["dense_35", 0, 0]}}]], "kwargs": {}}]}, {"class_name": "Add", "config": {"name": "add_17", "trainable": true, "dtype": {"module": "keras", "class_name": "DTypePolicy", "config": {"name": "float32"}, "registered_name": null}}, "name": "add_17", "inbound_nodes": [{"args": [[{"class_name": "__keras_tensor__", "config": {"shape": [null, 64, 64, 256], "dtype": "float32", "keras_history": ["multiply_17", 0, 0]}}, {"class_name": "__keras_tensor__", "config": {"shape": [null, 64, 64, 256], "dtype": "float32", "keras_history": ["add_16", 0, 0]}}]], "kwargs": {}}]}, {"class_name": "Conv2DTranspose", "config": {"name": "conv2d_transpose_2", "trainable": true, "dtype": {"module": "keras", "class_name": "DTypePolicy", "config": {"name": "float32"}, "registered_name": null}, "filters": 128, "kernel_size": [3, 3], "strides": [2, 2], "padding": "same", "data_format": "channels_last", "dilation_rate": [1, 1], "activation": "linear", "use_bias": true, "kernel_initializer": {"module": "keras.initializers", "class_name": "GlorotUniform", "config": {"seed": null}, "registered_name": null}, "bias_initializer": {"module": "keras.initializers", "class_name": "Zeros", "config": {}, "registered_name": null}, "kernel_regularizer": null, "bias_regularizer": null, "activity_regularizer": null, "kernel_constraint": null, "bias_constraint": null}, "name": "conv2d_transpose_2", "inbound_nodes": [{"args": [{"class_name": "__keras_tensor__", "config": {"shape": [null, 64, 64, 256], "dtype": "float32", "keras_history": ["add_17", 0, 0]}}], "kwargs": {}}]}, {"class_name": "Conv2DTranspose", "config": {"name": "conv2d_transpose_3", "trainable": true, "dtype": {"module": "keras", "class_name": "DTypePolicy", "config": {"name": "float32"}, "registered_name": null}, "filters": 64, "kernel_size": [3, 3], "strides": [2, 2], "padding": "same", "data_format": "channels_last", "dilation_rate": [1, 1], "activation": "linear", "use_bias": true, "kernel_initializer": {"module": "keras.initializers", "class_name": "GlorotUniform", "config": {"seed": null}, "registered_name": null}, "bias_initializer": {"module": "keras.initializers", "class_name": "Zeros", "config": {}, "registered_name": null}, "kernel_regularizer": null, "bias_regularizer": null, "activity_regularizer": null, "kernel_constraint": null, "bias_constraint": null}, "name": "conv2d_transpose_3", "inbound_nodes": [{"args": [{"class_name": "__keras_tensor__", "config": {"shape": [null, 128, 128, 128], "dtype": "float32", "keras_history": ["conv2d_transpose_2", 0, 0]}}], "kwargs": {}}]}, {"class_name": "Conv2D", "config": {"name": "conv2d_61", "trainable": true, "dtype": {"module": "keras", "class_name": "DTypePolicy", "config": {"name": "float32"}, "registered_name": null}, "filters": 3, "kernel_size": [7, 7], "strides": [1, 1], "padding": "same", "data_format": "channels_last", "dilation_rate": [1, 1], "groups": 1, "activation": "tanh", "use_bias": true, "kernel_initializer": {"module": "keras.initializers", "class_name": "GlorotUniform", "config": {"seed": null}, "registered_name": null}, "bias_initializer": {"module": "keras.initializers", "class_name": "Zeros", "config": {}, "registered_name": null}, "kernel_regularizer": null, "bias_regularizer": null, "activity_regularizer": null, "kernel_constraint": null, "bias_constraint": null}, "name": "conv2d_61", "inbound_nodes": [{"args": [{"class_name": "__keras_tensor__", "config": {"shape": [null, 256, 256, 64], "dtype": "float32", "keras_history": ["conv2d_transpose_3", 0, 0]}}], "kwargs": {}}]}], "input_layers": [["input_layer_3", 0, 0]], "output_layers": [["conv2d_61", 0, 0]]}}}, "weightsManifest": [{"paths": ["group1-shard1of11.bin", "group1-shard2of11.bin", "group1-shard3of11.bin", "group1-shard4of11.bin", "group1-shard5of11.bin", "group1-shard6of11.bin", "group1-shard7of11.bin", "group1-shard8of11.bin", "group1-shard9of11.bin", "group1-shard10of11.bin", "group1-shard11of11.bin"], "weights": [{"name": "conv2d_36/kernel", "shape": [1, 1, 3, 64], "dtype": "float32"}, {"name": "conv2d_36/bias", "shape": [64], "dtype": "float32"}, {"name": "conv2d_37/kernel", "shape": [3, 3, 3, 64], "dtype": "float32"}, {"name": "conv2d_37/bias", "shape": [64], "dtype": "float32"}, {"name": "conv2d_38/kernel", "shape": [5, 5, 3, 64], "dtype": "float32"}, {"name": "conv2d_38/bias", "shape": [64], "dtype": "float32"}, {"name": "conv2d_39/kernel", "shape": [7, 7, 3, 64], "dtype": "float32"}, {"name": "conv2d_39/bias", "shape": [64], "dtype": "float32"}, {"name": "conv2d_40/kernel", "shape": [1, 1, 256, 64], "dtype": "float32"}, {"name": "conv2d_40/bias", "shape": [64], "dtype": "float32"}, {"name": "conv2d_41/kernel", "shape": [3, 3, 64, 128], "dtype": "float32"}, {"name": "conv2d_41/bias", "shape": [128], "dtype": "float32"}, {"name": "conv2d_42/kernel", "shape": [3, 3, 128, 256], "dtype": "float32"}, {"name": "conv2d_42/bias", "shape": [256], "dtype": "float32"}, {"name": "conv2d_43/kernel", "shape": [3, 3, 256, 256], "dtype": "float32"}, {"name": "conv2d_43/bias", "shape": [256], "dtype": "float32"}, {"name": "conv2d_44/kernel", "shape": [3, 3, 256, 256], "dtype": "float32"}, {"name": "conv2d_44/bias", "shape": [256], "dtype": "float32"}, {"name": "conv2d_45/kernel", "shape": [3, 3, 256, 256], "dtype": "float32"}, {"name": "conv2d_45/bias", "shape": [256], "dtype": "float32"}, {"name": "conv2d_46/kernel", "shape": [3, 3, 256, 256], "dtype": "float32"}, {"name": "conv2d_46/bias", "shape": [256], "dtype": "float32"}, {"name": "conv2d_47/kernel", "shape": [3, 3, 256, 256], "dtype": "float32"}, {"name": "conv2d_47/bias", "shape": [256], "dtype": "float32"}, {"name": "conv2d_48/kernel", "shape": [3, 3, 256, 256], "dtype": "float32"}, {"name": "conv2d_48/bias", "shape": [256], "dtype": "float32"}, {"name": "conv2d_49/kernel", "shape": [3, 3, 256, 256], "dtype": "float32"}, {"name": "conv2d_49/bias", "shape": [256], "dtype": "float32"}, {"name": "conv2d_50/kernel", "shape": [3, 3, 256, 256], "dtype": "float32"}, {"name": "conv2d_50/bias", "shape": [256], "dtype": "float32"}, {"name": "conv2d_51/kernel", "shape": [3, 3, 256, 256], "dtype": "float32"}, {"name": "conv2d_51/bias", "shape": [256], "dtype": "float32"}, {"name": "conv2d_52/kernel", "shape": [3, 3, 256, 256], "dtype": "float32"}, {"name": "conv2d_52/bias", "shape": [256], "dtype": "float32"}, {"name": "conv2d_53/kernel", "shape": [3, 3, 256, 256], "dtype": "float32"}, {"name": "conv2d_53/bias", "shape": [256], "dtype": "float32"}, {"name": "conv2d_54/kernel", "shape": [3, 3, 256, 256], "dtype": "float32"}, {"name": "conv2d_54/bias", "shape": [256], "dtype": "float32"}, {"name": "conv2d_55/kernel", "shape": [3, 3, 256, 256], "dtype": "float32"}, {"name": "conv2d_55/bias", "shape": [256], "dtype": "float32"}, {"name": "conv2d_56/kernel", "shape": [3, 3, 256, 256], "dtype": "float32"}, {"name": "conv2d_56/bias", "shape": [256], "dtype": "float32"}, {"name": "conv2d_57/kernel", "shape": [3, 3, 256, 256], "dtype": "float32"}, {"name": "conv2d_57/bias", "shape": [256], "dtype": "float32"}, {"name": "conv2d_58/kernel", "shape": [3, 3, 256, 256], "dtype": "float32"}, {"name": "conv2d_58/bias", "shape": [256], "dtype": "float32"}, {"name": "conv2d_59/kernel", "shape": [3, 3, 256, 256], "dtype": "float32"}, {"name": "conv2d_59/bias", "shape": [256], "dtype": "float32"}, {"name": "conv2d_60/kernel", "shape": [3, 3, 256, 256], "dtype": "float32"}, {"name": "conv2d_60/bias", "shape": [256], "dtype": "float32"}, {"name": "conv2d_61/kernel", "shape": [7, 7, 64, 3], "dtype": "float32"}, {"name": "conv2d_61/bias", "shape": [3], "dtype": "float32"}, {"name": "conv2d_transpose_2/kernel", "shape": [3, 3, 128, 256], "dtype": "float32"}, {"name": "conv2d_transpose_2/bias", "shape": [128], "dtype": "float32"}, {"name": "conv2d_transpose_3/kernel", "shape": [3, 3, 64, 128], "dtype": "float32"}, {"name": "conv2d_transpose_3/bias", "shape": [64], "dtype": "float32"}, {"name": "dense_18/kernel", "shape": [256, 16], "dtype": "float32"}, {"name": "dense_18/bias", "shape": [16], "dtype": "float32"}, {"name": "dense_19/kernel", "shape": [16, 256], "dtype": "float32"}, {"name": "dense_19/bias", "shape": [256], "dtype": "float32"}, {"name": "dense_20/kernel", "shape": [256, 16], "dtype": "float32"}, {"name": "dense_20/bias", "shape": [16], "dtype": "float32"}, {"name": "dense_21/kernel", "shape": [16, 256], "dtype": "float32"}, {"name": "dense_21/bias", "shape": [256], "dtype": "float32"}, {"name": "dense_22/kernel", "shape": [256, 16], "dtype": "float32"}, {"name": "dense_22/bias", "shape": [16], "dtype": "float32"}, {"name": "dense_23/kernel", "shape": [16, 256], "dtype": "float32"}, {"name": "dense_23/bias", "shape": [256], "dtype": "float32"}, {"name": "dense_24/kernel", "shape": [256, 16], "dtype": "float32"}, {"name": "dense_24/bias", "shape": [16], "dtype": "float32"}, {"name": "dense_25/kernel", "shape": [16, 256], "dtype": "float32"}, {"name": "dense_25/bias", "shape": [256], "dtype": "float32"}, {"name": "dense_26/kernel", "shape": [256, 16], "dtype": "float32"}, {"name": "dense_26/bias", "shape": [16], "dtype": "float32"}, {"name": "dense_27/kernel", "shape": [16, 256], "dtype": "float32"}, {"name": "dense_27/bias", "shape": [256], "dtype": "float32"}, {"name": "dense_28/kernel", "shape": [256, 16], "dtype": "float32"}, {"name": "dense_28/bias", "shape": [16], "dtype": "float32"}, {"name": "dense_29/kernel", "shape": [16, 256], "dtype": "float32"}, {"name": "dense_29/bias", "shape": [256], "dtype": "float32"}, {"name": "dense_30/kernel", "shape": [256, 16], "dtype": "float32"}, {"name": "dense_30/bias", "shape": [16], "dtype": "float32"}, {"name": "dense_31/kernel", "shape": [16, 256], "dtype": "float32"}, {"name": "dense_31/bias", "shape": [256], "dtype": "float32"}, {"name": "dense_32/kernel", "shape": [256, 16], "dtype": "float32"}, {"name": "dense_32/bias", "shape": [16], "dtype": "float32"}, {"name": "dense_33/kernel", "shape": [16, 256], "dtype": "float32"}, {"name": "dense_33/bias", "shape": [256], "dtype": "float32"}, {"name": "dense_34/kernel", "shape": [256, 16], "dtype": "float32"}, {"name": "dense_34/bias", "shape": [16], "dtype": "float32"}, {"name": "dense_35/kernel", "shape": [16, 256], "dtype": "float32"}, {"name": "dense_35/bias", "shape": [256], "dtype": "float32"}, {"name": "switchable_normalization_19/variable_19", "shape": [3], "dtype": "float32"}, {"name": "switchable_normalization_19/batch_normalization_22/gamma", "shape": [256], "dtype": "float32"}, {"name": "switchable_normalization_19/batch_normalization_22/beta", "shape": [256], "dtype": "float32"}, {"name": "switchable_normalization_19/layer_normalization_19/gamma", "shape": [256], "dtype": "float32"}, {"name": "switchable_normalization_19/layer_normalization_19/beta", "shape": [256], "dtype": "float32"}, {"name": "switchable_normalization_19/group_normalization_19/gamma", "shape": [256], "dtype": "float32"}, {"name": "switchable_normalization_19/group_normalization_19/beta", "shape": [256], "dtype": "float32"}, {"name": "switchable_normalization_19/batch_normalization_22/moving_mean", "shape": [256], "dtype": "float32"}, {"name": "switchable_normalization_19/batch_normalization_22/moving_variance", "shape": [256], "dtype": "float32"}, {"name": "switchable_normalization_20/variable_20", "shape": [3], "dtype": "float32"}, {"name": "switchable_normalization_20/batch_normalization_23/gamma", "shape": [256], "dtype": "float32"}, {"name": "switchable_normalization_20/batch_normalization_23/beta", "shape": [256], "dtype": "float32"}, {"name": "switchable_normalization_20/layer_normalization_20/gamma", "shape": [256], "dtype": "float32"}, {"name": "switchable_normalization_20/layer_normalization_20/beta", "shape": [256], "dtype": "float32"}, {"name": "switchable_normalization_20/group_normalization_20/gamma", "shape": [256], "dtype": "float32"}, {"name": "switchable_normalization_20/group_normalization_20/beta", "shape": [256], "dtype": "float32"}, {"name": "switchable_normalization_20/batch_normalization_23/moving_mean", "shape": [256], "dtype": "float32"}, {"name": "switchable_normalization_20/batch_normalization_23/moving_variance", "shape": [256], "dtype": "float32"}, {"name": "switchable_normalization_21/variable_21", "shape": [3], "dtype": "float32"}, {"name": "switchable_normalization_21/batch_normalization_24/gamma", "shape": [256], "dtype": "float32"}, {"name": "switchable_normalization_21/batch_normalization_24/beta", "shape": [256], "dtype": "float32"}, {"name": "switchable_normalization_21/layer_normalization_21/gamma", "shape": [256], "dtype": "float32"}, {"name": "switchable_normalization_21/layer_normalization_21/beta", "shape": [256], "dtype": "float32"}, {"name": "switchable_normalization_21/group_normalization_21/gamma", "shape": [256], "dtype": "float32"}, {"name": "switchable_normalization_21/group_normalization_21/beta", "shape": [256], "dtype": "float32"}, {"name": "switchable_normalization_21/batch_normalization_24/moving_mean", "shape": [256], "dtype": "float32"}, {"name": "switchable_normalization_21/batch_normalization_24/moving_variance", "shape": [256], "dtype": "float32"}, {"name": "switchable_normalization_22/variable_22", "shape": [3], "dtype": "float32"}, {"name": "switchable_normalization_22/batch_normalization_25/gamma", "shape": [256], "dtype": "float32"}, {"name": "switchable_normalization_22/batch_normalization_25/beta", "shape": [256], "dtype": "float32"}, {"name": "switchable_normalization_22/layer_normalization_22/gamma", "shape": [256], "dtype": "float32"}, {"name": "switchable_normalization_22/layer_normalization_22/beta", "shape": [256], "dtype": "float32"}, {"name": "switchable_normalization_22/group_normalization_22/gamma", "shape": [256], "dtype": "float32"}, {"name": "switchable_normalization_22/group_normalization_22/beta", "shape": [256], "dtype": "float32"}, {"name": "switchable_normalization_22/batch_normalization_25/moving_mean", "shape": [256], "dtype": "float32"}, {"name": "switchable_normalization_22/batch_normalization_25/moving_variance", "shape": [256], "dtype": "float32"}, {"name": "switchable_normalization_23/variable_23", "shape": [3], "dtype": "float32"}, {"name": "switchable_normalization_23/batch_normalization_26/gamma", "shape": [256], "dtype": "float32"}, {"name": "switchable_normalization_23/batch_normalization_26/beta", "shape": [256], "dtype": "float32"}, {"name": "switchable_normalization_23/layer_normalization_23/gamma", "shape": [256], "dtype": "float32"}, {"name": "switchable_normalization_23/layer_normalization_23/beta", "shape": [256], "dtype": "float32"}, {"name": "switchable_normalization_23/group_normalization_23/gamma", "shape": [256], "dtype": "float32"}, {"name": "switchable_normalization_23/group_normalization_23/beta", "shape": [256], "dtype": "float32"}, {"name": "switchable_normalization_23/batch_normalization_26/moving_mean", "shape": [256], "dtype": "float32"}, {"name": "switchable_normalization_23/batch_normalization_26/moving_variance", "shape": [256], "dtype": "float32"}, {"name": "switchable_normalization_24/variable_24", "shape": [3], "dtype": "float32"}, {"name": "switchable_normalization_24/batch_normalization_27/gamma", "shape": [256], "dtype": "float32"}, {"name": "switchable_normalization_24/batch_normalization_27/beta", "shape": [256], "dtype": "float32"}, {"name": "switchable_normalization_24/layer_normalization_24/gamma", "shape": [256], "dtype": "float32"}, {"name": "switchable_normalization_24/layer_normalization_24/beta", "shape": [256], "dtype": "float32"}, {"name": "switchable_normalization_24/group_normalization_24/gamma", "shape": [256], "dtype": "float32"}, {"name": "switchable_normalization_24/group_normalization_24/beta", "shape": [256], "dtype": "float32"}, {"name": "switchable_normalization_24/batch_normalization_27/moving_mean", "shape": [256], "dtype": "float32"}, {"name": "switchable_normalization_24/batch_normalization_27/moving_variance", "shape": [256], "dtype": "float32"}, {"name": "switchable_normalization_25/variable_25", "shape": [3], "dtype": "float32"}, {"name": "switchable_normalization_25/batch_normalization_28/gamma", "shape": [256], "dtype": "float32"}, {"name": "switchable_normalization_25/batch_normalization_28/beta", "shape": [256], "dtype": "float32"}, {"name": "switchable_normalization_25/layer_normalization_25/gamma", "shape": [256], "dtype": "float32"}, {"name": "switchable_normalization_25/layer_normalization_25/beta", "shape": [256], "dtype": "float32"}, {"name": "switchable_normalization_25/group_normalization_25/gamma", "shape": [256], "dtype": "float32"}, {"name": "switchable_normalization_25/group_normalization_25/beta", "shape": [256], "dtype": "float32"}, {"name": "switchable_normalization_25/batch_normalization_28/moving_mean", "shape": [256], "dtype": "float32"}, {"name": "switchable_normalization_25/batch_normalization_28/moving_variance", "shape": [256], "dtype": "float32"}, {"name": "switchable_normalization_26/variable_26", "shape": [3], "dtype": "float32"}, {"name": "switchable_normalization_26/batch_normalization_29/gamma", "shape": [256], "dtype": "float32"}, {"name": "switchable_normalization_26/batch_normalization_29/beta", "shape": [256], "dtype": "float32"}, {"name": "switchable_normalization_26/layer_normalization_26/gamma", "shape": [256], "dtype": "float32"}, {"name": "switchable_normalization_26/layer_normalization_26/beta", "shape": [256], "dtype": "float32"}, {"name": "switchable_normalization_26/group_normalization_26/gamma", "shape": [256], "dtype": "float32"}, {"name": "switchable_normalization_26/group_normalization_26/beta", "shape": [256], "dtype": "float32"}, {"name": "switchable_normalization_26/batch_normalization_29/moving_mean", "shape": [256], "dtype": "float32"}, {"name": "switchable_normalization_26/batch_normalization_29/moving_variance", "shape": [256], "dtype": "float32"}, {"name": "switchable_normalization_27/variable_27", "shape": [3], "dtype": "float32"}, {"name": "switchable_normalization_27/batch_normalization_30/gamma", "shape": [256], "dtype": "float32"}, {"name": "switchable_normalization_27/batch_normalization_30/beta", "shape": [256], "dtype": "float32"}, {"name": "switchable_normalization_27/layer_normalization_27/gamma", "shape": [256], "dtype": "float32"}, {"name": "switchable_normalization_27/layer_normalization_27/beta", "shape": [256], "dtype": "float32"}, {"name": "switchable_normalization_27/group_normalization_27/gamma", "shape": [256], "dtype": "float32"}, {"name": "switchable_normalization_27/group_normalization_27/beta", "shape": [256], "dtype": "float32"}, {"name": "switchable_normalization_27/batch_normalization_30/moving_mean", "shape": [256], "dtype": "float32"}, {"name": "switchable_normalization_27/batch_normalization_30/moving_variance", "shape": [256], "dtype": "float32"}, {"name": "switchable_normalization_28/variable_28", "shape": [3], "dtype": "float32"}, {"name": "switchable_normalization_28/batch_normalization_31/gamma", "shape": [256], "dtype": "float32"}, {"name": "switchable_normalization_28/batch_normalization_31/beta", "shape": [256], "dtype": "float32"}, {"name": "switchable_normalization_28/layer_normalization_28/gamma", "shape": [256], "dtype": "float32"}, {"name": "switchable_normalization_28/layer_normalization_28/beta", "shape": [256], "dtype": "float32"}, {"name": "switchable_normalization_28/group_normalization_28/gamma", "shape": [256], "dtype": "float32"}, {"name": "switchable_normalization_28/group_normalization_28/beta", "shape": [256], "dtype": "float32"}, {"name": "switchable_normalization_28/batch_normalization_31/moving_mean", "shape": [256], "dtype": "float32"}, {"name": "switchable_normalization_28/batch_normalization_31/moving_variance", "shape": [256], "dtype": "float32"}, {"name": "switchable_normalization_29/variable_29", "shape": [3], "dtype": "float32"}, {"name": "switchable_normalization_29/batch_normalization_32/gamma", "shape": [256], "dtype": "float32"}, {"name": "switchable_normalization_29/batch_normalization_32/beta", "shape": [256], "dtype": "float32"}, {"name": "switchable_normalization_29/layer_normalization_29/gamma", "shape": [256], "dtype": "float32"}, {"name": "switchable_normalization_29/layer_normalization_29/beta", "shape": [256], "dtype": "float32"}, {"name": "switchable_normalization_29/group_normalization_29/gamma", "shape": [256], "dtype": "float32"}, {"name": "switchable_normalization_29/group_normalization_29/beta", "shape": [256], "dtype": "float32"}, {"name": "switchable_normalization_29/batch_normalization_32/moving_mean", "shape": [256], "dtype": "float32"}, {"name": "switchable_normalization_29/batch_normalization_32/moving_variance", "shape": [256], "dtype": "float32"}, {"name": "switchable_normalization_30/variable_30", "shape": [3], "dtype": "float32"}, {"name": "switchable_normalization_30/batch_normalization_33/gamma", "shape": [256], "dtype": "float32"}, {"name": "switchable_normalization_30/batch_normalization_33/beta", "shape": [256], "dtype": "float32"}, {"name": "switchable_normalization_30/layer_normalization_30/gamma", "shape": [256], "dtype": "float32"}, {"name": "switchable_normalization_30/layer_normalization_30/beta", "shape": [256], "dtype": "float32"}, {"name": "switchable_normalization_30/group_normalization_30/gamma", "shape": [256], "dtype": "float32"}, {"name": "switchable_normalization_30/group_normalization_30/beta", "shape": [256], "dtype": "float32"}, {"name": "switchable_normalization_30/batch_normalization_33/moving_mean", "shape": [256], "dtype": "float32"}, {"name": "switchable_normalization_30/batch_normalization_33/moving_variance", "shape": [256], "dtype": "float32"}, {"name": "switchable_normalization_31/variable_31", "shape": [3], "dtype": "float32"}, {"name": "switchable_normalization_31/batch_normalization_34/gamma", "shape": [256], "dtype": "float32"}, {"name": "switchable_normalization_31/batch_normalization_34/beta", "shape": [256], "dtype": "float32"}, {"name": "switchable_normalization_31/layer_normalization_31/gamma", "shape": [256], "dtype": "float32"}, {"name": "switchable_normalization_31/layer_normalization_31/beta", "shape": [256], "dtype": "float32"}, {"name": "switchable_normalization_31/group_normalization_31/gamma", "shape": [256], "dtype": "float32"}, {"name": "switchable_normalization_31/group_normalization_31/beta", "shape": [256], "dtype": "float32"}, {"name": "switchable_normalization_31/batch_normalization_34/moving_mean", "shape": [256], "dtype": "float32"}, {"name": "switchable_normalization_31/batch_normalization_34/moving_variance", "shape": [256], "dtype": "float32"}, {"name": "switchable_normalization_32/variable_32", "shape": [3], "dtype": "float32"}, {"name": "switchable_normalization_32/batch_normalization_35/gamma", "shape": [256], "dtype": "float32"}, {"name": "switchable_normalization_32/batch_normalization_35/beta", "shape": [256], "dtype": "float32"}, {"name": "switchable_normalization_32/layer_normalization_32/gamma", "shape": [256], "dtype": "float32"}, {"name": "switchable_normalization_32/layer_normalization_32/beta", "shape": [256], "dtype": "float32"}, {"name": "switchable_normalization_32/group_normalization_32/gamma", "shape": [256], "dtype": "float32"}, {"name": "switchable_normalization_32/group_normalization_32/beta", "shape": [256], "dtype": "float32"}, {"name": "switchable_normalization_32/batch_normalization_35/moving_mean", "shape": [256], "dtype": "float32"}, {"name": "switchable_normalization_32/batch_normalization_35/moving_variance", "shape": [256], "dtype": "float32"}, {"name": "switchable_normalization_33/variable_33", "shape": [3], "dtype": "float32"}, {"name": "switchable_normalization_33/batch_normalization_36/gamma", "shape": [256], "dtype": "float32"}, {"name": "switchable_normalization_33/batch_normalization_36/beta", "shape": [256], "dtype": "float32"}, {"name": "switchable_normalization_33/layer_normalization_33/gamma", "shape": [256], "dtype": "float32"}, {"name": "switchable_normalization_33/layer_normalization_33/beta", "shape": [256], "dtype": "float32"}, {"name": "switchable_normalization_33/group_normalization_33/gamma", "shape": [256], "dtype": "float32"}, {"name": "switchable_normalization_33/group_normalization_33/beta", "shape": [256], "dtype": "float32"}, {"name": "switchable_normalization_33/batch_normalization_36/moving_mean", "shape": [256], "dtype": "float32"}, {"name": "switchable_normalization_33/batch_normalization_36/moving_variance", "shape": [256], "dtype": "float32"}, {"name": "switchable_normalization_34/variable_34", "shape": [3], "dtype": "float32"}, {"name": "switchable_normalization_34/batch_normalization_37/gamma", "shape": [256], "dtype": "float32"}, {"name": "switchable_normalization_34/batch_normalization_37/beta", "shape": [256], "dtype": "float32"}, {"name": "switchable_normalization_34/layer_normalization_34/gamma", "shape": [256], "dtype": "float32"}, {"name": "switchable_normalization_34/layer_normalization_34/beta", "shape": [256], "dtype": "float32"}, {"name": "switchable_normalization_34/group_normalization_34/gamma", "shape": [256], "dtype": "float32"}, {"name": "switchable_normalization_34/group_normalization_34/beta", "shape": [256], "dtype": "float32"}, {"name": "switchable_normalization_34/batch_normalization_37/moving_mean", "shape": [256], "dtype": "float32"}, {"name": "switchable_normalization_34/batch_normalization_37/moving_variance", "shape": [256], "dtype": "float32"}, {"name": "switchable_normalization_35/variable_35", "shape": [3], "dtype": "float32"}, {"name": "switchable_normalization_35/batch_normalization_38/gamma", "shape": [256], "dtype": "float32"}, {"name": "switchable_normalization_35/batch_normalization_38/beta", "shape": [256], "dtype": "float32"}, {"name": "switchable_normalization_35/layer_normalization_35/gamma", "shape": [256], "dtype": "float32"}, {"name": "switchable_normalization_35/layer_normalization_35/beta", "shape": [256], "dtype": "float32"}, {"name": "switchable_normalization_35/group_normalization_35/gamma", "shape": [256], "dtype": "float32"}, {"name": "switchable_normalization_35/group_normalization_35/beta", "shape": [256], "dtype": "float32"}, {"name": "switchable_normalization_35/batch_normalization_38/moving_mean", "shape": [256], "dtype": "float32"}, {"name": "switchable_normalization_35/batch_normalization_38/moving_variance", "shape": [256], "dtype": "float32"}, {"name": "switchable_normalization_36/variable_36", "shape": [3], "dtype": "float32"}, {"name": "switchable_normalization_36/batch_normalization_39/gamma", "shape": [256], "dtype": "float32"}, {"name": "switchable_normalization_36/batch_normalization_39/beta", "shape": [256], "dtype": "float32"}, {"name": "switchable_normalization_36/layer_normalization_36/gamma", "shape": [256], "dtype": "float32"}, {"name": "switchable_normalization_36/layer_normalization_36/beta", "shape": [256], "dtype": "float32"}, {"name": "switchable_normalization_36/group_normalization_36/gamma", "shape": [256], "dtype": "float32"}, {"name": "switchable_normalization_36/group_normalization_36/beta", "shape": [256], "dtype": "float32"}, {"name": "switchable_normalization_36/batch_normalization_39/moving_mean", "shape": [256], "dtype": "float32"}, {"name": "switchable_normalization_36/batch_normalization_39/moving_variance", "shape": [256], "dtype": "float32"}]}]}