{"format": "graph-model", "generatedBy": "2.19.0", "convertedBy": "TensorFlow.js Converter v4.22.0", "signature": {"inputs": {"keras_tensor_312": {"name": "keras_tensor_312:0", "dtype": "DT_FLOAT", "tensorShape": {"dim": [{"size": "-1"}, {"size": "256"}, {"size": "256"}, {"size": "3"}]}}}, "outputs": {"output_0": {"name": "Identity:0", "dtype": "DT_FLOAT", "tensorShape": {"dim": [{"size": "-1"}, {"size": "256"}, {"size": "256"}, {"size": "3"}]}}}}, "modelTopology": {"node": [{"name": "StatefulPartitionedCall/Generator_1/conv2d_transpose_5_1/strided_slice/stack", "op": "Const", "attr": {"value": {"tensor": {"dtype": "DT_INT32", "tensorShape": {"dim": [{"size": "1"}]}}}, "dtype": {"type": "DT_INT32"}}}, {"name": "StatefulPartitionedCall/Generator_1/conv2d_transpose_5_1/strided_slice/stack_1", "op": "Const", "attr": {"value": {"tensor": {"dtype": "DT_INT32", "tensorShape": {"dim": [{"size": "1"}]}}}, "dtype": {"type": "DT_INT32"}}}, {"name": "StatefulPartitionedCall/Generator_1/conv2d_transpose_5_1/strided_slice/stack_2", "op": "Const", "attr": {"value": {"tensor": {"dtype": "DT_INT32", "tensorShape": {"dim": [{"size": "1"}]}}}, "dtype": {"type": "DT_INT32"}}}, {"name": "StatefulPartitionedCall/Generator_1/conv2d_transpose_5_1/conv_transpose/input_sizes/1", "op": "Const", "attr": {"value": {"tensor": {"dtype": "DT_INT32", "tensorShape": {}}}, "dtype": {"type": "DT_INT32"}}}, {"name": "StatefulPartitionedCall/Generator_1/conv2d_transpose_5_1/conv_transpose/input_sizes/2", "op": "Const", "attr": {"value": {"tensor": {"dtype": "DT_INT32", "tensorShape": {}}}, "dtype": {"type": "DT_INT32"}}}, {"name": "StatefulPartitionedCall/Generator_1/conv2d_transpose_5_1/conv_transpose/input_sizes/3", "op": "Const", "attr": {"value": {"tensor": {"dtype": "DT_INT32", "tensorShape": {}}}, "dtype": {"type": "DT_INT32"}}}, {"name": "StatefulPartitionedCall/Generator_1/conv2d_transpose_5_1/conv_transpose/ReadVariableOp", "op": "Const", "attr": {"value": {"tensor": {"dtype": "DT_FLOAT", "tensorShape": {"dim": [{"size": "3"}, {"size": "3"}, {"size": "64"}, {"size": "128"}]}}}, "dtype": {"type": "DT_FLOAT"}}}, {"name": "StatefulPartitionedCall/Generator_1/conv2d_transpose_4_1/strided_slice/stack", "op": "Const", "attr": {"value": {"tensor": {"dtype": "DT_INT32", "tensorShape": {"dim": [{"size": "1"}]}}}, "dtype": {"type": "DT_INT32"}}}, {"name": "StatefulPartitionedCall/Generator_1/conv2d_transpose_4_1/strided_slice/stack_1", "op": "Const", "attr": {"value": {"tensor": {"dtype": "DT_INT32", "tensorShape": {"dim": [{"size": "1"}]}}}, "dtype": {"type": "DT_INT32"}}}, {"name": "StatefulPartitionedCall/Generator_1/conv2d_transpose_4_1/strided_slice/stack_2", "op": "Const", "attr": {"value": {"tensor": {"dtype": "DT_INT32", "tensorShape": {"dim": [{"size": "1"}]}}}, "dtype": {"type": "DT_INT32"}}}, {"name": "StatefulPartitionedCall/Generator_1/conv2d_transpose_4_1/conv_transpose/input_sizes/1", "op": "Const", "attr": {"value": {"tensor": {"dtype": "DT_INT32", "tensorShape": {}}}, "dtype": {"type": "DT_INT32"}}}, {"name": "StatefulPartitionedCall/Generator_1/conv2d_transpose_4_1/conv_transpose/input_sizes/2", "op": "Const", "attr": {"value": {"tensor": {"dtype": "DT_INT32", "tensorShape": {}}}, "dtype": {"type": "DT_INT32"}}}, {"name": "StatefulPartitionedCall/Generator_1/conv2d_transpose_4_1/conv_transpose/input_sizes/3", "op": "Const", "attr": {"value": {"tensor": {"dtype": "DT_INT32", "tensorShape": {}}}, "dtype": {"type": "DT_INT32"}}}, {"name": "StatefulPartitionedCall/Generator_1/conv2d_transpose_4_1/conv_transpose/ReadVariableOp", "op": "Const", "attr": {"value": {"tensor": {"dtype": "DT_FLOAT", "tensorShape": {"dim": [{"size": "3"}, {"size": "3"}, {"size": "128"}, {"size": "256"}]}}}, "dtype": {"type": "DT_FLOAT"}}}, {"name": "StatefulPartitionedCall/Generator_1/switchable_normalization_54_1/strided_slice", "op": "Const", "attr": {"value": {"tensor": {"dtype": "DT_FLOAT", "tensorShape": {}}}, "dtype": {"type": "DT_FLOAT"}}}, {"name": "StatefulPartitionedCall/Generator_1/switchable_normalization_54_1/batch_normalization_57_3/batchnorm/mul", "op": "Const", "attr": {"value": {"tensor": {"dtype": "DT_FLOAT", "tensorShape": {"dim": [{"size": "256"}]}}}, "dtype": {"type": "DT_FLOAT"}}}, {"name": "StatefulPartitionedCall/Generator_1/switchable_normalization_54_1/batch_normalization_57_3/batchnorm/sub", "op": "Const", "attr": {"value": {"tensor": {"dtype": "DT_FLOAT", "tensorShape": {"dim": [{"size": "256"}]}}}, "dtype": {"type": "DT_FLOAT"}}}, {"name": "StatefulPartitionedCall/Generator_1/switchable_normalization_54_1/strided_slice_1", "op": "Const", "attr": {"value": {"tensor": {"dtype": "DT_FLOAT", "tensorShape": {}}}, "dtype": {"type": "DT_FLOAT"}}}, {"name": "StatefulPartitionedCall/Generator_1/switchable_normalization_54_1/layer_normalization_54_3/Reshape_1", "op": "Const", "attr": {"value": {"tensor": {"dtype": "DT_FLOAT", "tensorShape": {"dim": [{"size": "1"}, {"size": "1"}, {"size": "1"}, {"size": "256"}]}}}, "dtype": {"type": "DT_FLOAT"}}}, {"name": "StatefulPartitionedCall/Generator_1/switchable_normalization_54_1/layer_normalization_54_3/moments/mean/reduction_indices", "op": "Const", "attr": {"value": {"tensor": {"dtype": "DT_INT32", "tensorShape": {"dim": [{"size": "1"}]}}}, "dtype": {"type": "DT_INT32"}}}, {"name": "StatefulPartitionedCall/Generator_1/switchable_normalization_54_1/layer_normalization_54_3/moments/variance/reduction_indices", "op": "Const", "attr": {"value": {"tensor": {"dtype": "DT_INT32", "tensorShape": {"dim": [{"size": "1"}]}}}, "dtype": {"type": "DT_INT32"}}}, {"name": "StatefulPartitionedCall/Generator_1/switchable_normalization_54_1/layer_normalization_54_3/add/y", "op": "Const", "attr": {"value": {"tensor": {"dtype": "DT_FLOAT", "tensorShape": {}}}, "dtype": {"type": "DT_FLOAT"}}}, {"name": "StatefulPartitionedCall/Generator_1/switchable_normalization_54_1/layer_normalization_54_3/Reshape", "op": "Const", "attr": {"value": {"tensor": {"dtype": "DT_FLOAT", "tensorShape": {"dim": [{"size": "1"}, {"size": "1"}, {"size": "1"}, {"size": "256"}]}}}, "dtype": {"type": "DT_FLOAT"}}}, {"name": "StatefulPartitionedCall/Generator_1/switchable_normalization_54_1/strided_slice_2", "op": "Const", "attr": {"value": {"tensor": {"dtype": "DT_FLOAT", "tensorShape": {}}}, "dtype": {"type": "DT_FLOAT"}}}, {"name": "StatefulPartitionedCall/Generator_1/switchable_normalization_54_1/group_normalization_54_3/Reshape_2", "op": "Const", "attr": {"value": {"tensor": {"dtype": "DT_FLOAT", "tensorShape": {"dim": [{"size": "1"}, {"size": "1"}, {"size": "1"}, {"size": "256"}, {"size": "1"}]}}}, "dtype": {"type": "DT_FLOAT"}}}, {"name": "StatefulPartitionedCall/Generator_1/switchable_normalization_54_1/group_normalization_54_3/Reshape/shape", "op": "Const", "attr": {"value": {"tensor": {"dtype": "DT_INT32", "tensorShape": {"dim": [{"size": "5"}]}}}, "dtype": {"type": "DT_INT32"}}}, {"name": "StatefulPartitionedCall/Generator_1/switchable_normalization_54_1/group_normalization_54_3/moments/mean/reduction_indices", "op": "Const", "attr": {"value": {"tensor": {"dtype": "DT_INT32", "tensorShape": {"dim": [{"size": "3"}]}}}, "dtype": {"type": "DT_INT32"}}}, {"name": "StatefulPartitionedCall/Generator_1/switchable_normalization_54_1/group_normalization_54_3/moments/variance/reduction_indices", "op": "Const", "attr": {"value": {"tensor": {"dtype": "DT_INT32", "tensorShape": {"dim": [{"size": "3"}]}}}, "dtype": {"type": "DT_INT32"}}}, {"name": "StatefulPartitionedCall/Generator_1/switchable_normalization_54_1/group_normalization_54_3/add/y", "op": "Const", "attr": {"value": {"tensor": {"dtype": "DT_FLOAT", "tensorShape": {}}}, "dtype": {"type": "DT_FLOAT"}}}, {"name": "StatefulPartitionedCall/Generator_1/switchable_normalization_54_1/group_normalization_54_3/Reshape_1", "op": "Const", "attr": {"value": {"tensor": {"dtype": "DT_FLOAT", "tensorShape": {"dim": [{"size": "1"}, {"size": "1"}, {"size": "1"}, {"size": "256"}, {"size": "1"}]}}}, "dtype": {"type": "DT_FLOAT"}}}, {"name": "StatefulPartitionedCall/Generator_1/switchable_normalization_53_1/strided_slice", "op": "Const", "attr": {"value": {"tensor": {"dtype": "DT_FLOAT", "tensorShape": {}}}, "dtype": {"type": "DT_FLOAT"}}}, {"name": "StatefulPartitionedCall/Generator_1/switchable_normalization_53_1/batch_normalization_56_3/batchnorm/mul", "op": "Const", "attr": {"value": {"tensor": {"dtype": "DT_FLOAT", "tensorShape": {"dim": [{"size": "256"}]}}}, "dtype": {"type": "DT_FLOAT"}}}, {"name": "StatefulPartitionedCall/Generator_1/switchable_normalization_53_1/batch_normalization_56_3/batchnorm/sub", "op": "Const", "attr": {"value": {"tensor": {"dtype": "DT_FLOAT", "tensorShape": {"dim": [{"size": "256"}]}}}, "dtype": {"type": "DT_FLOAT"}}}, {"name": "StatefulPartitionedCall/Generator_1/switchable_normalization_53_1/strided_slice_1", "op": "Const", "attr": {"value": {"tensor": {"dtype": "DT_FLOAT", "tensorShape": {}}}, "dtype": {"type": "DT_FLOAT"}}}, {"name": "StatefulPartitionedCall/Generator_1/switchable_normalization_53_1/layer_normalization_53_3/Reshape_1", "op": "Const", "attr": {"value": {"tensor": {"dtype": "DT_FLOAT", "tensorShape": {"dim": [{"size": "1"}, {"size": "1"}, {"size": "1"}, {"size": "256"}]}}}, "dtype": {"type": "DT_FLOAT"}}}, {"name": "StatefulPartitionedCall/Generator_1/switchable_normalization_53_1/layer_normalization_53_3/moments/mean/reduction_indices", "op": "Const", "attr": {"value": {"tensor": {"dtype": "DT_INT32", "tensorShape": {"dim": [{"size": "1"}]}}}, "dtype": {"type": "DT_INT32"}}}, {"name": "StatefulPartitionedCall/Generator_1/switchable_normalization_53_1/layer_normalization_53_3/moments/variance/reduction_indices", "op": "Const", "attr": {"value": {"tensor": {"dtype": "DT_INT32", "tensorShape": {"dim": [{"size": "1"}]}}}, "dtype": {"type": "DT_INT32"}}}, {"name": "StatefulPartitionedCall/Generator_1/switchable_normalization_53_1/layer_normalization_53_3/add/y", "op": "Const", "attr": {"value": {"tensor": {"dtype": "DT_FLOAT", "tensorShape": {}}}, "dtype": {"type": "DT_FLOAT"}}}, {"name": "StatefulPartitionedCall/Generator_1/switchable_normalization_53_1/layer_normalization_53_3/Reshape", "op": "Const", "attr": {"value": {"tensor": {"dtype": "DT_FLOAT", "tensorShape": {"dim": [{"size": "1"}, {"size": "1"}, {"size": "1"}, {"size": "256"}]}}}, "dtype": {"type": "DT_FLOAT"}}}, {"name": "StatefulPartitionedCall/Generator_1/switchable_normalization_53_1/strided_slice_2", "op": "Const", "attr": {"value": {"tensor": {"dtype": "DT_FLOAT", "tensorShape": {}}}, "dtype": {"type": "DT_FLOAT"}}}, {"name": "StatefulPartitionedCall/Generator_1/switchable_normalization_53_1/group_normalization_53_3/Reshape_2", "op": "Const", "attr": {"value": {"tensor": {"dtype": "DT_FLOAT", "tensorShape": {"dim": [{"size": "1"}, {"size": "1"}, {"size": "1"}, {"size": "256"}, {"size": "1"}]}}}, "dtype": {"type": "DT_FLOAT"}}}, {"name": "StatefulPartitionedCall/Generator_1/switchable_normalization_53_1/group_normalization_53_3/Reshape/shape", "op": "Const", "attr": {"value": {"tensor": {"dtype": "DT_INT32", "tensorShape": {"dim": [{"size": "5"}]}}}, "dtype": {"type": "DT_INT32"}}}, {"name": "StatefulPartitionedCall/Generator_1/switchable_normalization_53_1/group_normalization_53_3/moments/mean/reduction_indices", "op": "Const", "attr": {"value": {"tensor": {"dtype": "DT_INT32", "tensorShape": {"dim": [{"size": "3"}]}}}, "dtype": {"type": "DT_INT32"}}}, {"name": "StatefulPartitionedCall/Generator_1/switchable_normalization_53_1/group_normalization_53_3/moments/variance/reduction_indices", "op": "Const", "attr": {"value": {"tensor": {"dtype": "DT_INT32", "tensorShape": {"dim": [{"size": "3"}]}}}, "dtype": {"type": "DT_INT32"}}}, {"name": "StatefulPartitionedCall/Generator_1/switchable_normalization_53_1/group_normalization_53_3/add/y", "op": "Const", "attr": {"value": {"tensor": {"dtype": "DT_FLOAT", "tensorShape": {}}}, "dtype": {"type": "DT_FLOAT"}}}, {"name": "StatefulPartitionedCall/Generator_1/switchable_normalization_53_1/group_normalization_53_3/Reshape_1", "op": "Const", "attr": {"value": {"tensor": {"dtype": "DT_FLOAT", "tensorShape": {"dim": [{"size": "1"}, {"size": "1"}, {"size": "1"}, {"size": "256"}, {"size": "1"}]}}}, "dtype": {"type": "DT_FLOAT"}}}, {"name": "StatefulPartitionedCall/Generator_1/switchable_normalization_53_1/group_normalization_53_3/strided_slice_1/stack", "op": "Const", "attr": {"value": {"tensor": {"dtype": "DT_INT32", "tensorShape": {"dim": [{"size": "1"}]}}}, "dtype": {"type": "DT_INT32"}}}, {"name": "StatefulPartitionedCall/Generator_1/switchable_normalization_53_1/group_normalization_53_3/strided_slice_1/stack_1", "op": "Const", "attr": {"value": {"tensor": {"dtype": "DT_INT32", "tensorShape": {"dim": [{"size": "1"}]}}}, "dtype": {"type": "DT_INT32"}}}, {"name": "StatefulPartitionedCall/Generator_1/switchable_normalization_53_1/group_normalization_53_3/strided_slice_1/stack_2", "op": "Const", "attr": {"value": {"tensor": {"dtype": "DT_INT32", "tensorShape": {"dim": [{"size": "1"}]}}}, "dtype": {"type": "DT_INT32"}}}, {"name": "StatefulPartitionedCall/Generator_1/switchable_normalization_53_1/group_normalization_53_3/Reshape_3/shape/1", "op": "Const", "attr": {"value": {"tensor": {"dtype": "DT_INT32", "tensorShape": {}}}, "dtype": {"type": "DT_INT32"}}}, {"name": "StatefulPartitionedCall/Generator_1/switchable_normalization_53_1/group_normalization_53_3/Reshape_3/shape/2", "op": "Const", "attr": {"value": {"tensor": {"dtype": "DT_INT32", "tensorShape": {}}}, "dtype": {"type": "DT_INT32"}}}, {"name": "StatefulPartitionedCall/Generator_1/switchable_normalization_53_1/group_normalization_53_3/Reshape_3/shape/3", "op": "Const", "attr": {"value": {"tensor": {"dtype": "DT_INT32", "tensorShape": {}}}, "dtype": {"type": "DT_INT32"}}}, {"name": "StatefulPartitionedCall/Generator_1/conv2d_85_1/convolution/ReadVariableOp", "op": "Const", "attr": {"value": {"tensor": {"dtype": "DT_FLOAT", "tensorShape": {"dim": [{"size": "3"}, {"size": "3"}, {"size": "256"}, {"size": "256"}]}}}, "dtype": {"type": "DT_FLOAT"}}}, {"name": "StatefulPartitionedCall/Generator_1/conv2d_85_1/Squeeze", "op": "Const", "attr": {"value": {"tensor": {"dtype": "DT_FLOAT", "tensorShape": {"dim": [{"size": "256"}]}}}, "dtype": {"type": "DT_FLOAT"}}}, {"name": "StatefulPartitionedCall/Generator_1/switchable_normalization_54_1/group_normalization_54_3/strided_slice_1/stack", "op": "Const", "attr": {"value": {"tensor": {"dtype": "DT_INT32", "tensorShape": {"dim": [{"size": "1"}]}}}, "dtype": {"type": "DT_INT32"}}}, {"name": "StatefulPartitionedCall/Generator_1/switchable_normalization_54_1/group_normalization_54_3/strided_slice_1/stack_1", "op": "Const", "attr": {"value": {"tensor": {"dtype": "DT_INT32", "tensorShape": {"dim": [{"size": "1"}]}}}, "dtype": {"type": "DT_INT32"}}}, {"name": "StatefulPartitionedCall/Generator_1/switchable_normalization_54_1/group_normalization_54_3/strided_slice_1/stack_2", "op": "Const", "attr": {"value": {"tensor": {"dtype": "DT_INT32", "tensorShape": {"dim": [{"size": "1"}]}}}, "dtype": {"type": "DT_INT32"}}}, {"name": "StatefulPartitionedCall/Generator_1/switchable_normalization_54_1/group_normalization_54_3/Reshape_3/shape/1", "op": "Const", "attr": {"value": {"tensor": {"dtype": "DT_INT32", "tensorShape": {}}}, "dtype": {"type": "DT_INT32"}}}, {"name": "StatefulPartitionedCall/Generator_1/switchable_normalization_54_1/group_normalization_54_3/Reshape_3/shape/2", "op": "Const", "attr": {"value": {"tensor": {"dtype": "DT_INT32", "tensorShape": {}}}, "dtype": {"type": "DT_INT32"}}}, {"name": "StatefulPartitionedCall/Generator_1/switchable_normalization_54_1/group_normalization_54_3/Reshape_3/shape/3", "op": "Const", "attr": {"value": {"tensor": {"dtype": "DT_INT32", "tensorShape": {}}}, "dtype": {"type": "DT_INT32"}}}, {"name": "StatefulPartitionedCall/Generator_1/conv2d_86_1/convolution/ReadVariableOp", "op": "Const", "attr": {"value": {"tensor": {"dtype": "DT_FLOAT", "tensorShape": {"dim": [{"size": "3"}, {"size": "3"}, {"size": "256"}, {"size": "256"}]}}}, "dtype": {"type": "DT_FLOAT"}}}, {"name": "StatefulPartitionedCall/Generator_1/conv2d_86_1/Squeeze", "op": "Const", "attr": {"value": {"tensor": {"dtype": "DT_FLOAT", "tensorShape": {"dim": [{"size": "256"}]}}}, "dtype": {"type": "DT_FLOAT"}}}, {"name": "StatefulPartitionedCall/Generator_1/global_average_pooling2d_26_1/Mean/reduction_indices", "op": "Const", "attr": {"value": {"tensor": {"dtype": "DT_INT32", "tensorShape": {"dim": [{"size": "2"}]}}}, "dtype": {"type": "DT_INT32"}}}, {"name": "StatefulPartitionedCall/Generator_1/reshape_26_1/strided_slice/stack", "op": "Const", "attr": {"value": {"tensor": {"dtype": "DT_INT32", "tensorShape": {"dim": [{"size": "1"}]}}}, "dtype": {"type": "DT_INT32"}}}, {"name": "StatefulPartitionedCall/Generator_1/reshape_26_1/strided_slice/stack_1", "op": "Const", "attr": {"value": {"tensor": {"dtype": "DT_INT32", "tensorShape": {"dim": [{"size": "1"}]}}}, "dtype": {"type": "DT_INT32"}}}, {"name": "StatefulPartitionedCall/Generator_1/reshape_26_1/strided_slice/stack_2", "op": "Const", "attr": {"value": {"tensor": {"dtype": "DT_INT32", "tensorShape": {"dim": [{"size": "1"}]}}}, "dtype": {"type": "DT_INT32"}}}, {"name": "StatefulPartitionedCall/Generator_1/reshape_26_1/Reshape/shape/1", "op": "Const", "attr": {"value": {"tensor": {"dtype": "DT_INT32", "tensorShape": {}}}, "dtype": {"type": "DT_INT32"}}}, {"name": "StatefulPartitionedCall/Generator_1/reshape_26_1/Reshape/shape/2", "op": "Const", "attr": {"value": {"tensor": {"dtype": "DT_INT32", "tensorShape": {}}}, "dtype": {"type": "DT_INT32"}}}, {"name": "StatefulPartitionedCall/Generator_1/reshape_26_1/Reshape/shape/3", "op": "Const", "attr": {"value": {"tensor": {"dtype": "DT_INT32", "tensorShape": {}}}, "dtype": {"type": "DT_INT32"}}}, {"name": "StatefulPartitionedCall/Generator_1/dense_52_1/Cast/ReadVariableOp", "op": "Const", "attr": {"value": {"tensor": {"dtype": "DT_FLOAT", "tensorShape": {"dim": [{"size": "256"}, {"size": "16"}]}}}, "dtype": {"type": "DT_FLOAT"}}}, {"name": "StatefulPartitionedCall/Generator_1/dense_52_1/BiasAdd/ReadVariableOp", "op": "Const", "attr": {"value": {"tensor": {"dtype": "DT_FLOAT", "tensorShape": {"dim": [{"size": "16"}]}}}, "dtype": {"type": "DT_FLOAT"}}}, {"name": "StatefulPartitionedCall/Generator_1/dense_53_1/Cast/ReadVariableOp", "op": "Const", "attr": {"value": {"tensor": {"dtype": "DT_FLOAT", "tensorShape": {"dim": [{"size": "16"}, {"size": "256"}]}}}, "dtype": {"type": "DT_FLOAT"}}}, {"name": "StatefulPartitionedCall/Generator_1/dense_53_1/BiasAdd/ReadVariableOp", "op": "Const", "attr": {"value": {"tensor": {"dtype": "DT_FLOAT", "tensorShape": {"dim": [{"size": "256"}]}}}, "dtype": {"type": "DT_FLOAT"}}}, {"name": "StatefulPartitionedCall/Generator_1/switchable_normalization_52_1/strided_slice", "op": "Const", "attr": {"value": {"tensor": {"dtype": "DT_FLOAT", "tensorShape": {}}}, "dtype": {"type": "DT_FLOAT"}}}, {"name": "StatefulPartitionedCall/Generator_1/switchable_normalization_52_1/batch_normalization_55_3/batchnorm/mul", "op": "Const", "attr": {"value": {"tensor": {"dtype": "DT_FLOAT", "tensorShape": {"dim": [{"size": "256"}]}}}, "dtype": {"type": "DT_FLOAT"}}}, {"name": "StatefulPartitionedCall/Generator_1/switchable_normalization_52_1/batch_normalization_55_3/batchnorm/sub", "op": "Const", "attr": {"value": {"tensor": {"dtype": "DT_FLOAT", "tensorShape": {"dim": [{"size": "256"}]}}}, "dtype": {"type": "DT_FLOAT"}}}, {"name": "StatefulPartitionedCall/Generator_1/switchable_normalization_52_1/strided_slice_1", "op": "Const", "attr": {"value": {"tensor": {"dtype": "DT_FLOAT", "tensorShape": {}}}, "dtype": {"type": "DT_FLOAT"}}}, {"name": "StatefulPartitionedCall/Generator_1/switchable_normalization_52_1/layer_normalization_52_3/Reshape_1", "op": "Const", "attr": {"value": {"tensor": {"dtype": "DT_FLOAT", "tensorShape": {"dim": [{"size": "1"}, {"size": "1"}, {"size": "1"}, {"size": "256"}]}}}, "dtype": {"type": "DT_FLOAT"}}}, {"name": "StatefulPartitionedCall/Generator_1/switchable_normalization_52_1/layer_normalization_52_3/moments/mean/reduction_indices", "op": "Const", "attr": {"value": {"tensor": {"dtype": "DT_INT32", "tensorShape": {"dim": [{"size": "1"}]}}}, "dtype": {"type": "DT_INT32"}}}, {"name": "StatefulPartitionedCall/Generator_1/switchable_normalization_52_1/layer_normalization_52_3/moments/variance/reduction_indices", "op": "Const", "attr": {"value": {"tensor": {"dtype": "DT_INT32", "tensorShape": {"dim": [{"size": "1"}]}}}, "dtype": {"type": "DT_INT32"}}}, {"name": "StatefulPartitionedCall/Generator_1/switchable_normalization_52_1/layer_normalization_52_3/add/y", "op": "Const", "attr": {"value": {"tensor": {"dtype": "DT_FLOAT", "tensorShape": {}}}, "dtype": {"type": "DT_FLOAT"}}}, {"name": "StatefulPartitionedCall/Generator_1/switchable_normalization_52_1/layer_normalization_52_3/Reshape", "op": "Const", "attr": {"value": {"tensor": {"dtype": "DT_FLOAT", "tensorShape": {"dim": [{"size": "1"}, {"size": "1"}, {"size": "1"}, {"size": "256"}]}}}, "dtype": {"type": "DT_FLOAT"}}}, {"name": "StatefulPartitionedCall/Generator_1/switchable_normalization_52_1/strided_slice_2", "op": "Const", "attr": {"value": {"tensor": {"dtype": "DT_FLOAT", "tensorShape": {}}}, "dtype": {"type": "DT_FLOAT"}}}, {"name": "StatefulPartitionedCall/Generator_1/switchable_normalization_52_1/group_normalization_52_3/Reshape_2", "op": "Const", "attr": {"value": {"tensor": {"dtype": "DT_FLOAT", "tensorShape": {"dim": [{"size": "1"}, {"size": "1"}, {"size": "1"}, {"size": "256"}, {"size": "1"}]}}}, "dtype": {"type": "DT_FLOAT"}}}, {"name": "StatefulPartitionedCall/Generator_1/switchable_normalization_52_1/group_normalization_52_3/Reshape/shape", "op": "Const", "attr": {"value": {"tensor": {"dtype": "DT_INT32", "tensorShape": {"dim": [{"size": "5"}]}}}, "dtype": {"type": "DT_INT32"}}}, {"name": "StatefulPartitionedCall/Generator_1/switchable_normalization_52_1/group_normalization_52_3/moments/mean/reduction_indices", "op": "Const", "attr": {"value": {"tensor": {"dtype": "DT_INT32", "tensorShape": {"dim": [{"size": "3"}]}}}, "dtype": {"type": "DT_INT32"}}}, {"name": "StatefulPartitionedCall/Generator_1/switchable_normalization_52_1/group_normalization_52_3/moments/variance/reduction_indices", "op": "Const", "attr": {"value": {"tensor": {"dtype": "DT_INT32", "tensorShape": {"dim": [{"size": "3"}]}}}, "dtype": {"type": "DT_INT32"}}}, {"name": "StatefulPartitionedCall/Generator_1/switchable_normalization_52_1/group_normalization_52_3/add/y", "op": "Const", "attr": {"value": {"tensor": {"dtype": "DT_FLOAT", "tensorShape": {}}}, "dtype": {"type": "DT_FLOAT"}}}, {"name": "StatefulPartitionedCall/Generator_1/switchable_normalization_52_1/group_normalization_52_3/Reshape_1", "op": "Const", "attr": {"value": {"tensor": {"dtype": "DT_FLOAT", "tensorShape": {"dim": [{"size": "1"}, {"size": "1"}, {"size": "1"}, {"size": "256"}, {"size": "1"}]}}}, "dtype": {"type": "DT_FLOAT"}}}, {"name": "StatefulPartitionedCall/Generator_1/switchable_normalization_51_1/strided_slice", "op": "Const", "attr": {"value": {"tensor": {"dtype": "DT_FLOAT", "tensorShape": {}}}, "dtype": {"type": "DT_FLOAT"}}}, {"name": "StatefulPartitionedCall/Generator_1/switchable_normalization_51_1/batch_normalization_54_3/batchnorm/mul", "op": "Const", "attr": {"value": {"tensor": {"dtype": "DT_FLOAT", "tensorShape": {"dim": [{"size": "256"}]}}}, "dtype": {"type": "DT_FLOAT"}}}, {"name": "StatefulPartitionedCall/Generator_1/switchable_normalization_51_1/batch_normalization_54_3/batchnorm/sub", "op": "Const", "attr": {"value": {"tensor": {"dtype": "DT_FLOAT", "tensorShape": {"dim": [{"size": "256"}]}}}, "dtype": {"type": "DT_FLOAT"}}}, {"name": "StatefulPartitionedCall/Generator_1/switchable_normalization_51_1/strided_slice_1", "op": "Const", "attr": {"value": {"tensor": {"dtype": "DT_FLOAT", "tensorShape": {}}}, "dtype": {"type": "DT_FLOAT"}}}, {"name": "StatefulPartitionedCall/Generator_1/switchable_normalization_51_1/layer_normalization_51_3/Reshape_1", "op": "Const", "attr": {"value": {"tensor": {"dtype": "DT_FLOAT", "tensorShape": {"dim": [{"size": "1"}, {"size": "1"}, {"size": "1"}, {"size": "256"}]}}}, "dtype": {"type": "DT_FLOAT"}}}, {"name": "StatefulPartitionedCall/Generator_1/switchable_normalization_51_1/layer_normalization_51_3/moments/mean/reduction_indices", "op": "Const", "attr": {"value": {"tensor": {"dtype": "DT_INT32", "tensorShape": {"dim": [{"size": "1"}]}}}, "dtype": {"type": "DT_INT32"}}}, {"name": "StatefulPartitionedCall/Generator_1/switchable_normalization_51_1/layer_normalization_51_3/moments/variance/reduction_indices", "op": "Const", "attr": {"value": {"tensor": {"dtype": "DT_INT32", "tensorShape": {"dim": [{"size": "1"}]}}}, "dtype": {"type": "DT_INT32"}}}, {"name": "StatefulPartitionedCall/Generator_1/switchable_normalization_51_1/layer_normalization_51_3/add/y", "op": "Const", "attr": {"value": {"tensor": {"dtype": "DT_FLOAT", "tensorShape": {}}}, "dtype": {"type": "DT_FLOAT"}}}, {"name": "StatefulPartitionedCall/Generator_1/switchable_normalization_51_1/layer_normalization_51_3/Reshape", "op": "Const", "attr": {"value": {"tensor": {"dtype": "DT_FLOAT", "tensorShape": {"dim": [{"size": "1"}, {"size": "1"}, {"size": "1"}, {"size": "256"}]}}}, "dtype": {"type": "DT_FLOAT"}}}, {"name": "StatefulPartitionedCall/Generator_1/switchable_normalization_51_1/strided_slice_2", "op": "Const", "attr": {"value": {"tensor": {"dtype": "DT_FLOAT", "tensorShape": {}}}, "dtype": {"type": "DT_FLOAT"}}}, {"name": "StatefulPartitionedCall/Generator_1/switchable_normalization_51_1/group_normalization_51_3/Reshape_2", "op": "Const", "attr": {"value": {"tensor": {"dtype": "DT_FLOAT", "tensorShape": {"dim": [{"size": "1"}, {"size": "1"}, {"size": "1"}, {"size": "256"}, {"size": "1"}]}}}, "dtype": {"type": "DT_FLOAT"}}}, {"name": "StatefulPartitionedCall/Generator_1/switchable_normalization_51_1/group_normalization_51_3/Reshape/shape", "op": "Const", "attr": {"value": {"tensor": {"dtype": "DT_INT32", "tensorShape": {"dim": [{"size": "5"}]}}}, "dtype": {"type": "DT_INT32"}}}, {"name": "StatefulPartitionedCall/Generator_1/switchable_normalization_51_1/group_normalization_51_3/moments/mean/reduction_indices", "op": "Const", "attr": {"value": {"tensor": {"dtype": "DT_INT32", "tensorShape": {"dim": [{"size": "3"}]}}}, "dtype": {"type": "DT_INT32"}}}, {"name": "StatefulPartitionedCall/Generator_1/switchable_normalization_51_1/group_normalization_51_3/moments/variance/reduction_indices", "op": "Const", "attr": {"value": {"tensor": {"dtype": "DT_INT32", "tensorShape": {"dim": [{"size": "3"}]}}}, "dtype": {"type": "DT_INT32"}}}, {"name": "StatefulPartitionedCall/Generator_1/switchable_normalization_51_1/group_normalization_51_3/add/y", "op": "Const", "attr": {"value": {"tensor": {"dtype": "DT_FLOAT", "tensorShape": {}}}, "dtype": {"type": "DT_FLOAT"}}}, {"name": "StatefulPartitionedCall/Generator_1/switchable_normalization_51_1/group_normalization_51_3/Reshape_1", "op": "Const", "attr": {"value": {"tensor": {"dtype": "DT_FLOAT", "tensorShape": {"dim": [{"size": "1"}, {"size": "1"}, {"size": "1"}, {"size": "256"}, {"size": "1"}]}}}, "dtype": {"type": "DT_FLOAT"}}}, {"name": "StatefulPartitionedCall/Generator_1/switchable_normalization_51_1/group_normalization_51_3/strided_slice_1/stack", "op": "Const", "attr": {"value": {"tensor": {"dtype": "DT_INT32", "tensorShape": {"dim": [{"size": "1"}]}}}, "dtype": {"type": "DT_INT32"}}}, {"name": "StatefulPartitionedCall/Generator_1/switchable_normalization_51_1/group_normalization_51_3/strided_slice_1/stack_1", "op": "Const", "attr": {"value": {"tensor": {"dtype": "DT_INT32", "tensorShape": {"dim": [{"size": "1"}]}}}, "dtype": {"type": "DT_INT32"}}}, {"name": "StatefulPartitionedCall/Generator_1/switchable_normalization_51_1/group_normalization_51_3/strided_slice_1/stack_2", "op": "Const", "attr": {"value": {"tensor": {"dtype": "DT_INT32", "tensorShape": {"dim": [{"size": "1"}]}}}, "dtype": {"type": "DT_INT32"}}}, {"name": "StatefulPartitionedCall/Generator_1/switchable_normalization_51_1/group_normalization_51_3/Reshape_3/shape/1", "op": "Const", "attr": {"value": {"tensor": {"dtype": "DT_INT32", "tensorShape": {}}}, "dtype": {"type": "DT_INT32"}}}, {"name": "StatefulPartitionedCall/Generator_1/switchable_normalization_51_1/group_normalization_51_3/Reshape_3/shape/2", "op": "Const", "attr": {"value": {"tensor": {"dtype": "DT_INT32", "tensorShape": {}}}, "dtype": {"type": "DT_INT32"}}}, {"name": "StatefulPartitionedCall/Generator_1/switchable_normalization_51_1/group_normalization_51_3/Reshape_3/shape/3", "op": "Const", "attr": {"value": {"tensor": {"dtype": "DT_INT32", "tensorShape": {}}}, "dtype": {"type": "DT_INT32"}}}, {"name": "StatefulPartitionedCall/Generator_1/conv2d_83_1/convolution/ReadVariableOp", "op": "Const", "attr": {"value": {"tensor": {"dtype": "DT_FLOAT", "tensorShape": {"dim": [{"size": "3"}, {"size": "3"}, {"size": "256"}, {"size": "256"}]}}}, "dtype": {"type": "DT_FLOAT"}}}, {"name": "StatefulPartitionedCall/Generator_1/conv2d_83_1/Squeeze", "op": "Const", "attr": {"value": {"tensor": {"dtype": "DT_FLOAT", "tensorShape": {"dim": [{"size": "256"}]}}}, "dtype": {"type": "DT_FLOAT"}}}, {"name": "StatefulPartitionedCall/Generator_1/switchable_normalization_52_1/group_normalization_52_3/strided_slice_1/stack", "op": "Const", "attr": {"value": {"tensor": {"dtype": "DT_INT32", "tensorShape": {"dim": [{"size": "1"}]}}}, "dtype": {"type": "DT_INT32"}}}, {"name": "StatefulPartitionedCall/Generator_1/switchable_normalization_52_1/group_normalization_52_3/strided_slice_1/stack_1", "op": "Const", "attr": {"value": {"tensor": {"dtype": "DT_INT32", "tensorShape": {"dim": [{"size": "1"}]}}}, "dtype": {"type": "DT_INT32"}}}, {"name": "StatefulPartitionedCall/Generator_1/switchable_normalization_52_1/group_normalization_52_3/strided_slice_1/stack_2", "op": "Const", "attr": {"value": {"tensor": {"dtype": "DT_INT32", "tensorShape": {"dim": [{"size": "1"}]}}}, "dtype": {"type": "DT_INT32"}}}, {"name": "StatefulPartitionedCall/Generator_1/switchable_normalization_52_1/group_normalization_52_3/Reshape_3/shape/1", "op": "Const", "attr": {"value": {"tensor": {"dtype": "DT_INT32", "tensorShape": {}}}, "dtype": {"type": "DT_INT32"}}}, {"name": "StatefulPartitionedCall/Generator_1/switchable_normalization_52_1/group_normalization_52_3/Reshape_3/shape/2", "op": "Const", "attr": {"value": {"tensor": {"dtype": "DT_INT32", "tensorShape": {}}}, "dtype": {"type": "DT_INT32"}}}, {"name": "StatefulPartitionedCall/Generator_1/switchable_normalization_52_1/group_normalization_52_3/Reshape_3/shape/3", "op": "Const", "attr": {"value": {"tensor": {"dtype": "DT_INT32", "tensorShape": {}}}, "dtype": {"type": "DT_INT32"}}}, {"name": "StatefulPartitionedCall/Generator_1/conv2d_84_1/convolution/ReadVariableOp", "op": "Const", "attr": {"value": {"tensor": {"dtype": "DT_FLOAT", "tensorShape": {"dim": [{"size": "3"}, {"size": "3"}, {"size": "256"}, {"size": "256"}]}}}, "dtype": {"type": "DT_FLOAT"}}}, {"name": "StatefulPartitionedCall/Generator_1/conv2d_84_1/Squeeze", "op": "Const", "attr": {"value": {"tensor": {"dtype": "DT_FLOAT", "tensorShape": {"dim": [{"size": "256"}]}}}, "dtype": {"type": "DT_FLOAT"}}}, {"name": "StatefulPartitionedCall/Generator_1/global_average_pooling2d_25_1/Mean/reduction_indices", "op": "Const", "attr": {"value": {"tensor": {"dtype": "DT_INT32", "tensorShape": {"dim": [{"size": "2"}]}}}, "dtype": {"type": "DT_INT32"}}}, {"name": "StatefulPartitionedCall/Generator_1/reshape_25_1/strided_slice/stack", "op": "Const", "attr": {"value": {"tensor": {"dtype": "DT_INT32", "tensorShape": {"dim": [{"size": "1"}]}}}, "dtype": {"type": "DT_INT32"}}}, {"name": "StatefulPartitionedCall/Generator_1/reshape_25_1/strided_slice/stack_1", "op": "Const", "attr": {"value": {"tensor": {"dtype": "DT_INT32", "tensorShape": {"dim": [{"size": "1"}]}}}, "dtype": {"type": "DT_INT32"}}}, {"name": "StatefulPartitionedCall/Generator_1/reshape_25_1/strided_slice/stack_2", "op": "Const", "attr": {"value": {"tensor": {"dtype": "DT_INT32", "tensorShape": {"dim": [{"size": "1"}]}}}, "dtype": {"type": "DT_INT32"}}}, {"name": "StatefulPartitionedCall/Generator_1/reshape_25_1/Reshape/shape/1", "op": "Const", "attr": {"value": {"tensor": {"dtype": "DT_INT32", "tensorShape": {}}}, "dtype": {"type": "DT_INT32"}}}, {"name": "StatefulPartitionedCall/Generator_1/reshape_25_1/Reshape/shape/2", "op": "Const", "attr": {"value": {"tensor": {"dtype": "DT_INT32", "tensorShape": {}}}, "dtype": {"type": "DT_INT32"}}}, {"name": "StatefulPartitionedCall/Generator_1/reshape_25_1/Reshape/shape/3", "op": "Const", "attr": {"value": {"tensor": {"dtype": "DT_INT32", "tensorShape": {}}}, "dtype": {"type": "DT_INT32"}}}, {"name": "StatefulPartitionedCall/Generator_1/dense_50_1/Cast/ReadVariableOp", "op": "Const", "attr": {"value": {"tensor": {"dtype": "DT_FLOAT", "tensorShape": {"dim": [{"size": "256"}, {"size": "16"}]}}}, "dtype": {"type": "DT_FLOAT"}}}, {"name": "StatefulPartitionedCall/Generator_1/dense_50_1/BiasAdd/ReadVariableOp", "op": "Const", "attr": {"value": {"tensor": {"dtype": "DT_FLOAT", "tensorShape": {"dim": [{"size": "16"}]}}}, "dtype": {"type": "DT_FLOAT"}}}, {"name": "StatefulPartitionedCall/Generator_1/dense_51_1/Cast/ReadVariableOp", "op": "Const", "attr": {"value": {"tensor": {"dtype": "DT_FLOAT", "tensorShape": {"dim": [{"size": "16"}, {"size": "256"}]}}}, "dtype": {"type": "DT_FLOAT"}}}, {"name": "StatefulPartitionedCall/Generator_1/dense_51_1/BiasAdd/ReadVariableOp", "op": "Const", "attr": {"value": {"tensor": {"dtype": "DT_FLOAT", "tensorShape": {"dim": [{"size": "256"}]}}}, "dtype": {"type": "DT_FLOAT"}}}, {"name": "StatefulPartitionedCall/Generator_1/switchable_normalization_50_1/strided_slice", "op": "Const", "attr": {"value": {"tensor": {"dtype": "DT_FLOAT", "tensorShape": {}}}, "dtype": {"type": "DT_FLOAT"}}}, {"name": "StatefulPartitionedCall/Generator_1/switchable_normalization_50_1/batch_normalization_53_3/batchnorm/mul", "op": "Const", "attr": {"value": {"tensor": {"dtype": "DT_FLOAT", "tensorShape": {"dim": [{"size": "256"}]}}}, "dtype": {"type": "DT_FLOAT"}}}, {"name": "StatefulPartitionedCall/Generator_1/switchable_normalization_50_1/batch_normalization_53_3/batchnorm/sub", "op": "Const", "attr": {"value": {"tensor": {"dtype": "DT_FLOAT", "tensorShape": {"dim": [{"size": "256"}]}}}, "dtype": {"type": "DT_FLOAT"}}}, {"name": "StatefulPartitionedCall/Generator_1/switchable_normalization_50_1/strided_slice_1", "op": "Const", "attr": {"value": {"tensor": {"dtype": "DT_FLOAT", "tensorShape": {}}}, "dtype": {"type": "DT_FLOAT"}}}, {"name": "StatefulPartitionedCall/Generator_1/switchable_normalization_50_1/layer_normalization_50_3/Reshape_1", "op": "Const", "attr": {"value": {"tensor": {"dtype": "DT_FLOAT", "tensorShape": {"dim": [{"size": "1"}, {"size": "1"}, {"size": "1"}, {"size": "256"}]}}}, "dtype": {"type": "DT_FLOAT"}}}, {"name": "StatefulPartitionedCall/Generator_1/switchable_normalization_50_1/layer_normalization_50_3/moments/mean/reduction_indices", "op": "Const", "attr": {"value": {"tensor": {"dtype": "DT_INT32", "tensorShape": {"dim": [{"size": "1"}]}}}, "dtype": {"type": "DT_INT32"}}}, {"name": "StatefulPartitionedCall/Generator_1/switchable_normalization_50_1/layer_normalization_50_3/moments/variance/reduction_indices", "op": "Const", "attr": {"value": {"tensor": {"dtype": "DT_INT32", "tensorShape": {"dim": [{"size": "1"}]}}}, "dtype": {"type": "DT_INT32"}}}, {"name": "StatefulPartitionedCall/Generator_1/switchable_normalization_50_1/layer_normalization_50_3/add/y", "op": "Const", "attr": {"value": {"tensor": {"dtype": "DT_FLOAT", "tensorShape": {}}}, "dtype": {"type": "DT_FLOAT"}}}, {"name": "StatefulPartitionedCall/Generator_1/switchable_normalization_50_1/layer_normalization_50_3/Reshape", "op": "Const", "attr": {"value": {"tensor": {"dtype": "DT_FLOAT", "tensorShape": {"dim": [{"size": "1"}, {"size": "1"}, {"size": "1"}, {"size": "256"}]}}}, "dtype": {"type": "DT_FLOAT"}}}, {"name": "StatefulPartitionedCall/Generator_1/switchable_normalization_50_1/strided_slice_2", "op": "Const", "attr": {"value": {"tensor": {"dtype": "DT_FLOAT", "tensorShape": {}}}, "dtype": {"type": "DT_FLOAT"}}}, {"name": "StatefulPartitionedCall/Generator_1/switchable_normalization_50_1/group_normalization_50_3/Reshape_2", "op": "Const", "attr": {"value": {"tensor": {"dtype": "DT_FLOAT", "tensorShape": {"dim": [{"size": "1"}, {"size": "1"}, {"size": "1"}, {"size": "256"}, {"size": "1"}]}}}, "dtype": {"type": "DT_FLOAT"}}}, {"name": "StatefulPartitionedCall/Generator_1/switchable_normalization_50_1/group_normalization_50_3/Reshape/shape", "op": "Const", "attr": {"value": {"tensor": {"dtype": "DT_INT32", "tensorShape": {"dim": [{"size": "5"}]}}}, "dtype": {"type": "DT_INT32"}}}, {"name": "StatefulPartitionedCall/Generator_1/switchable_normalization_50_1/group_normalization_50_3/moments/mean/reduction_indices", "op": "Const", "attr": {"value": {"tensor": {"dtype": "DT_INT32", "tensorShape": {"dim": [{"size": "3"}]}}}, "dtype": {"type": "DT_INT32"}}}, {"name": "StatefulPartitionedCall/Generator_1/switchable_normalization_50_1/group_normalization_50_3/moments/variance/reduction_indices", "op": "Const", "attr": {"value": {"tensor": {"dtype": "DT_INT32", "tensorShape": {"dim": [{"size": "3"}]}}}, "dtype": {"type": "DT_INT32"}}}, {"name": "StatefulPartitionedCall/Generator_1/switchable_normalization_50_1/group_normalization_50_3/add/y", "op": "Const", "attr": {"value": {"tensor": {"dtype": "DT_FLOAT", "tensorShape": {}}}, "dtype": {"type": "DT_FLOAT"}}}, {"name": "StatefulPartitionedCall/Generator_1/switchable_normalization_50_1/group_normalization_50_3/Reshape_1", "op": "Const", "attr": {"value": {"tensor": {"dtype": "DT_FLOAT", "tensorShape": {"dim": [{"size": "1"}, {"size": "1"}, {"size": "1"}, {"size": "256"}, {"size": "1"}]}}}, "dtype": {"type": "DT_FLOAT"}}}, {"name": "StatefulPartitionedCall/Generator_1/switchable_normalization_49_1/strided_slice", "op": "Const", "attr": {"value": {"tensor": {"dtype": "DT_FLOAT", "tensorShape": {}}}, "dtype": {"type": "DT_FLOAT"}}}, {"name": "StatefulPartitionedCall/Generator_1/switchable_normalization_49_1/batch_normalization_52_3/batchnorm/mul", "op": "Const", "attr": {"value": {"tensor": {"dtype": "DT_FLOAT", "tensorShape": {"dim": [{"size": "256"}]}}}, "dtype": {"type": "DT_FLOAT"}}}, {"name": "StatefulPartitionedCall/Generator_1/switchable_normalization_49_1/batch_normalization_52_3/batchnorm/sub", "op": "Const", "attr": {"value": {"tensor": {"dtype": "DT_FLOAT", "tensorShape": {"dim": [{"size": "256"}]}}}, "dtype": {"type": "DT_FLOAT"}}}, {"name": "StatefulPartitionedCall/Generator_1/switchable_normalization_49_1/strided_slice_1", "op": "Const", "attr": {"value": {"tensor": {"dtype": "DT_FLOAT", "tensorShape": {}}}, "dtype": {"type": "DT_FLOAT"}}}, {"name": "StatefulPartitionedCall/Generator_1/switchable_normalization_49_1/layer_normalization_49_3/Reshape_1", "op": "Const", "attr": {"value": {"tensor": {"dtype": "DT_FLOAT", "tensorShape": {"dim": [{"size": "1"}, {"size": "1"}, {"size": "1"}, {"size": "256"}]}}}, "dtype": {"type": "DT_FLOAT"}}}, {"name": "StatefulPartitionedCall/Generator_1/switchable_normalization_49_1/layer_normalization_49_3/moments/mean/reduction_indices", "op": "Const", "attr": {"value": {"tensor": {"dtype": "DT_INT32", "tensorShape": {"dim": [{"size": "1"}]}}}, "dtype": {"type": "DT_INT32"}}}, {"name": "StatefulPartitionedCall/Generator_1/switchable_normalization_49_1/layer_normalization_49_3/moments/variance/reduction_indices", "op": "Const", "attr": {"value": {"tensor": {"dtype": "DT_INT32", "tensorShape": {"dim": [{"size": "1"}]}}}, "dtype": {"type": "DT_INT32"}}}, {"name": "StatefulPartitionedCall/Generator_1/switchable_normalization_49_1/layer_normalization_49_3/add/y", "op": "Const", "attr": {"value": {"tensor": {"dtype": "DT_FLOAT", "tensorShape": {}}}, "dtype": {"type": "DT_FLOAT"}}}, {"name": "StatefulPartitionedCall/Generator_1/switchable_normalization_49_1/layer_normalization_49_3/Reshape", "op": "Const", "attr": {"value": {"tensor": {"dtype": "DT_FLOAT", "tensorShape": {"dim": [{"size": "1"}, {"size": "1"}, {"size": "1"}, {"size": "256"}]}}}, "dtype": {"type": "DT_FLOAT"}}}, {"name": "StatefulPartitionedCall/Generator_1/switchable_normalization_49_1/strided_slice_2", "op": "Const", "attr": {"value": {"tensor": {"dtype": "DT_FLOAT", "tensorShape": {}}}, "dtype": {"type": "DT_FLOAT"}}}, {"name": "StatefulPartitionedCall/Generator_1/switchable_normalization_49_1/group_normalization_49_3/Reshape_2", "op": "Const", "attr": {"value": {"tensor": {"dtype": "DT_FLOAT", "tensorShape": {"dim": [{"size": "1"}, {"size": "1"}, {"size": "1"}, {"size": "256"}, {"size": "1"}]}}}, "dtype": {"type": "DT_FLOAT"}}}, {"name": "StatefulPartitionedCall/Generator_1/switchable_normalization_49_1/group_normalization_49_3/Reshape/shape", "op": "Const", "attr": {"value": {"tensor": {"dtype": "DT_INT32", "tensorShape": {"dim": [{"size": "5"}]}}}, "dtype": {"type": "DT_INT32"}}}, {"name": "StatefulPartitionedCall/Generator_1/switchable_normalization_49_1/group_normalization_49_3/moments/mean/reduction_indices", "op": "Const", "attr": {"value": {"tensor": {"dtype": "DT_INT32", "tensorShape": {"dim": [{"size": "3"}]}}}, "dtype": {"type": "DT_INT32"}}}, {"name": "StatefulPartitionedCall/Generator_1/switchable_normalization_49_1/group_normalization_49_3/moments/variance/reduction_indices", "op": "Const", "attr": {"value": {"tensor": {"dtype": "DT_INT32", "tensorShape": {"dim": [{"size": "3"}]}}}, "dtype": {"type": "DT_INT32"}}}, {"name": "StatefulPartitionedCall/Generator_1/switchable_normalization_49_1/group_normalization_49_3/add/y", "op": "Const", "attr": {"value": {"tensor": {"dtype": "DT_FLOAT", "tensorShape": {}}}, "dtype": {"type": "DT_FLOAT"}}}, {"name": "StatefulPartitionedCall/Generator_1/switchable_normalization_49_1/group_normalization_49_3/Reshape_1", "op": "Const", "attr": {"value": {"tensor": {"dtype": "DT_FLOAT", "tensorShape": {"dim": [{"size": "1"}, {"size": "1"}, {"size": "1"}, {"size": "256"}, {"size": "1"}]}}}, "dtype": {"type": "DT_FLOAT"}}}, {"name": "StatefulPartitionedCall/Generator_1/switchable_normalization_49_1/group_normalization_49_3/strided_slice_1/stack", "op": "Const", "attr": {"value": {"tensor": {"dtype": "DT_INT32", "tensorShape": {"dim": [{"size": "1"}]}}}, "dtype": {"type": "DT_INT32"}}}, {"name": "StatefulPartitionedCall/Generator_1/switchable_normalization_49_1/group_normalization_49_3/strided_slice_1/stack_1", "op": "Const", "attr": {"value": {"tensor": {"dtype": "DT_INT32", "tensorShape": {"dim": [{"size": "1"}]}}}, "dtype": {"type": "DT_INT32"}}}, {"name": "StatefulPartitionedCall/Generator_1/switchable_normalization_49_1/group_normalization_49_3/strided_slice_1/stack_2", "op": "Const", "attr": {"value": {"tensor": {"dtype": "DT_INT32", "tensorShape": {"dim": [{"size": "1"}]}}}, "dtype": {"type": "DT_INT32"}}}, {"name": "StatefulPartitionedCall/Generator_1/switchable_normalization_49_1/group_normalization_49_3/Reshape_3/shape/1", "op": "Const", "attr": {"value": {"tensor": {"dtype": "DT_INT32", "tensorShape": {}}}, "dtype": {"type": "DT_INT32"}}}, {"name": "StatefulPartitionedCall/Generator_1/switchable_normalization_49_1/group_normalization_49_3/Reshape_3/shape/2", "op": "Const", "attr": {"value": {"tensor": {"dtype": "DT_INT32", "tensorShape": {}}}, "dtype": {"type": "DT_INT32"}}}, {"name": "StatefulPartitionedCall/Generator_1/switchable_normalization_49_1/group_normalization_49_3/Reshape_3/shape/3", "op": "Const", "attr": {"value": {"tensor": {"dtype": "DT_INT32", "tensorShape": {}}}, "dtype": {"type": "DT_INT32"}}}, {"name": "StatefulPartitionedCall/Generator_1/conv2d_81_1/convolution/ReadVariableOp", "op": "Const", "attr": {"value": {"tensor": {"dtype": "DT_FLOAT", "tensorShape": {"dim": [{"size": "3"}, {"size": "3"}, {"size": "256"}, {"size": "256"}]}}}, "dtype": {"type": "DT_FLOAT"}}}, {"name": "StatefulPartitionedCall/Generator_1/conv2d_81_1/Squeeze", "op": "Const", "attr": {"value": {"tensor": {"dtype": "DT_FLOAT", "tensorShape": {"dim": [{"size": "256"}]}}}, "dtype": {"type": "DT_FLOAT"}}}, {"name": "StatefulPartitionedCall/Generator_1/switchable_normalization_50_1/group_normalization_50_3/strided_slice_1/stack", "op": "Const", "attr": {"value": {"tensor": {"dtype": "DT_INT32", "tensorShape": {"dim": [{"size": "1"}]}}}, "dtype": {"type": "DT_INT32"}}}, {"name": "StatefulPartitionedCall/Generator_1/switchable_normalization_50_1/group_normalization_50_3/strided_slice_1/stack_1", "op": "Const", "attr": {"value": {"tensor": {"dtype": "DT_INT32", "tensorShape": {"dim": [{"size": "1"}]}}}, "dtype": {"type": "DT_INT32"}}}, {"name": "StatefulPartitionedCall/Generator_1/switchable_normalization_50_1/group_normalization_50_3/strided_slice_1/stack_2", "op": "Const", "attr": {"value": {"tensor": {"dtype": "DT_INT32", "tensorShape": {"dim": [{"size": "1"}]}}}, "dtype": {"type": "DT_INT32"}}}, {"name": "StatefulPartitionedCall/Generator_1/switchable_normalization_50_1/group_normalization_50_3/Reshape_3/shape/1", "op": "Const", "attr": {"value": {"tensor": {"dtype": "DT_INT32", "tensorShape": {}}}, "dtype": {"type": "DT_INT32"}}}, {"name": "StatefulPartitionedCall/Generator_1/switchable_normalization_50_1/group_normalization_50_3/Reshape_3/shape/2", "op": "Const", "attr": {"value": {"tensor": {"dtype": "DT_INT32", "tensorShape": {}}}, "dtype": {"type": "DT_INT32"}}}, {"name": "StatefulPartitionedCall/Generator_1/switchable_normalization_50_1/group_normalization_50_3/Reshape_3/shape/3", "op": "Const", "attr": {"value": {"tensor": {"dtype": "DT_INT32", "tensorShape": {}}}, "dtype": {"type": "DT_INT32"}}}, {"name": "StatefulPartitionedCall/Generator_1/conv2d_82_1/convolution/ReadVariableOp", "op": "Const", "attr": {"value": {"tensor": {"dtype": "DT_FLOAT", "tensorShape": {"dim": [{"size": "3"}, {"size": "3"}, {"size": "256"}, {"size": "256"}]}}}, "dtype": {"type": "DT_FLOAT"}}}, {"name": "StatefulPartitionedCall/Generator_1/conv2d_82_1/Squeeze", "op": "Const", "attr": {"value": {"tensor": {"dtype": "DT_FLOAT", "tensorShape": {"dim": [{"size": "256"}]}}}, "dtype": {"type": "DT_FLOAT"}}}, {"name": "StatefulPartitionedCall/Generator_1/global_average_pooling2d_24_1/Mean/reduction_indices", "op": "Const", "attr": {"value": {"tensor": {"dtype": "DT_INT32", "tensorShape": {"dim": [{"size": "2"}]}}}, "dtype": {"type": "DT_INT32"}}}, {"name": "StatefulPartitionedCall/Generator_1/reshape_24_1/strided_slice/stack", "op": "Const", "attr": {"value": {"tensor": {"dtype": "DT_INT32", "tensorShape": {"dim": [{"size": "1"}]}}}, "dtype": {"type": "DT_INT32"}}}, {"name": "StatefulPartitionedCall/Generator_1/reshape_24_1/strided_slice/stack_1", "op": "Const", "attr": {"value": {"tensor": {"dtype": "DT_INT32", "tensorShape": {"dim": [{"size": "1"}]}}}, "dtype": {"type": "DT_INT32"}}}, {"name": "StatefulPartitionedCall/Generator_1/reshape_24_1/strided_slice/stack_2", "op": "Const", "attr": {"value": {"tensor": {"dtype": "DT_INT32", "tensorShape": {"dim": [{"size": "1"}]}}}, "dtype": {"type": "DT_INT32"}}}, {"name": "StatefulPartitionedCall/Generator_1/reshape_24_1/Reshape/shape/1", "op": "Const", "attr": {"value": {"tensor": {"dtype": "DT_INT32", "tensorShape": {}}}, "dtype": {"type": "DT_INT32"}}}, {"name": "StatefulPartitionedCall/Generator_1/reshape_24_1/Reshape/shape/2", "op": "Const", "attr": {"value": {"tensor": {"dtype": "DT_INT32", "tensorShape": {}}}, "dtype": {"type": "DT_INT32"}}}, {"name": "StatefulPartitionedCall/Generator_1/reshape_24_1/Reshape/shape/3", "op": "Const", "attr": {"value": {"tensor": {"dtype": "DT_INT32", "tensorShape": {}}}, "dtype": {"type": "DT_INT32"}}}, {"name": "StatefulPartitionedCall/Generator_1/dense_48_1/Cast/ReadVariableOp", "op": "Const", "attr": {"value": {"tensor": {"dtype": "DT_FLOAT", "tensorShape": {"dim": [{"size": "256"}, {"size": "16"}]}}}, "dtype": {"type": "DT_FLOAT"}}}, {"name": "StatefulPartitionedCall/Generator_1/dense_48_1/BiasAdd/ReadVariableOp", "op": "Const", "attr": {"value": {"tensor": {"dtype": "DT_FLOAT", "tensorShape": {"dim": [{"size": "16"}]}}}, "dtype": {"type": "DT_FLOAT"}}}, {"name": "StatefulPartitionedCall/Generator_1/dense_49_1/Cast/ReadVariableOp", "op": "Const", "attr": {"value": {"tensor": {"dtype": "DT_FLOAT", "tensorShape": {"dim": [{"size": "16"}, {"size": "256"}]}}}, "dtype": {"type": "DT_FLOAT"}}}, {"name": "StatefulPartitionedCall/Generator_1/dense_49_1/BiasAdd/ReadVariableOp", "op": "Const", "attr": {"value": {"tensor": {"dtype": "DT_FLOAT", "tensorShape": {"dim": [{"size": "256"}]}}}, "dtype": {"type": "DT_FLOAT"}}}, {"name": "StatefulPartitionedCall/Generator_1/switchable_normalization_48_1/strided_slice", "op": "Const", "attr": {"value": {"tensor": {"dtype": "DT_FLOAT", "tensorShape": {}}}, "dtype": {"type": "DT_FLOAT"}}}, {"name": "StatefulPartitionedCall/Generator_1/switchable_normalization_48_1/batch_normalization_51_3/batchnorm/mul", "op": "Const", "attr": {"value": {"tensor": {"dtype": "DT_FLOAT", "tensorShape": {"dim": [{"size": "256"}]}}}, "dtype": {"type": "DT_FLOAT"}}}, {"name": "StatefulPartitionedCall/Generator_1/switchable_normalization_48_1/batch_normalization_51_3/batchnorm/sub", "op": "Const", "attr": {"value": {"tensor": {"dtype": "DT_FLOAT", "tensorShape": {"dim": [{"size": "256"}]}}}, "dtype": {"type": "DT_FLOAT"}}}, {"name": "StatefulPartitionedCall/Generator_1/switchable_normalization_48_1/strided_slice_1", "op": "Const", "attr": {"value": {"tensor": {"dtype": "DT_FLOAT", "tensorShape": {}}}, "dtype": {"type": "DT_FLOAT"}}}, {"name": "StatefulPartitionedCall/Generator_1/switchable_normalization_48_1/layer_normalization_48_3/Reshape_1", "op": "Const", "attr": {"value": {"tensor": {"dtype": "DT_FLOAT", "tensorShape": {"dim": [{"size": "1"}, {"size": "1"}, {"size": "1"}, {"size": "256"}]}}}, "dtype": {"type": "DT_FLOAT"}}}, {"name": "StatefulPartitionedCall/Generator_1/switchable_normalization_48_1/layer_normalization_48_3/moments/mean/reduction_indices", "op": "Const", "attr": {"value": {"tensor": {"dtype": "DT_INT32", "tensorShape": {"dim": [{"size": "1"}]}}}, "dtype": {"type": "DT_INT32"}}}, {"name": "StatefulPartitionedCall/Generator_1/switchable_normalization_48_1/layer_normalization_48_3/moments/variance/reduction_indices", "op": "Const", "attr": {"value": {"tensor": {"dtype": "DT_INT32", "tensorShape": {"dim": [{"size": "1"}]}}}, "dtype": {"type": "DT_INT32"}}}, {"name": "StatefulPartitionedCall/Generator_1/switchable_normalization_48_1/layer_normalization_48_3/add/y", "op": "Const", "attr": {"value": {"tensor": {"dtype": "DT_FLOAT", "tensorShape": {}}}, "dtype": {"type": "DT_FLOAT"}}}, {"name": "StatefulPartitionedCall/Generator_1/switchable_normalization_48_1/layer_normalization_48_3/Reshape", "op": "Const", "attr": {"value": {"tensor": {"dtype": "DT_FLOAT", "tensorShape": {"dim": [{"size": "1"}, {"size": "1"}, {"size": "1"}, {"size": "256"}]}}}, "dtype": {"type": "DT_FLOAT"}}}, {"name": "StatefulPartitionedCall/Generator_1/switchable_normalization_48_1/strided_slice_2", "op": "Const", "attr": {"value": {"tensor": {"dtype": "DT_FLOAT", "tensorShape": {}}}, "dtype": {"type": "DT_FLOAT"}}}, {"name": "StatefulPartitionedCall/Generator_1/switchable_normalization_48_1/group_normalization_48_3/Reshape_2", "op": "Const", "attr": {"value": {"tensor": {"dtype": "DT_FLOAT", "tensorShape": {"dim": [{"size": "1"}, {"size": "1"}, {"size": "1"}, {"size": "256"}, {"size": "1"}]}}}, "dtype": {"type": "DT_FLOAT"}}}, {"name": "StatefulPartitionedCall/Generator_1/switchable_normalization_48_1/group_normalization_48_3/Reshape/shape", "op": "Const", "attr": {"value": {"tensor": {"dtype": "DT_INT32", "tensorShape": {"dim": [{"size": "5"}]}}}, "dtype": {"type": "DT_INT32"}}}, {"name": "StatefulPartitionedCall/Generator_1/switchable_normalization_48_1/group_normalization_48_3/moments/mean/reduction_indices", "op": "Const", "attr": {"value": {"tensor": {"dtype": "DT_INT32", "tensorShape": {"dim": [{"size": "3"}]}}}, "dtype": {"type": "DT_INT32"}}}, {"name": "StatefulPartitionedCall/Generator_1/switchable_normalization_48_1/group_normalization_48_3/moments/variance/reduction_indices", "op": "Const", "attr": {"value": {"tensor": {"dtype": "DT_INT32", "tensorShape": {"dim": [{"size": "3"}]}}}, "dtype": {"type": "DT_INT32"}}}, {"name": "StatefulPartitionedCall/Generator_1/switchable_normalization_48_1/group_normalization_48_3/add/y", "op": "Const", "attr": {"value": {"tensor": {"dtype": "DT_FLOAT", "tensorShape": {}}}, "dtype": {"type": "DT_FLOAT"}}}, {"name": "StatefulPartitionedCall/Generator_1/switchable_normalization_48_1/group_normalization_48_3/Reshape_1", "op": "Const", "attr": {"value": {"tensor": {"dtype": "DT_FLOAT", "tensorShape": {"dim": [{"size": "1"}, {"size": "1"}, {"size": "1"}, {"size": "256"}, {"size": "1"}]}}}, "dtype": {"type": "DT_FLOAT"}}}, {"name": "StatefulPartitionedCall/Generator_1/switchable_normalization_47_1/strided_slice", "op": "Const", "attr": {"value": {"tensor": {"dtype": "DT_FLOAT", "tensorShape": {}}}, "dtype": {"type": "DT_FLOAT"}}}, {"name": "StatefulPartitionedCall/Generator_1/switchable_normalization_47_1/batch_normalization_50_3/batchnorm/mul", "op": "Const", "attr": {"value": {"tensor": {"dtype": "DT_FLOAT", "tensorShape": {"dim": [{"size": "256"}]}}}, "dtype": {"type": "DT_FLOAT"}}}, {"name": "StatefulPartitionedCall/Generator_1/switchable_normalization_47_1/batch_normalization_50_3/batchnorm/sub", "op": "Const", "attr": {"value": {"tensor": {"dtype": "DT_FLOAT", "tensorShape": {"dim": [{"size": "256"}]}}}, "dtype": {"type": "DT_FLOAT"}}}, {"name": "StatefulPartitionedCall/Generator_1/switchable_normalization_47_1/strided_slice_1", "op": "Const", "attr": {"value": {"tensor": {"dtype": "DT_FLOAT", "tensorShape": {}}}, "dtype": {"type": "DT_FLOAT"}}}, {"name": "StatefulPartitionedCall/Generator_1/switchable_normalization_47_1/layer_normalization_47_3/Reshape_1", "op": "Const", "attr": {"value": {"tensor": {"dtype": "DT_FLOAT", "tensorShape": {"dim": [{"size": "1"}, {"size": "1"}, {"size": "1"}, {"size": "256"}]}}}, "dtype": {"type": "DT_FLOAT"}}}, {"name": "StatefulPartitionedCall/Generator_1/switchable_normalization_47_1/layer_normalization_47_3/moments/mean/reduction_indices", "op": "Const", "attr": {"value": {"tensor": {"dtype": "DT_INT32", "tensorShape": {"dim": [{"size": "1"}]}}}, "dtype": {"type": "DT_INT32"}}}, {"name": "StatefulPartitionedCall/Generator_1/switchable_normalization_47_1/layer_normalization_47_3/moments/variance/reduction_indices", "op": "Const", "attr": {"value": {"tensor": {"dtype": "DT_INT32", "tensorShape": {"dim": [{"size": "1"}]}}}, "dtype": {"type": "DT_INT32"}}}, {"name": "StatefulPartitionedCall/Generator_1/switchable_normalization_47_1/layer_normalization_47_3/add/y", "op": "Const", "attr": {"value": {"tensor": {"dtype": "DT_FLOAT", "tensorShape": {}}}, "dtype": {"type": "DT_FLOAT"}}}, {"name": "StatefulPartitionedCall/Generator_1/switchable_normalization_47_1/layer_normalization_47_3/Reshape", "op": "Const", "attr": {"value": {"tensor": {"dtype": "DT_FLOAT", "tensorShape": {"dim": [{"size": "1"}, {"size": "1"}, {"size": "1"}, {"size": "256"}]}}}, "dtype": {"type": "DT_FLOAT"}}}, {"name": "StatefulPartitionedCall/Generator_1/switchable_normalization_47_1/strided_slice_2", "op": "Const", "attr": {"value": {"tensor": {"dtype": "DT_FLOAT", "tensorShape": {}}}, "dtype": {"type": "DT_FLOAT"}}}, {"name": "StatefulPartitionedCall/Generator_1/switchable_normalization_47_1/group_normalization_47_3/Reshape_2", "op": "Const", "attr": {"value": {"tensor": {"dtype": "DT_FLOAT", "tensorShape": {"dim": [{"size": "1"}, {"size": "1"}, {"size": "1"}, {"size": "256"}, {"size": "1"}]}}}, "dtype": {"type": "DT_FLOAT"}}}, {"name": "StatefulPartitionedCall/Generator_1/switchable_normalization_47_1/group_normalization_47_3/Reshape/shape", "op": "Const", "attr": {"value": {"tensor": {"dtype": "DT_INT32", "tensorShape": {"dim": [{"size": "5"}]}}}, "dtype": {"type": "DT_INT32"}}}, {"name": "StatefulPartitionedCall/Generator_1/switchable_normalization_47_1/group_normalization_47_3/moments/mean/reduction_indices", "op": "Const", "attr": {"value": {"tensor": {"dtype": "DT_INT32", "tensorShape": {"dim": [{"size": "3"}]}}}, "dtype": {"type": "DT_INT32"}}}, {"name": "StatefulPartitionedCall/Generator_1/switchable_normalization_47_1/group_normalization_47_3/moments/variance/reduction_indices", "op": "Const", "attr": {"value": {"tensor": {"dtype": "DT_INT32", "tensorShape": {"dim": [{"size": "3"}]}}}, "dtype": {"type": "DT_INT32"}}}, {"name": "StatefulPartitionedCall/Generator_1/switchable_normalization_47_1/group_normalization_47_3/add/y", "op": "Const", "attr": {"value": {"tensor": {"dtype": "DT_FLOAT", "tensorShape": {}}}, "dtype": {"type": "DT_FLOAT"}}}, {"name": "StatefulPartitionedCall/Generator_1/switchable_normalization_47_1/group_normalization_47_3/Reshape_1", "op": "Const", "attr": {"value": {"tensor": {"dtype": "DT_FLOAT", "tensorShape": {"dim": [{"size": "1"}, {"size": "1"}, {"size": "1"}, {"size": "256"}, {"size": "1"}]}}}, "dtype": {"type": "DT_FLOAT"}}}, {"name": "StatefulPartitionedCall/Generator_1/switchable_normalization_47_1/group_normalization_47_3/strided_slice_1/stack", "op": "Const", "attr": {"value": {"tensor": {"dtype": "DT_INT32", "tensorShape": {"dim": [{"size": "1"}]}}}, "dtype": {"type": "DT_INT32"}}}, {"name": "StatefulPartitionedCall/Generator_1/switchable_normalization_47_1/group_normalization_47_3/strided_slice_1/stack_1", "op": "Const", "attr": {"value": {"tensor": {"dtype": "DT_INT32", "tensorShape": {"dim": [{"size": "1"}]}}}, "dtype": {"type": "DT_INT32"}}}, {"name": "StatefulPartitionedCall/Generator_1/switchable_normalization_47_1/group_normalization_47_3/strided_slice_1/stack_2", "op": "Const", "attr": {"value": {"tensor": {"dtype": "DT_INT32", "tensorShape": {"dim": [{"size": "1"}]}}}, "dtype": {"type": "DT_INT32"}}}, {"name": "StatefulPartitionedCall/Generator_1/switchable_normalization_47_1/group_normalization_47_3/Reshape_3/shape/1", "op": "Const", "attr": {"value": {"tensor": {"dtype": "DT_INT32", "tensorShape": {}}}, "dtype": {"type": "DT_INT32"}}}, {"name": "StatefulPartitionedCall/Generator_1/switchable_normalization_47_1/group_normalization_47_3/Reshape_3/shape/2", "op": "Const", "attr": {"value": {"tensor": {"dtype": "DT_INT32", "tensorShape": {}}}, "dtype": {"type": "DT_INT32"}}}, {"name": "StatefulPartitionedCall/Generator_1/switchable_normalization_47_1/group_normalization_47_3/Reshape_3/shape/3", "op": "Const", "attr": {"value": {"tensor": {"dtype": "DT_INT32", "tensorShape": {}}}, "dtype": {"type": "DT_INT32"}}}, {"name": "StatefulPartitionedCall/Generator_1/conv2d_79_1/convolution/ReadVariableOp", "op": "Const", "attr": {"value": {"tensor": {"dtype": "DT_FLOAT", "tensorShape": {"dim": [{"size": "3"}, {"size": "3"}, {"size": "256"}, {"size": "256"}]}}}, "dtype": {"type": "DT_FLOAT"}}}, {"name": "StatefulPartitionedCall/Generator_1/conv2d_79_1/Squeeze", "op": "Const", "attr": {"value": {"tensor": {"dtype": "DT_FLOAT", "tensorShape": {"dim": [{"size": "256"}]}}}, "dtype": {"type": "DT_FLOAT"}}}, {"name": "StatefulPartitionedCall/Generator_1/switchable_normalization_48_1/group_normalization_48_3/strided_slice_1/stack", "op": "Const", "attr": {"value": {"tensor": {"dtype": "DT_INT32", "tensorShape": {"dim": [{"size": "1"}]}}}, "dtype": {"type": "DT_INT32"}}}, {"name": "StatefulPartitionedCall/Generator_1/switchable_normalization_48_1/group_normalization_48_3/strided_slice_1/stack_1", "op": "Const", "attr": {"value": {"tensor": {"dtype": "DT_INT32", "tensorShape": {"dim": [{"size": "1"}]}}}, "dtype": {"type": "DT_INT32"}}}, {"name": "StatefulPartitionedCall/Generator_1/switchable_normalization_48_1/group_normalization_48_3/strided_slice_1/stack_2", "op": "Const", "attr": {"value": {"tensor": {"dtype": "DT_INT32", "tensorShape": {"dim": [{"size": "1"}]}}}, "dtype": {"type": "DT_INT32"}}}, {"name": "StatefulPartitionedCall/Generator_1/switchable_normalization_48_1/group_normalization_48_3/Reshape_3/shape/1", "op": "Const", "attr": {"value": {"tensor": {"dtype": "DT_INT32", "tensorShape": {}}}, "dtype": {"type": "DT_INT32"}}}, {"name": "StatefulPartitionedCall/Generator_1/switchable_normalization_48_1/group_normalization_48_3/Reshape_3/shape/2", "op": "Const", "attr": {"value": {"tensor": {"dtype": "DT_INT32", "tensorShape": {}}}, "dtype": {"type": "DT_INT32"}}}, {"name": "StatefulPartitionedCall/Generator_1/switchable_normalization_48_1/group_normalization_48_3/Reshape_3/shape/3", "op": "Const", "attr": {"value": {"tensor": {"dtype": "DT_INT32", "tensorShape": {}}}, "dtype": {"type": "DT_INT32"}}}, {"name": "StatefulPartitionedCall/Generator_1/conv2d_80_1/convolution/ReadVariableOp", "op": "Const", "attr": {"value": {"tensor": {"dtype": "DT_FLOAT", "tensorShape": {"dim": [{"size": "3"}, {"size": "3"}, {"size": "256"}, {"size": "256"}]}}}, "dtype": {"type": "DT_FLOAT"}}}, {"name": "StatefulPartitionedCall/Generator_1/conv2d_80_1/Squeeze", "op": "Const", "attr": {"value": {"tensor": {"dtype": "DT_FLOAT", "tensorShape": {"dim": [{"size": "256"}]}}}, "dtype": {"type": "DT_FLOAT"}}}, {"name": "StatefulPartitionedCall/Generator_1/global_average_pooling2d_23_1/Mean/reduction_indices", "op": "Const", "attr": {"value": {"tensor": {"dtype": "DT_INT32", "tensorShape": {"dim": [{"size": "2"}]}}}, "dtype": {"type": "DT_INT32"}}}, {"name": "StatefulPartitionedCall/Generator_1/reshape_23_1/strided_slice/stack", "op": "Const", "attr": {"value": {"tensor": {"dtype": "DT_INT32", "tensorShape": {"dim": [{"size": "1"}]}}}, "dtype": {"type": "DT_INT32"}}}, {"name": "StatefulPartitionedCall/Generator_1/reshape_23_1/strided_slice/stack_1", "op": "Const", "attr": {"value": {"tensor": {"dtype": "DT_INT32", "tensorShape": {"dim": [{"size": "1"}]}}}, "dtype": {"type": "DT_INT32"}}}, {"name": "StatefulPartitionedCall/Generator_1/reshape_23_1/strided_slice/stack_2", "op": "Const", "attr": {"value": {"tensor": {"dtype": "DT_INT32", "tensorShape": {"dim": [{"size": "1"}]}}}, "dtype": {"type": "DT_INT32"}}}, {"name": "StatefulPartitionedCall/Generator_1/reshape_23_1/Reshape/shape/1", "op": "Const", "attr": {"value": {"tensor": {"dtype": "DT_INT32", "tensorShape": {}}}, "dtype": {"type": "DT_INT32"}}}, {"name": "StatefulPartitionedCall/Generator_1/reshape_23_1/Reshape/shape/2", "op": "Const", "attr": {"value": {"tensor": {"dtype": "DT_INT32", "tensorShape": {}}}, "dtype": {"type": "DT_INT32"}}}, {"name": "StatefulPartitionedCall/Generator_1/reshape_23_1/Reshape/shape/3", "op": "Const", "attr": {"value": {"tensor": {"dtype": "DT_INT32", "tensorShape": {}}}, "dtype": {"type": "DT_INT32"}}}, {"name": "StatefulPartitionedCall/Generator_1/dense_46_1/Cast/ReadVariableOp", "op": "Const", "attr": {"value": {"tensor": {"dtype": "DT_FLOAT", "tensorShape": {"dim": [{"size": "256"}, {"size": "16"}]}}}, "dtype": {"type": "DT_FLOAT"}}}, {"name": "StatefulPartitionedCall/Generator_1/dense_46_1/BiasAdd/ReadVariableOp", "op": "Const", "attr": {"value": {"tensor": {"dtype": "DT_FLOAT", "tensorShape": {"dim": [{"size": "16"}]}}}, "dtype": {"type": "DT_FLOAT"}}}, {"name": "StatefulPartitionedCall/Generator_1/dense_47_1/Cast/ReadVariableOp", "op": "Const", "attr": {"value": {"tensor": {"dtype": "DT_FLOAT", "tensorShape": {"dim": [{"size": "16"}, {"size": "256"}]}}}, "dtype": {"type": "DT_FLOAT"}}}, {"name": "StatefulPartitionedCall/Generator_1/dense_47_1/BiasAdd/ReadVariableOp", "op": "Const", "attr": {"value": {"tensor": {"dtype": "DT_FLOAT", "tensorShape": {"dim": [{"size": "256"}]}}}, "dtype": {"type": "DT_FLOAT"}}}, {"name": "StatefulPartitionedCall/Generator_1/switchable_normalization_46_1/strided_slice", "op": "Const", "attr": {"value": {"tensor": {"dtype": "DT_FLOAT", "tensorShape": {}}}, "dtype": {"type": "DT_FLOAT"}}}, {"name": "StatefulPartitionedCall/Generator_1/switchable_normalization_46_1/batch_normalization_49_3/batchnorm/mul", "op": "Const", "attr": {"value": {"tensor": {"dtype": "DT_FLOAT", "tensorShape": {"dim": [{"size": "256"}]}}}, "dtype": {"type": "DT_FLOAT"}}}, {"name": "StatefulPartitionedCall/Generator_1/switchable_normalization_46_1/batch_normalization_49_3/batchnorm/sub", "op": "Const", "attr": {"value": {"tensor": {"dtype": "DT_FLOAT", "tensorShape": {"dim": [{"size": "256"}]}}}, "dtype": {"type": "DT_FLOAT"}}}, {"name": "StatefulPartitionedCall/Generator_1/switchable_normalization_46_1/strided_slice_1", "op": "Const", "attr": {"value": {"tensor": {"dtype": "DT_FLOAT", "tensorShape": {}}}, "dtype": {"type": "DT_FLOAT"}}}, {"name": "StatefulPartitionedCall/Generator_1/switchable_normalization_46_1/layer_normalization_46_3/Reshape_1", "op": "Const", "attr": {"value": {"tensor": {"dtype": "DT_FLOAT", "tensorShape": {"dim": [{"size": "1"}, {"size": "1"}, {"size": "1"}, {"size": "256"}]}}}, "dtype": {"type": "DT_FLOAT"}}}, {"name": "StatefulPartitionedCall/Generator_1/switchable_normalization_46_1/layer_normalization_46_3/moments/mean/reduction_indices", "op": "Const", "attr": {"value": {"tensor": {"dtype": "DT_INT32", "tensorShape": {"dim": [{"size": "1"}]}}}, "dtype": {"type": "DT_INT32"}}}, {"name": "StatefulPartitionedCall/Generator_1/switchable_normalization_46_1/layer_normalization_46_3/moments/variance/reduction_indices", "op": "Const", "attr": {"value": {"tensor": {"dtype": "DT_INT32", "tensorShape": {"dim": [{"size": "1"}]}}}, "dtype": {"type": "DT_INT32"}}}, {"name": "StatefulPartitionedCall/Generator_1/switchable_normalization_46_1/layer_normalization_46_3/add/y", "op": "Const", "attr": {"value": {"tensor": {"dtype": "DT_FLOAT", "tensorShape": {}}}, "dtype": {"type": "DT_FLOAT"}}}, {"name": "StatefulPartitionedCall/Generator_1/switchable_normalization_46_1/layer_normalization_46_3/Reshape", "op": "Const", "attr": {"value": {"tensor": {"dtype": "DT_FLOAT", "tensorShape": {"dim": [{"size": "1"}, {"size": "1"}, {"size": "1"}, {"size": "256"}]}}}, "dtype": {"type": "DT_FLOAT"}}}, {"name": "StatefulPartitionedCall/Generator_1/switchable_normalization_46_1/strided_slice_2", "op": "Const", "attr": {"value": {"tensor": {"dtype": "DT_FLOAT", "tensorShape": {}}}, "dtype": {"type": "DT_FLOAT"}}}, {"name": "StatefulPartitionedCall/Generator_1/switchable_normalization_46_1/group_normalization_46_3/Reshape_2", "op": "Const", "attr": {"value": {"tensor": {"dtype": "DT_FLOAT", "tensorShape": {"dim": [{"size": "1"}, {"size": "1"}, {"size": "1"}, {"size": "256"}, {"size": "1"}]}}}, "dtype": {"type": "DT_FLOAT"}}}, {"name": "StatefulPartitionedCall/Generator_1/switchable_normalization_46_1/group_normalization_46_3/Reshape/shape", "op": "Const", "attr": {"value": {"tensor": {"dtype": "DT_INT32", "tensorShape": {"dim": [{"size": "5"}]}}}, "dtype": {"type": "DT_INT32"}}}, {"name": "StatefulPartitionedCall/Generator_1/switchable_normalization_46_1/group_normalization_46_3/moments/mean/reduction_indices", "op": "Const", "attr": {"value": {"tensor": {"dtype": "DT_INT32", "tensorShape": {"dim": [{"size": "3"}]}}}, "dtype": {"type": "DT_INT32"}}}, {"name": "StatefulPartitionedCall/Generator_1/switchable_normalization_46_1/group_normalization_46_3/moments/variance/reduction_indices", "op": "Const", "attr": {"value": {"tensor": {"dtype": "DT_INT32", "tensorShape": {"dim": [{"size": "3"}]}}}, "dtype": {"type": "DT_INT32"}}}, {"name": "StatefulPartitionedCall/Generator_1/switchable_normalization_46_1/group_normalization_46_3/add/y", "op": "Const", "attr": {"value": {"tensor": {"dtype": "DT_FLOAT", "tensorShape": {}}}, "dtype": {"type": "DT_FLOAT"}}}, {"name": "StatefulPartitionedCall/Generator_1/switchable_normalization_46_1/group_normalization_46_3/Reshape_1", "op": "Const", "attr": {"value": {"tensor": {"dtype": "DT_FLOAT", "tensorShape": {"dim": [{"size": "1"}, {"size": "1"}, {"size": "1"}, {"size": "256"}, {"size": "1"}]}}}, "dtype": {"type": "DT_FLOAT"}}}, {"name": "StatefulPartitionedCall/Generator_1/switchable_normalization_45_1/strided_slice", "op": "Const", "attr": {"value": {"tensor": {"dtype": "DT_FLOAT", "tensorShape": {}}}, "dtype": {"type": "DT_FLOAT"}}}, {"name": "StatefulPartitionedCall/Generator_1/switchable_normalization_45_1/batch_normalization_48_3/batchnorm/mul", "op": "Const", "attr": {"value": {"tensor": {"dtype": "DT_FLOAT", "tensorShape": {"dim": [{"size": "256"}]}}}, "dtype": {"type": "DT_FLOAT"}}}, {"name": "StatefulPartitionedCall/Generator_1/switchable_normalization_45_1/batch_normalization_48_3/batchnorm/sub", "op": "Const", "attr": {"value": {"tensor": {"dtype": "DT_FLOAT", "tensorShape": {"dim": [{"size": "256"}]}}}, "dtype": {"type": "DT_FLOAT"}}}, {"name": "StatefulPartitionedCall/Generator_1/switchable_normalization_45_1/strided_slice_1", "op": "Const", "attr": {"value": {"tensor": {"dtype": "DT_FLOAT", "tensorShape": {}}}, "dtype": {"type": "DT_FLOAT"}}}, {"name": "StatefulPartitionedCall/Generator_1/switchable_normalization_45_1/layer_normalization_45_3/Reshape_1", "op": "Const", "attr": {"value": {"tensor": {"dtype": "DT_FLOAT", "tensorShape": {"dim": [{"size": "1"}, {"size": "1"}, {"size": "1"}, {"size": "256"}]}}}, "dtype": {"type": "DT_FLOAT"}}}, {"name": "StatefulPartitionedCall/Generator_1/switchable_normalization_45_1/layer_normalization_45_3/moments/mean/reduction_indices", "op": "Const", "attr": {"value": {"tensor": {"dtype": "DT_INT32", "tensorShape": {"dim": [{"size": "1"}]}}}, "dtype": {"type": "DT_INT32"}}}, {"name": "StatefulPartitionedCall/Generator_1/switchable_normalization_45_1/layer_normalization_45_3/moments/variance/reduction_indices", "op": "Const", "attr": {"value": {"tensor": {"dtype": "DT_INT32", "tensorShape": {"dim": [{"size": "1"}]}}}, "dtype": {"type": "DT_INT32"}}}, {"name": "StatefulPartitionedCall/Generator_1/switchable_normalization_45_1/layer_normalization_45_3/add/y", "op": "Const", "attr": {"value": {"tensor": {"dtype": "DT_FLOAT", "tensorShape": {}}}, "dtype": {"type": "DT_FLOAT"}}}, {"name": "StatefulPartitionedCall/Generator_1/switchable_normalization_45_1/layer_normalization_45_3/Reshape", "op": "Const", "attr": {"value": {"tensor": {"dtype": "DT_FLOAT", "tensorShape": {"dim": [{"size": "1"}, {"size": "1"}, {"size": "1"}, {"size": "256"}]}}}, "dtype": {"type": "DT_FLOAT"}}}, {"name": "StatefulPartitionedCall/Generator_1/switchable_normalization_45_1/strided_slice_2", "op": "Const", "attr": {"value": {"tensor": {"dtype": "DT_FLOAT", "tensorShape": {}}}, "dtype": {"type": "DT_FLOAT"}}}, {"name": "StatefulPartitionedCall/Generator_1/switchable_normalization_45_1/group_normalization_45_3/Reshape_2", "op": "Const", "attr": {"value": {"tensor": {"dtype": "DT_FLOAT", "tensorShape": {"dim": [{"size": "1"}, {"size": "1"}, {"size": "1"}, {"size": "256"}, {"size": "1"}]}}}, "dtype": {"type": "DT_FLOAT"}}}, {"name": "StatefulPartitionedCall/Generator_1/switchable_normalization_45_1/group_normalization_45_3/Reshape/shape", "op": "Const", "attr": {"value": {"tensor": {"dtype": "DT_INT32", "tensorShape": {"dim": [{"size": "5"}]}}}, "dtype": {"type": "DT_INT32"}}}, {"name": "StatefulPartitionedCall/Generator_1/switchable_normalization_45_1/group_normalization_45_3/moments/mean/reduction_indices", "op": "Const", "attr": {"value": {"tensor": {"dtype": "DT_INT32", "tensorShape": {"dim": [{"size": "3"}]}}}, "dtype": {"type": "DT_INT32"}}}, {"name": "StatefulPartitionedCall/Generator_1/switchable_normalization_45_1/group_normalization_45_3/moments/variance/reduction_indices", "op": "Const", "attr": {"value": {"tensor": {"dtype": "DT_INT32", "tensorShape": {"dim": [{"size": "3"}]}}}, "dtype": {"type": "DT_INT32"}}}, {"name": "StatefulPartitionedCall/Generator_1/switchable_normalization_45_1/group_normalization_45_3/add/y", "op": "Const", "attr": {"value": {"tensor": {"dtype": "DT_FLOAT", "tensorShape": {}}}, "dtype": {"type": "DT_FLOAT"}}}, {"name": "StatefulPartitionedCall/Generator_1/switchable_normalization_45_1/group_normalization_45_3/Reshape_1", "op": "Const", "attr": {"value": {"tensor": {"dtype": "DT_FLOAT", "tensorShape": {"dim": [{"size": "1"}, {"size": "1"}, {"size": "1"}, {"size": "256"}, {"size": "1"}]}}}, "dtype": {"type": "DT_FLOAT"}}}, {"name": "StatefulPartitionedCall/Generator_1/switchable_normalization_45_1/group_normalization_45_3/strided_slice_1/stack", "op": "Const", "attr": {"value": {"tensor": {"dtype": "DT_INT32", "tensorShape": {"dim": [{"size": "1"}]}}}, "dtype": {"type": "DT_INT32"}}}, {"name": "StatefulPartitionedCall/Generator_1/switchable_normalization_45_1/group_normalization_45_3/strided_slice_1/stack_1", "op": "Const", "attr": {"value": {"tensor": {"dtype": "DT_INT32", "tensorShape": {"dim": [{"size": "1"}]}}}, "dtype": {"type": "DT_INT32"}}}, {"name": "StatefulPartitionedCall/Generator_1/switchable_normalization_45_1/group_normalization_45_3/strided_slice_1/stack_2", "op": "Const", "attr": {"value": {"tensor": {"dtype": "DT_INT32", "tensorShape": {"dim": [{"size": "1"}]}}}, "dtype": {"type": "DT_INT32"}}}, {"name": "StatefulPartitionedCall/Generator_1/switchable_normalization_45_1/group_normalization_45_3/Reshape_3/shape/1", "op": "Const", "attr": {"value": {"tensor": {"dtype": "DT_INT32", "tensorShape": {}}}, "dtype": {"type": "DT_INT32"}}}, {"name": "StatefulPartitionedCall/Generator_1/switchable_normalization_45_1/group_normalization_45_3/Reshape_3/shape/2", "op": "Const", "attr": {"value": {"tensor": {"dtype": "DT_INT32", "tensorShape": {}}}, "dtype": {"type": "DT_INT32"}}}, {"name": "StatefulPartitionedCall/Generator_1/switchable_normalization_45_1/group_normalization_45_3/Reshape_3/shape/3", "op": "Const", "attr": {"value": {"tensor": {"dtype": "DT_INT32", "tensorShape": {}}}, "dtype": {"type": "DT_INT32"}}}, {"name": "StatefulPartitionedCall/Generator_1/conv2d_77_1/convolution/ReadVariableOp", "op": "Const", "attr": {"value": {"tensor": {"dtype": "DT_FLOAT", "tensorShape": {"dim": [{"size": "3"}, {"size": "3"}, {"size": "256"}, {"size": "256"}]}}}, "dtype": {"type": "DT_FLOAT"}}}, {"name": "StatefulPartitionedCall/Generator_1/conv2d_77_1/Squeeze", "op": "Const", "attr": {"value": {"tensor": {"dtype": "DT_FLOAT", "tensorShape": {"dim": [{"size": "256"}]}}}, "dtype": {"type": "DT_FLOAT"}}}, {"name": "StatefulPartitionedCall/Generator_1/switchable_normalization_46_1/group_normalization_46_3/strided_slice_1/stack", "op": "Const", "attr": {"value": {"tensor": {"dtype": "DT_INT32", "tensorShape": {"dim": [{"size": "1"}]}}}, "dtype": {"type": "DT_INT32"}}}, {"name": "StatefulPartitionedCall/Generator_1/switchable_normalization_46_1/group_normalization_46_3/strided_slice_1/stack_1", "op": "Const", "attr": {"value": {"tensor": {"dtype": "DT_INT32", "tensorShape": {"dim": [{"size": "1"}]}}}, "dtype": {"type": "DT_INT32"}}}, {"name": "StatefulPartitionedCall/Generator_1/switchable_normalization_46_1/group_normalization_46_3/strided_slice_1/stack_2", "op": "Const", "attr": {"value": {"tensor": {"dtype": "DT_INT32", "tensorShape": {"dim": [{"size": "1"}]}}}, "dtype": {"type": "DT_INT32"}}}, {"name": "StatefulPartitionedCall/Generator_1/switchable_normalization_46_1/group_normalization_46_3/Reshape_3/shape/1", "op": "Const", "attr": {"value": {"tensor": {"dtype": "DT_INT32", "tensorShape": {}}}, "dtype": {"type": "DT_INT32"}}}, {"name": "StatefulPartitionedCall/Generator_1/switchable_normalization_46_1/group_normalization_46_3/Reshape_3/shape/2", "op": "Const", "attr": {"value": {"tensor": {"dtype": "DT_INT32", "tensorShape": {}}}, "dtype": {"type": "DT_INT32"}}}, {"name": "StatefulPartitionedCall/Generator_1/switchable_normalization_46_1/group_normalization_46_3/Reshape_3/shape/3", "op": "Const", "attr": {"value": {"tensor": {"dtype": "DT_INT32", "tensorShape": {}}}, "dtype": {"type": "DT_INT32"}}}, {"name": "StatefulPartitionedCall/Generator_1/conv2d_78_1/convolution/ReadVariableOp", "op": "Const", "attr": {"value": {"tensor": {"dtype": "DT_FLOAT", "tensorShape": {"dim": [{"size": "3"}, {"size": "3"}, {"size": "256"}, {"size": "256"}]}}}, "dtype": {"type": "DT_FLOAT"}}}, {"name": "StatefulPartitionedCall/Generator_1/conv2d_78_1/Squeeze", "op": "Const", "attr": {"value": {"tensor": {"dtype": "DT_FLOAT", "tensorShape": {"dim": [{"size": "256"}]}}}, "dtype": {"type": "DT_FLOAT"}}}, {"name": "StatefulPartitionedCall/Generator_1/global_average_pooling2d_22_1/Mean/reduction_indices", "op": "Const", "attr": {"value": {"tensor": {"dtype": "DT_INT32", "tensorShape": {"dim": [{"size": "2"}]}}}, "dtype": {"type": "DT_INT32"}}}, {"name": "StatefulPartitionedCall/Generator_1/reshape_22_1/strided_slice/stack", "op": "Const", "attr": {"value": {"tensor": {"dtype": "DT_INT32", "tensorShape": {"dim": [{"size": "1"}]}}}, "dtype": {"type": "DT_INT32"}}}, {"name": "StatefulPartitionedCall/Generator_1/reshape_22_1/strided_slice/stack_1", "op": "Const", "attr": {"value": {"tensor": {"dtype": "DT_INT32", "tensorShape": {"dim": [{"size": "1"}]}}}, "dtype": {"type": "DT_INT32"}}}, {"name": "StatefulPartitionedCall/Generator_1/reshape_22_1/strided_slice/stack_2", "op": "Const", "attr": {"value": {"tensor": {"dtype": "DT_INT32", "tensorShape": {"dim": [{"size": "1"}]}}}, "dtype": {"type": "DT_INT32"}}}, {"name": "StatefulPartitionedCall/Generator_1/reshape_22_1/Reshape/shape/1", "op": "Const", "attr": {"value": {"tensor": {"dtype": "DT_INT32", "tensorShape": {}}}, "dtype": {"type": "DT_INT32"}}}, {"name": "StatefulPartitionedCall/Generator_1/reshape_22_1/Reshape/shape/2", "op": "Const", "attr": {"value": {"tensor": {"dtype": "DT_INT32", "tensorShape": {}}}, "dtype": {"type": "DT_INT32"}}}, {"name": "StatefulPartitionedCall/Generator_1/reshape_22_1/Reshape/shape/3", "op": "Const", "attr": {"value": {"tensor": {"dtype": "DT_INT32", "tensorShape": {}}}, "dtype": {"type": "DT_INT32"}}}, {"name": "StatefulPartitionedCall/Generator_1/dense_44_1/Cast/ReadVariableOp", "op": "Const", "attr": {"value": {"tensor": {"dtype": "DT_FLOAT", "tensorShape": {"dim": [{"size": "256"}, {"size": "16"}]}}}, "dtype": {"type": "DT_FLOAT"}}}, {"name": "StatefulPartitionedCall/Generator_1/dense_44_1/BiasAdd/ReadVariableOp", "op": "Const", "attr": {"value": {"tensor": {"dtype": "DT_FLOAT", "tensorShape": {"dim": [{"size": "16"}]}}}, "dtype": {"type": "DT_FLOAT"}}}, {"name": "StatefulPartitionedCall/Generator_1/dense_45_1/Cast/ReadVariableOp", "op": "Const", "attr": {"value": {"tensor": {"dtype": "DT_FLOAT", "tensorShape": {"dim": [{"size": "16"}, {"size": "256"}]}}}, "dtype": {"type": "DT_FLOAT"}}}, {"name": "StatefulPartitionedCall/Generator_1/dense_45_1/BiasAdd/ReadVariableOp", "op": "Const", "attr": {"value": {"tensor": {"dtype": "DT_FLOAT", "tensorShape": {"dim": [{"size": "256"}]}}}, "dtype": {"type": "DT_FLOAT"}}}, {"name": "StatefulPartitionedCall/Generator_1/switchable_normalization_44_1/strided_slice", "op": "Const", "attr": {"value": {"tensor": {"dtype": "DT_FLOAT", "tensorShape": {}}}, "dtype": {"type": "DT_FLOAT"}}}, {"name": "StatefulPartitionedCall/Generator_1/switchable_normalization_44_1/batch_normalization_47_3/batchnorm/mul", "op": "Const", "attr": {"value": {"tensor": {"dtype": "DT_FLOAT", "tensorShape": {"dim": [{"size": "256"}]}}}, "dtype": {"type": "DT_FLOAT"}}}, {"name": "StatefulPartitionedCall/Generator_1/switchable_normalization_44_1/batch_normalization_47_3/batchnorm/sub", "op": "Const", "attr": {"value": {"tensor": {"dtype": "DT_FLOAT", "tensorShape": {"dim": [{"size": "256"}]}}}, "dtype": {"type": "DT_FLOAT"}}}, {"name": "StatefulPartitionedCall/Generator_1/switchable_normalization_44_1/strided_slice_1", "op": "Const", "attr": {"value": {"tensor": {"dtype": "DT_FLOAT", "tensorShape": {}}}, "dtype": {"type": "DT_FLOAT"}}}, {"name": "StatefulPartitionedCall/Generator_1/switchable_normalization_44_1/layer_normalization_44_3/Reshape_1", "op": "Const", "attr": {"value": {"tensor": {"dtype": "DT_FLOAT", "tensorShape": {"dim": [{"size": "1"}, {"size": "1"}, {"size": "1"}, {"size": "256"}]}}}, "dtype": {"type": "DT_FLOAT"}}}, {"name": "StatefulPartitionedCall/Generator_1/switchable_normalization_44_1/layer_normalization_44_3/moments/mean/reduction_indices", "op": "Const", "attr": {"value": {"tensor": {"dtype": "DT_INT32", "tensorShape": {"dim": [{"size": "1"}]}}}, "dtype": {"type": "DT_INT32"}}}, {"name": "StatefulPartitionedCall/Generator_1/switchable_normalization_44_1/layer_normalization_44_3/moments/variance/reduction_indices", "op": "Const", "attr": {"value": {"tensor": {"dtype": "DT_INT32", "tensorShape": {"dim": [{"size": "1"}]}}}, "dtype": {"type": "DT_INT32"}}}, {"name": "StatefulPartitionedCall/Generator_1/switchable_normalization_44_1/layer_normalization_44_3/add/y", "op": "Const", "attr": {"value": {"tensor": {"dtype": "DT_FLOAT", "tensorShape": {}}}, "dtype": {"type": "DT_FLOAT"}}}, {"name": "StatefulPartitionedCall/Generator_1/switchable_normalization_44_1/layer_normalization_44_3/Reshape", "op": "Const", "attr": {"value": {"tensor": {"dtype": "DT_FLOAT", "tensorShape": {"dim": [{"size": "1"}, {"size": "1"}, {"size": "1"}, {"size": "256"}]}}}, "dtype": {"type": "DT_FLOAT"}}}, {"name": "StatefulPartitionedCall/Generator_1/switchable_normalization_44_1/strided_slice_2", "op": "Const", "attr": {"value": {"tensor": {"dtype": "DT_FLOAT", "tensorShape": {}}}, "dtype": {"type": "DT_FLOAT"}}}, {"name": "StatefulPartitionedCall/Generator_1/switchable_normalization_44_1/group_normalization_44_3/Reshape_2", "op": "Const", "attr": {"value": {"tensor": {"dtype": "DT_FLOAT", "tensorShape": {"dim": [{"size": "1"}, {"size": "1"}, {"size": "1"}, {"size": "256"}, {"size": "1"}]}}}, "dtype": {"type": "DT_FLOAT"}}}, {"name": "StatefulPartitionedCall/Generator_1/switchable_normalization_44_1/group_normalization_44_3/Reshape/shape", "op": "Const", "attr": {"value": {"tensor": {"dtype": "DT_INT32", "tensorShape": {"dim": [{"size": "5"}]}}}, "dtype": {"type": "DT_INT32"}}}, {"name": "StatefulPartitionedCall/Generator_1/switchable_normalization_44_1/group_normalization_44_3/moments/mean/reduction_indices", "op": "Const", "attr": {"value": {"tensor": {"dtype": "DT_INT32", "tensorShape": {"dim": [{"size": "3"}]}}}, "dtype": {"type": "DT_INT32"}}}, {"name": "StatefulPartitionedCall/Generator_1/switchable_normalization_44_1/group_normalization_44_3/moments/variance/reduction_indices", "op": "Const", "attr": {"value": {"tensor": {"dtype": "DT_INT32", "tensorShape": {"dim": [{"size": "3"}]}}}, "dtype": {"type": "DT_INT32"}}}, {"name": "StatefulPartitionedCall/Generator_1/switchable_normalization_44_1/group_normalization_44_3/add/y", "op": "Const", "attr": {"value": {"tensor": {"dtype": "DT_FLOAT", "tensorShape": {}}}, "dtype": {"type": "DT_FLOAT"}}}, {"name": "StatefulPartitionedCall/Generator_1/switchable_normalization_44_1/group_normalization_44_3/Reshape_1", "op": "Const", "attr": {"value": {"tensor": {"dtype": "DT_FLOAT", "tensorShape": {"dim": [{"size": "1"}, {"size": "1"}, {"size": "1"}, {"size": "256"}, {"size": "1"}]}}}, "dtype": {"type": "DT_FLOAT"}}}, {"name": "StatefulPartitionedCall/Generator_1/switchable_normalization_43_1/strided_slice", "op": "Const", "attr": {"value": {"tensor": {"dtype": "DT_FLOAT", "tensorShape": {}}}, "dtype": {"type": "DT_FLOAT"}}}, {"name": "StatefulPartitionedCall/Generator_1/switchable_normalization_43_1/batch_normalization_46_3/batchnorm/mul", "op": "Const", "attr": {"value": {"tensor": {"dtype": "DT_FLOAT", "tensorShape": {"dim": [{"size": "256"}]}}}, "dtype": {"type": "DT_FLOAT"}}}, {"name": "StatefulPartitionedCall/Generator_1/switchable_normalization_43_1/batch_normalization_46_3/batchnorm/sub", "op": "Const", "attr": {"value": {"tensor": {"dtype": "DT_FLOAT", "tensorShape": {"dim": [{"size": "256"}]}}}, "dtype": {"type": "DT_FLOAT"}}}, {"name": "StatefulPartitionedCall/Generator_1/switchable_normalization_43_1/strided_slice_1", "op": "Const", "attr": {"value": {"tensor": {"dtype": "DT_FLOAT", "tensorShape": {}}}, "dtype": {"type": "DT_FLOAT"}}}, {"name": "StatefulPartitionedCall/Generator_1/switchable_normalization_43_1/layer_normalization_43_3/Reshape_1", "op": "Const", "attr": {"value": {"tensor": {"dtype": "DT_FLOAT", "tensorShape": {"dim": [{"size": "1"}, {"size": "1"}, {"size": "1"}, {"size": "256"}]}}}, "dtype": {"type": "DT_FLOAT"}}}, {"name": "StatefulPartitionedCall/Generator_1/switchable_normalization_43_1/layer_normalization_43_3/moments/mean/reduction_indices", "op": "Const", "attr": {"value": {"tensor": {"dtype": "DT_INT32", "tensorShape": {"dim": [{"size": "1"}]}}}, "dtype": {"type": "DT_INT32"}}}, {"name": "StatefulPartitionedCall/Generator_1/switchable_normalization_43_1/layer_normalization_43_3/moments/variance/reduction_indices", "op": "Const", "attr": {"value": {"tensor": {"dtype": "DT_INT32", "tensorShape": {"dim": [{"size": "1"}]}}}, "dtype": {"type": "DT_INT32"}}}, {"name": "StatefulPartitionedCall/Generator_1/switchable_normalization_43_1/layer_normalization_43_3/add/y", "op": "Const", "attr": {"value": {"tensor": {"dtype": "DT_FLOAT", "tensorShape": {}}}, "dtype": {"type": "DT_FLOAT"}}}, {"name": "StatefulPartitionedCall/Generator_1/switchable_normalization_43_1/layer_normalization_43_3/Reshape", "op": "Const", "attr": {"value": {"tensor": {"dtype": "DT_FLOAT", "tensorShape": {"dim": [{"size": "1"}, {"size": "1"}, {"size": "1"}, {"size": "256"}]}}}, "dtype": {"type": "DT_FLOAT"}}}, {"name": "StatefulPartitionedCall/Generator_1/switchable_normalization_43_1/strided_slice_2", "op": "Const", "attr": {"value": {"tensor": {"dtype": "DT_FLOAT", "tensorShape": {}}}, "dtype": {"type": "DT_FLOAT"}}}, {"name": "StatefulPartitionedCall/Generator_1/switchable_normalization_43_1/group_normalization_43_3/Reshape_2", "op": "Const", "attr": {"value": {"tensor": {"dtype": "DT_FLOAT", "tensorShape": {"dim": [{"size": "1"}, {"size": "1"}, {"size": "1"}, {"size": "256"}, {"size": "1"}]}}}, "dtype": {"type": "DT_FLOAT"}}}, {"name": "StatefulPartitionedCall/Generator_1/switchable_normalization_43_1/group_normalization_43_3/Reshape/shape", "op": "Const", "attr": {"value": {"tensor": {"dtype": "DT_INT32", "tensorShape": {"dim": [{"size": "5"}]}}}, "dtype": {"type": "DT_INT32"}}}, {"name": "StatefulPartitionedCall/Generator_1/switchable_normalization_43_1/group_normalization_43_3/moments/mean/reduction_indices", "op": "Const", "attr": {"value": {"tensor": {"dtype": "DT_INT32", "tensorShape": {"dim": [{"size": "3"}]}}}, "dtype": {"type": "DT_INT32"}}}, {"name": "StatefulPartitionedCall/Generator_1/switchable_normalization_43_1/group_normalization_43_3/moments/variance/reduction_indices", "op": "Const", "attr": {"value": {"tensor": {"dtype": "DT_INT32", "tensorShape": {"dim": [{"size": "3"}]}}}, "dtype": {"type": "DT_INT32"}}}, {"name": "StatefulPartitionedCall/Generator_1/switchable_normalization_43_1/group_normalization_43_3/add/y", "op": "Const", "attr": {"value": {"tensor": {"dtype": "DT_FLOAT", "tensorShape": {}}}, "dtype": {"type": "DT_FLOAT"}}}, {"name": "StatefulPartitionedCall/Generator_1/switchable_normalization_43_1/group_normalization_43_3/Reshape_1", "op": "Const", "attr": {"value": {"tensor": {"dtype": "DT_FLOAT", "tensorShape": {"dim": [{"size": "1"}, {"size": "1"}, {"size": "1"}, {"size": "256"}, {"size": "1"}]}}}, "dtype": {"type": "DT_FLOAT"}}}, {"name": "StatefulPartitionedCall/Generator_1/switchable_normalization_43_1/group_normalization_43_3/strided_slice_1/stack", "op": "Const", "attr": {"value": {"tensor": {"dtype": "DT_INT32", "tensorShape": {"dim": [{"size": "1"}]}}}, "dtype": {"type": "DT_INT32"}}}, {"name": "StatefulPartitionedCall/Generator_1/switchable_normalization_43_1/group_normalization_43_3/strided_slice_1/stack_1", "op": "Const", "attr": {"value": {"tensor": {"dtype": "DT_INT32", "tensorShape": {"dim": [{"size": "1"}]}}}, "dtype": {"type": "DT_INT32"}}}, {"name": "StatefulPartitionedCall/Generator_1/switchable_normalization_43_1/group_normalization_43_3/strided_slice_1/stack_2", "op": "Const", "attr": {"value": {"tensor": {"dtype": "DT_INT32", "tensorShape": {"dim": [{"size": "1"}]}}}, "dtype": {"type": "DT_INT32"}}}, {"name": "StatefulPartitionedCall/Generator_1/switchable_normalization_43_1/group_normalization_43_3/Reshape_3/shape/1", "op": "Const", "attr": {"value": {"tensor": {"dtype": "DT_INT32", "tensorShape": {}}}, "dtype": {"type": "DT_INT32"}}}, {"name": "StatefulPartitionedCall/Generator_1/switchable_normalization_43_1/group_normalization_43_3/Reshape_3/shape/2", "op": "Const", "attr": {"value": {"tensor": {"dtype": "DT_INT32", "tensorShape": {}}}, "dtype": {"type": "DT_INT32"}}}, {"name": "StatefulPartitionedCall/Generator_1/switchable_normalization_43_1/group_normalization_43_3/Reshape_3/shape/3", "op": "Const", "attr": {"value": {"tensor": {"dtype": "DT_INT32", "tensorShape": {}}}, "dtype": {"type": "DT_INT32"}}}, {"name": "StatefulPartitionedCall/Generator_1/conv2d_75_1/convolution/ReadVariableOp", "op": "Const", "attr": {"value": {"tensor": {"dtype": "DT_FLOAT", "tensorShape": {"dim": [{"size": "3"}, {"size": "3"}, {"size": "256"}, {"size": "256"}]}}}, "dtype": {"type": "DT_FLOAT"}}}, {"name": "StatefulPartitionedCall/Generator_1/conv2d_75_1/Squeeze", "op": "Const", "attr": {"value": {"tensor": {"dtype": "DT_FLOAT", "tensorShape": {"dim": [{"size": "256"}]}}}, "dtype": {"type": "DT_FLOAT"}}}, {"name": "StatefulPartitionedCall/Generator_1/switchable_normalization_44_1/group_normalization_44_3/strided_slice_1/stack", "op": "Const", "attr": {"value": {"tensor": {"dtype": "DT_INT32", "tensorShape": {"dim": [{"size": "1"}]}}}, "dtype": {"type": "DT_INT32"}}}, {"name": "StatefulPartitionedCall/Generator_1/switchable_normalization_44_1/group_normalization_44_3/strided_slice_1/stack_1", "op": "Const", "attr": {"value": {"tensor": {"dtype": "DT_INT32", "tensorShape": {"dim": [{"size": "1"}]}}}, "dtype": {"type": "DT_INT32"}}}, {"name": "StatefulPartitionedCall/Generator_1/switchable_normalization_44_1/group_normalization_44_3/strided_slice_1/stack_2", "op": "Const", "attr": {"value": {"tensor": {"dtype": "DT_INT32", "tensorShape": {"dim": [{"size": "1"}]}}}, "dtype": {"type": "DT_INT32"}}}, {"name": "StatefulPartitionedCall/Generator_1/switchable_normalization_44_1/group_normalization_44_3/Reshape_3/shape/1", "op": "Const", "attr": {"value": {"tensor": {"dtype": "DT_INT32", "tensorShape": {}}}, "dtype": {"type": "DT_INT32"}}}, {"name": "StatefulPartitionedCall/Generator_1/switchable_normalization_44_1/group_normalization_44_3/Reshape_3/shape/2", "op": "Const", "attr": {"value": {"tensor": {"dtype": "DT_INT32", "tensorShape": {}}}, "dtype": {"type": "DT_INT32"}}}, {"name": "StatefulPartitionedCall/Generator_1/switchable_normalization_44_1/group_normalization_44_3/Reshape_3/shape/3", "op": "Const", "attr": {"value": {"tensor": {"dtype": "DT_INT32", "tensorShape": {}}}, "dtype": {"type": "DT_INT32"}}}, {"name": "StatefulPartitionedCall/Generator_1/conv2d_76_1/convolution/ReadVariableOp", "op": "Const", "attr": {"value": {"tensor": {"dtype": "DT_FLOAT", "tensorShape": {"dim": [{"size": "3"}, {"size": "3"}, {"size": "256"}, {"size": "256"}]}}}, "dtype": {"type": "DT_FLOAT"}}}, {"name": "StatefulPartitionedCall/Generator_1/conv2d_76_1/Squeeze", "op": "Const", "attr": {"value": {"tensor": {"dtype": "DT_FLOAT", "tensorShape": {"dim": [{"size": "256"}]}}}, "dtype": {"type": "DT_FLOAT"}}}, {"name": "StatefulPartitionedCall/Generator_1/global_average_pooling2d_21_1/Mean/reduction_indices", "op": "Const", "attr": {"value": {"tensor": {"dtype": "DT_INT32", "tensorShape": {"dim": [{"size": "2"}]}}}, "dtype": {"type": "DT_INT32"}}}, {"name": "StatefulPartitionedCall/Generator_1/reshape_21_1/strided_slice/stack", "op": "Const", "attr": {"value": {"tensor": {"dtype": "DT_INT32", "tensorShape": {"dim": [{"size": "1"}]}}}, "dtype": {"type": "DT_INT32"}}}, {"name": "StatefulPartitionedCall/Generator_1/reshape_21_1/strided_slice/stack_1", "op": "Const", "attr": {"value": {"tensor": {"dtype": "DT_INT32", "tensorShape": {"dim": [{"size": "1"}]}}}, "dtype": {"type": "DT_INT32"}}}, {"name": "StatefulPartitionedCall/Generator_1/reshape_21_1/strided_slice/stack_2", "op": "Const", "attr": {"value": {"tensor": {"dtype": "DT_INT32", "tensorShape": {"dim": [{"size": "1"}]}}}, "dtype": {"type": "DT_INT32"}}}, {"name": "StatefulPartitionedCall/Generator_1/reshape_21_1/Reshape/shape/1", "op": "Const", "attr": {"value": {"tensor": {"dtype": "DT_INT32", "tensorShape": {}}}, "dtype": {"type": "DT_INT32"}}}, {"name": "StatefulPartitionedCall/Generator_1/reshape_21_1/Reshape/shape/2", "op": "Const", "attr": {"value": {"tensor": {"dtype": "DT_INT32", "tensorShape": {}}}, "dtype": {"type": "DT_INT32"}}}, {"name": "StatefulPartitionedCall/Generator_1/reshape_21_1/Reshape/shape/3", "op": "Const", "attr": {"value": {"tensor": {"dtype": "DT_INT32", "tensorShape": {}}}, "dtype": {"type": "DT_INT32"}}}, {"name": "StatefulPartitionedCall/Generator_1/dense_42_1/Cast/ReadVariableOp", "op": "Const", "attr": {"value": {"tensor": {"dtype": "DT_FLOAT", "tensorShape": {"dim": [{"size": "256"}, {"size": "16"}]}}}, "dtype": {"type": "DT_FLOAT"}}}, {"name": "StatefulPartitionedCall/Generator_1/dense_42_1/BiasAdd/ReadVariableOp", "op": "Const", "attr": {"value": {"tensor": {"dtype": "DT_FLOAT", "tensorShape": {"dim": [{"size": "16"}]}}}, "dtype": {"type": "DT_FLOAT"}}}, {"name": "StatefulPartitionedCall/Generator_1/dense_43_1/Cast/ReadVariableOp", "op": "Const", "attr": {"value": {"tensor": {"dtype": "DT_FLOAT", "tensorShape": {"dim": [{"size": "16"}, {"size": "256"}]}}}, "dtype": {"type": "DT_FLOAT"}}}, {"name": "StatefulPartitionedCall/Generator_1/dense_43_1/BiasAdd/ReadVariableOp", "op": "Const", "attr": {"value": {"tensor": {"dtype": "DT_FLOAT", "tensorShape": {"dim": [{"size": "256"}]}}}, "dtype": {"type": "DT_FLOAT"}}}, {"name": "StatefulPartitionedCall/Generator_1/switchable_normalization_42_1/strided_slice", "op": "Const", "attr": {"value": {"tensor": {"dtype": "DT_FLOAT", "tensorShape": {}}}, "dtype": {"type": "DT_FLOAT"}}}, {"name": "StatefulPartitionedCall/Generator_1/switchable_normalization_42_1/batch_normalization_45_3/batchnorm/mul", "op": "Const", "attr": {"value": {"tensor": {"dtype": "DT_FLOAT", "tensorShape": {"dim": [{"size": "256"}]}}}, "dtype": {"type": "DT_FLOAT"}}}, {"name": "StatefulPartitionedCall/Generator_1/switchable_normalization_42_1/batch_normalization_45_3/batchnorm/sub", "op": "Const", "attr": {"value": {"tensor": {"dtype": "DT_FLOAT", "tensorShape": {"dim": [{"size": "256"}]}}}, "dtype": {"type": "DT_FLOAT"}}}, {"name": "StatefulPartitionedCall/Generator_1/switchable_normalization_42_1/strided_slice_1", "op": "Const", "attr": {"value": {"tensor": {"dtype": "DT_FLOAT", "tensorShape": {}}}, "dtype": {"type": "DT_FLOAT"}}}, {"name": "StatefulPartitionedCall/Generator_1/switchable_normalization_42_1/layer_normalization_42_3/Reshape_1", "op": "Const", "attr": {"value": {"tensor": {"dtype": "DT_FLOAT", "tensorShape": {"dim": [{"size": "1"}, {"size": "1"}, {"size": "1"}, {"size": "256"}]}}}, "dtype": {"type": "DT_FLOAT"}}}, {"name": "StatefulPartitionedCall/Generator_1/switchable_normalization_42_1/layer_normalization_42_3/moments/mean/reduction_indices", "op": "Const", "attr": {"value": {"tensor": {"dtype": "DT_INT32", "tensorShape": {"dim": [{"size": "1"}]}}}, "dtype": {"type": "DT_INT32"}}}, {"name": "StatefulPartitionedCall/Generator_1/switchable_normalization_42_1/layer_normalization_42_3/moments/variance/reduction_indices", "op": "Const", "attr": {"value": {"tensor": {"dtype": "DT_INT32", "tensorShape": {"dim": [{"size": "1"}]}}}, "dtype": {"type": "DT_INT32"}}}, {"name": "StatefulPartitionedCall/Generator_1/switchable_normalization_42_1/layer_normalization_42_3/add/y", "op": "Const", "attr": {"value": {"tensor": {"dtype": "DT_FLOAT", "tensorShape": {}}}, "dtype": {"type": "DT_FLOAT"}}}, {"name": "StatefulPartitionedCall/Generator_1/switchable_normalization_42_1/layer_normalization_42_3/Reshape", "op": "Const", "attr": {"value": {"tensor": {"dtype": "DT_FLOAT", "tensorShape": {"dim": [{"size": "1"}, {"size": "1"}, {"size": "1"}, {"size": "256"}]}}}, "dtype": {"type": "DT_FLOAT"}}}, {"name": "StatefulPartitionedCall/Generator_1/switchable_normalization_42_1/strided_slice_2", "op": "Const", "attr": {"value": {"tensor": {"dtype": "DT_FLOAT", "tensorShape": {}}}, "dtype": {"type": "DT_FLOAT"}}}, {"name": "StatefulPartitionedCall/Generator_1/switchable_normalization_42_1/group_normalization_42_3/Reshape_2", "op": "Const", "attr": {"value": {"tensor": {"dtype": "DT_FLOAT", "tensorShape": {"dim": [{"size": "1"}, {"size": "1"}, {"size": "1"}, {"size": "256"}, {"size": "1"}]}}}, "dtype": {"type": "DT_FLOAT"}}}, {"name": "StatefulPartitionedCall/Generator_1/switchable_normalization_42_1/group_normalization_42_3/Reshape/shape", "op": "Const", "attr": {"value": {"tensor": {"dtype": "DT_INT32", "tensorShape": {"dim": [{"size": "5"}]}}}, "dtype": {"type": "DT_INT32"}}}, {"name": "StatefulPartitionedCall/Generator_1/switchable_normalization_42_1/group_normalization_42_3/moments/mean/reduction_indices", "op": "Const", "attr": {"value": {"tensor": {"dtype": "DT_INT32", "tensorShape": {"dim": [{"size": "3"}]}}}, "dtype": {"type": "DT_INT32"}}}, {"name": "StatefulPartitionedCall/Generator_1/switchable_normalization_42_1/group_normalization_42_3/moments/variance/reduction_indices", "op": "Const", "attr": {"value": {"tensor": {"dtype": "DT_INT32", "tensorShape": {"dim": [{"size": "3"}]}}}, "dtype": {"type": "DT_INT32"}}}, {"name": "StatefulPartitionedCall/Generator_1/switchable_normalization_42_1/group_normalization_42_3/add/y", "op": "Const", "attr": {"value": {"tensor": {"dtype": "DT_FLOAT", "tensorShape": {}}}, "dtype": {"type": "DT_FLOAT"}}}, {"name": "StatefulPartitionedCall/Generator_1/switchable_normalization_42_1/group_normalization_42_3/Reshape_1", "op": "Const", "attr": {"value": {"tensor": {"dtype": "DT_FLOAT", "tensorShape": {"dim": [{"size": "1"}, {"size": "1"}, {"size": "1"}, {"size": "256"}, {"size": "1"}]}}}, "dtype": {"type": "DT_FLOAT"}}}, {"name": "StatefulPartitionedCall/Generator_1/switchable_normalization_41_1/strided_slice", "op": "Const", "attr": {"value": {"tensor": {"dtype": "DT_FLOAT", "tensorShape": {}}}, "dtype": {"type": "DT_FLOAT"}}}, {"name": "StatefulPartitionedCall/Generator_1/switchable_normalization_41_1/batch_normalization_44_3/batchnorm/mul", "op": "Const", "attr": {"value": {"tensor": {"dtype": "DT_FLOAT", "tensorShape": {"dim": [{"size": "256"}]}}}, "dtype": {"type": "DT_FLOAT"}}}, {"name": "StatefulPartitionedCall/Generator_1/switchable_normalization_41_1/batch_normalization_44_3/batchnorm/sub", "op": "Const", "attr": {"value": {"tensor": {"dtype": "DT_FLOAT", "tensorShape": {"dim": [{"size": "256"}]}}}, "dtype": {"type": "DT_FLOAT"}}}, {"name": "StatefulPartitionedCall/Generator_1/switchable_normalization_41_1/strided_slice_1", "op": "Const", "attr": {"value": {"tensor": {"dtype": "DT_FLOAT", "tensorShape": {}}}, "dtype": {"type": "DT_FLOAT"}}}, {"name": "StatefulPartitionedCall/Generator_1/switchable_normalization_41_1/layer_normalization_41_3/Reshape_1", "op": "Const", "attr": {"value": {"tensor": {"dtype": "DT_FLOAT", "tensorShape": {"dim": [{"size": "1"}, {"size": "1"}, {"size": "1"}, {"size": "256"}]}}}, "dtype": {"type": "DT_FLOAT"}}}, {"name": "StatefulPartitionedCall/Generator_1/switchable_normalization_41_1/layer_normalization_41_3/moments/mean/reduction_indices", "op": "Const", "attr": {"value": {"tensor": {"dtype": "DT_INT32", "tensorShape": {"dim": [{"size": "1"}]}}}, "dtype": {"type": "DT_INT32"}}}, {"name": "StatefulPartitionedCall/Generator_1/switchable_normalization_41_1/layer_normalization_41_3/moments/variance/reduction_indices", "op": "Const", "attr": {"value": {"tensor": {"dtype": "DT_INT32", "tensorShape": {"dim": [{"size": "1"}]}}}, "dtype": {"type": "DT_INT32"}}}, {"name": "StatefulPartitionedCall/Generator_1/switchable_normalization_41_1/layer_normalization_41_3/add/y", "op": "Const", "attr": {"value": {"tensor": {"dtype": "DT_FLOAT", "tensorShape": {}}}, "dtype": {"type": "DT_FLOAT"}}}, {"name": "StatefulPartitionedCall/Generator_1/switchable_normalization_41_1/layer_normalization_41_3/Reshape", "op": "Const", "attr": {"value": {"tensor": {"dtype": "DT_FLOAT", "tensorShape": {"dim": [{"size": "1"}, {"size": "1"}, {"size": "1"}, {"size": "256"}]}}}, "dtype": {"type": "DT_FLOAT"}}}, {"name": "StatefulPartitionedCall/Generator_1/switchable_normalization_41_1/strided_slice_2", "op": "Const", "attr": {"value": {"tensor": {"dtype": "DT_FLOAT", "tensorShape": {}}}, "dtype": {"type": "DT_FLOAT"}}}, {"name": "StatefulPartitionedCall/Generator_1/switchable_normalization_41_1/group_normalization_41_3/Reshape_2", "op": "Const", "attr": {"value": {"tensor": {"dtype": "DT_FLOAT", "tensorShape": {"dim": [{"size": "1"}, {"size": "1"}, {"size": "1"}, {"size": "256"}, {"size": "1"}]}}}, "dtype": {"type": "DT_FLOAT"}}}, {"name": "StatefulPartitionedCall/Generator_1/switchable_normalization_41_1/group_normalization_41_3/Reshape/shape", "op": "Const", "attr": {"value": {"tensor": {"dtype": "DT_INT32", "tensorShape": {"dim": [{"size": "5"}]}}}, "dtype": {"type": "DT_INT32"}}}, {"name": "StatefulPartitionedCall/Generator_1/switchable_normalization_41_1/group_normalization_41_3/moments/mean/reduction_indices", "op": "Const", "attr": {"value": {"tensor": {"dtype": "DT_INT32", "tensorShape": {"dim": [{"size": "3"}]}}}, "dtype": {"type": "DT_INT32"}}}, {"name": "StatefulPartitionedCall/Generator_1/switchable_normalization_41_1/group_normalization_41_3/moments/variance/reduction_indices", "op": "Const", "attr": {"value": {"tensor": {"dtype": "DT_INT32", "tensorShape": {"dim": [{"size": "3"}]}}}, "dtype": {"type": "DT_INT32"}}}, {"name": "StatefulPartitionedCall/Generator_1/switchable_normalization_41_1/group_normalization_41_3/add/y", "op": "Const", "attr": {"value": {"tensor": {"dtype": "DT_FLOAT", "tensorShape": {}}}, "dtype": {"type": "DT_FLOAT"}}}, {"name": "StatefulPartitionedCall/Generator_1/switchable_normalization_41_1/group_normalization_41_3/Reshape_1", "op": "Const", "attr": {"value": {"tensor": {"dtype": "DT_FLOAT", "tensorShape": {"dim": [{"size": "1"}, {"size": "1"}, {"size": "1"}, {"size": "256"}, {"size": "1"}]}}}, "dtype": {"type": "DT_FLOAT"}}}, {"name": "StatefulPartitionedCall/Generator_1/switchable_normalization_41_1/group_normalization_41_3/strided_slice_1/stack", "op": "Const", "attr": {"value": {"tensor": {"dtype": "DT_INT32", "tensorShape": {"dim": [{"size": "1"}]}}}, "dtype": {"type": "DT_INT32"}}}, {"name": "StatefulPartitionedCall/Generator_1/switchable_normalization_41_1/group_normalization_41_3/strided_slice_1/stack_1", "op": "Const", "attr": {"value": {"tensor": {"dtype": "DT_INT32", "tensorShape": {"dim": [{"size": "1"}]}}}, "dtype": {"type": "DT_INT32"}}}, {"name": "StatefulPartitionedCall/Generator_1/switchable_normalization_41_1/group_normalization_41_3/strided_slice_1/stack_2", "op": "Const", "attr": {"value": {"tensor": {"dtype": "DT_INT32", "tensorShape": {"dim": [{"size": "1"}]}}}, "dtype": {"type": "DT_INT32"}}}, {"name": "StatefulPartitionedCall/Generator_1/switchable_normalization_41_1/group_normalization_41_3/Reshape_3/shape/1", "op": "Const", "attr": {"value": {"tensor": {"dtype": "DT_INT32", "tensorShape": {}}}, "dtype": {"type": "DT_INT32"}}}, {"name": "StatefulPartitionedCall/Generator_1/switchable_normalization_41_1/group_normalization_41_3/Reshape_3/shape/2", "op": "Const", "attr": {"value": {"tensor": {"dtype": "DT_INT32", "tensorShape": {}}}, "dtype": {"type": "DT_INT32"}}}, {"name": "StatefulPartitionedCall/Generator_1/switchable_normalization_41_1/group_normalization_41_3/Reshape_3/shape/3", "op": "Const", "attr": {"value": {"tensor": {"dtype": "DT_INT32", "tensorShape": {}}}, "dtype": {"type": "DT_INT32"}}}, {"name": "StatefulPartitionedCall/Generator_1/conv2d_73_1/convolution/ReadVariableOp", "op": "Const", "attr": {"value": {"tensor": {"dtype": "DT_FLOAT", "tensorShape": {"dim": [{"size": "3"}, {"size": "3"}, {"size": "256"}, {"size": "256"}]}}}, "dtype": {"type": "DT_FLOAT"}}}, {"name": "StatefulPartitionedCall/Generator_1/conv2d_73_1/Squeeze", "op": "Const", "attr": {"value": {"tensor": {"dtype": "DT_FLOAT", "tensorShape": {"dim": [{"size": "256"}]}}}, "dtype": {"type": "DT_FLOAT"}}}, {"name": "StatefulPartitionedCall/Generator_1/switchable_normalization_42_1/group_normalization_42_3/strided_slice_1/stack", "op": "Const", "attr": {"value": {"tensor": {"dtype": "DT_INT32", "tensorShape": {"dim": [{"size": "1"}]}}}, "dtype": {"type": "DT_INT32"}}}, {"name": "StatefulPartitionedCall/Generator_1/switchable_normalization_42_1/group_normalization_42_3/strided_slice_1/stack_1", "op": "Const", "attr": {"value": {"tensor": {"dtype": "DT_INT32", "tensorShape": {"dim": [{"size": "1"}]}}}, "dtype": {"type": "DT_INT32"}}}, {"name": "StatefulPartitionedCall/Generator_1/switchable_normalization_42_1/group_normalization_42_3/strided_slice_1/stack_2", "op": "Const", "attr": {"value": {"tensor": {"dtype": "DT_INT32", "tensorShape": {"dim": [{"size": "1"}]}}}, "dtype": {"type": "DT_INT32"}}}, {"name": "StatefulPartitionedCall/Generator_1/switchable_normalization_42_1/group_normalization_42_3/Reshape_3/shape/1", "op": "Const", "attr": {"value": {"tensor": {"dtype": "DT_INT32", "tensorShape": {}}}, "dtype": {"type": "DT_INT32"}}}, {"name": "StatefulPartitionedCall/Generator_1/switchable_normalization_42_1/group_normalization_42_3/Reshape_3/shape/2", "op": "Const", "attr": {"value": {"tensor": {"dtype": "DT_INT32", "tensorShape": {}}}, "dtype": {"type": "DT_INT32"}}}, {"name": "StatefulPartitionedCall/Generator_1/switchable_normalization_42_1/group_normalization_42_3/Reshape_3/shape/3", "op": "Const", "attr": {"value": {"tensor": {"dtype": "DT_INT32", "tensorShape": {}}}, "dtype": {"type": "DT_INT32"}}}, {"name": "StatefulPartitionedCall/Generator_1/conv2d_74_1/convolution/ReadVariableOp", "op": "Const", "attr": {"value": {"tensor": {"dtype": "DT_FLOAT", "tensorShape": {"dim": [{"size": "3"}, {"size": "3"}, {"size": "256"}, {"size": "256"}]}}}, "dtype": {"type": "DT_FLOAT"}}}, {"name": "StatefulPartitionedCall/Generator_1/conv2d_74_1/Squeeze", "op": "Const", "attr": {"value": {"tensor": {"dtype": "DT_FLOAT", "tensorShape": {"dim": [{"size": "256"}]}}}, "dtype": {"type": "DT_FLOAT"}}}, {"name": "StatefulPartitionedCall/Generator_1/global_average_pooling2d_20_1/Mean/reduction_indices", "op": "Const", "attr": {"value": {"tensor": {"dtype": "DT_INT32", "tensorShape": {"dim": [{"size": "2"}]}}}, "dtype": {"type": "DT_INT32"}}}, {"name": "StatefulPartitionedCall/Generator_1/reshape_20_1/strided_slice/stack", "op": "Const", "attr": {"value": {"tensor": {"dtype": "DT_INT32", "tensorShape": {"dim": [{"size": "1"}]}}}, "dtype": {"type": "DT_INT32"}}}, {"name": "StatefulPartitionedCall/Generator_1/reshape_20_1/strided_slice/stack_1", "op": "Const", "attr": {"value": {"tensor": {"dtype": "DT_INT32", "tensorShape": {"dim": [{"size": "1"}]}}}, "dtype": {"type": "DT_INT32"}}}, {"name": "StatefulPartitionedCall/Generator_1/reshape_20_1/strided_slice/stack_2", "op": "Const", "attr": {"value": {"tensor": {"dtype": "DT_INT32", "tensorShape": {"dim": [{"size": "1"}]}}}, "dtype": {"type": "DT_INT32"}}}, {"name": "StatefulPartitionedCall/Generator_1/reshape_20_1/Reshape/shape/1", "op": "Const", "attr": {"value": {"tensor": {"dtype": "DT_INT32", "tensorShape": {}}}, "dtype": {"type": "DT_INT32"}}}, {"name": "StatefulPartitionedCall/Generator_1/reshape_20_1/Reshape/shape/2", "op": "Const", "attr": {"value": {"tensor": {"dtype": "DT_INT32", "tensorShape": {}}}, "dtype": {"type": "DT_INT32"}}}, {"name": "StatefulPartitionedCall/Generator_1/reshape_20_1/Reshape/shape/3", "op": "Const", "attr": {"value": {"tensor": {"dtype": "DT_INT32", "tensorShape": {}}}, "dtype": {"type": "DT_INT32"}}}, {"name": "StatefulPartitionedCall/Generator_1/dense_40_1/Cast/ReadVariableOp", "op": "Const", "attr": {"value": {"tensor": {"dtype": "DT_FLOAT", "tensorShape": {"dim": [{"size": "256"}, {"size": "16"}]}}}, "dtype": {"type": "DT_FLOAT"}}}, {"name": "StatefulPartitionedCall/Generator_1/dense_40_1/BiasAdd/ReadVariableOp", "op": "Const", "attr": {"value": {"tensor": {"dtype": "DT_FLOAT", "tensorShape": {"dim": [{"size": "16"}]}}}, "dtype": {"type": "DT_FLOAT"}}}, {"name": "StatefulPartitionedCall/Generator_1/dense_41_1/Cast/ReadVariableOp", "op": "Const", "attr": {"value": {"tensor": {"dtype": "DT_FLOAT", "tensorShape": {"dim": [{"size": "16"}, {"size": "256"}]}}}, "dtype": {"type": "DT_FLOAT"}}}, {"name": "StatefulPartitionedCall/Generator_1/dense_41_1/BiasAdd/ReadVariableOp", "op": "Const", "attr": {"value": {"tensor": {"dtype": "DT_FLOAT", "tensorShape": {"dim": [{"size": "256"}]}}}, "dtype": {"type": "DT_FLOAT"}}}, {"name": "StatefulPartitionedCall/Generator_1/switchable_normalization_40_1/strided_slice", "op": "Const", "attr": {"value": {"tensor": {"dtype": "DT_FLOAT", "tensorShape": {}}}, "dtype": {"type": "DT_FLOAT"}}}, {"name": "StatefulPartitionedCall/Generator_1/switchable_normalization_40_1/batch_normalization_43_3/batchnorm/mul", "op": "Const", "attr": {"value": {"tensor": {"dtype": "DT_FLOAT", "tensorShape": {"dim": [{"size": "256"}]}}}, "dtype": {"type": "DT_FLOAT"}}}, {"name": "StatefulPartitionedCall/Generator_1/switchable_normalization_40_1/batch_normalization_43_3/batchnorm/sub", "op": "Const", "attr": {"value": {"tensor": {"dtype": "DT_FLOAT", "tensorShape": {"dim": [{"size": "256"}]}}}, "dtype": {"type": "DT_FLOAT"}}}, {"name": "StatefulPartitionedCall/Generator_1/switchable_normalization_40_1/strided_slice_1", "op": "Const", "attr": {"value": {"tensor": {"dtype": "DT_FLOAT", "tensorShape": {}}}, "dtype": {"type": "DT_FLOAT"}}}, {"name": "StatefulPartitionedCall/Generator_1/switchable_normalization_40_1/layer_normalization_40_3/Reshape_1", "op": "Const", "attr": {"value": {"tensor": {"dtype": "DT_FLOAT", "tensorShape": {"dim": [{"size": "1"}, {"size": "1"}, {"size": "1"}, {"size": "256"}]}}}, "dtype": {"type": "DT_FLOAT"}}}, {"name": "StatefulPartitionedCall/Generator_1/switchable_normalization_40_1/layer_normalization_40_3/moments/mean/reduction_indices", "op": "Const", "attr": {"value": {"tensor": {"dtype": "DT_INT32", "tensorShape": {"dim": [{"size": "1"}]}}}, "dtype": {"type": "DT_INT32"}}}, {"name": "StatefulPartitionedCall/Generator_1/switchable_normalization_40_1/layer_normalization_40_3/moments/variance/reduction_indices", "op": "Const", "attr": {"value": {"tensor": {"dtype": "DT_INT32", "tensorShape": {"dim": [{"size": "1"}]}}}, "dtype": {"type": "DT_INT32"}}}, {"name": "StatefulPartitionedCall/Generator_1/switchable_normalization_40_1/layer_normalization_40_3/add/y", "op": "Const", "attr": {"value": {"tensor": {"dtype": "DT_FLOAT", "tensorShape": {}}}, "dtype": {"type": "DT_FLOAT"}}}, {"name": "StatefulPartitionedCall/Generator_1/switchable_normalization_40_1/layer_normalization_40_3/Reshape", "op": "Const", "attr": {"value": {"tensor": {"dtype": "DT_FLOAT", "tensorShape": {"dim": [{"size": "1"}, {"size": "1"}, {"size": "1"}, {"size": "256"}]}}}, "dtype": {"type": "DT_FLOAT"}}}, {"name": "StatefulPartitionedCall/Generator_1/switchable_normalization_40_1/strided_slice_2", "op": "Const", "attr": {"value": {"tensor": {"dtype": "DT_FLOAT", "tensorShape": {}}}, "dtype": {"type": "DT_FLOAT"}}}, {"name": "StatefulPartitionedCall/Generator_1/switchable_normalization_40_1/group_normalization_40_3/Reshape_2", "op": "Const", "attr": {"value": {"tensor": {"dtype": "DT_FLOAT", "tensorShape": {"dim": [{"size": "1"}, {"size": "1"}, {"size": "1"}, {"size": "256"}, {"size": "1"}]}}}, "dtype": {"type": "DT_FLOAT"}}}, {"name": "StatefulPartitionedCall/Generator_1/switchable_normalization_40_1/group_normalization_40_3/Reshape/shape", "op": "Const", "attr": {"value": {"tensor": {"dtype": "DT_INT32", "tensorShape": {"dim": [{"size": "5"}]}}}, "dtype": {"type": "DT_INT32"}}}, {"name": "StatefulPartitionedCall/Generator_1/switchable_normalization_40_1/group_normalization_40_3/moments/mean/reduction_indices", "op": "Const", "attr": {"value": {"tensor": {"dtype": "DT_INT32", "tensorShape": {"dim": [{"size": "3"}]}}}, "dtype": {"type": "DT_INT32"}}}, {"name": "StatefulPartitionedCall/Generator_1/switchable_normalization_40_1/group_normalization_40_3/moments/variance/reduction_indices", "op": "Const", "attr": {"value": {"tensor": {"dtype": "DT_INT32", "tensorShape": {"dim": [{"size": "3"}]}}}, "dtype": {"type": "DT_INT32"}}}, {"name": "StatefulPartitionedCall/Generator_1/switchable_normalization_40_1/group_normalization_40_3/add/y", "op": "Const", "attr": {"value": {"tensor": {"dtype": "DT_FLOAT", "tensorShape": {}}}, "dtype": {"type": "DT_FLOAT"}}}, {"name": "StatefulPartitionedCall/Generator_1/switchable_normalization_40_1/group_normalization_40_3/Reshape_1", "op": "Const", "attr": {"value": {"tensor": {"dtype": "DT_FLOAT", "tensorShape": {"dim": [{"size": "1"}, {"size": "1"}, {"size": "1"}, {"size": "256"}, {"size": "1"}]}}}, "dtype": {"type": "DT_FLOAT"}}}, {"name": "StatefulPartitionedCall/Generator_1/switchable_normalization_39_1/strided_slice", "op": "Const", "attr": {"value": {"tensor": {"dtype": "DT_FLOAT", "tensorShape": {}}}, "dtype": {"type": "DT_FLOAT"}}}, {"name": "StatefulPartitionedCall/Generator_1/switchable_normalization_39_1/batch_normalization_42_3/batchnorm/mul", "op": "Const", "attr": {"value": {"tensor": {"dtype": "DT_FLOAT", "tensorShape": {"dim": [{"size": "256"}]}}}, "dtype": {"type": "DT_FLOAT"}}}, {"name": "StatefulPartitionedCall/Generator_1/switchable_normalization_39_1/batch_normalization_42_3/batchnorm/sub", "op": "Const", "attr": {"value": {"tensor": {"dtype": "DT_FLOAT", "tensorShape": {"dim": [{"size": "256"}]}}}, "dtype": {"type": "DT_FLOAT"}}}, {"name": "StatefulPartitionedCall/Generator_1/switchable_normalization_39_1/strided_slice_1", "op": "Const", "attr": {"value": {"tensor": {"dtype": "DT_FLOAT", "tensorShape": {}}}, "dtype": {"type": "DT_FLOAT"}}}, {"name": "StatefulPartitionedCall/Generator_1/switchable_normalization_39_1/layer_normalization_39_3/Reshape_1", "op": "Const", "attr": {"value": {"tensor": {"dtype": "DT_FLOAT", "tensorShape": {"dim": [{"size": "1"}, {"size": "1"}, {"size": "1"}, {"size": "256"}]}}}, "dtype": {"type": "DT_FLOAT"}}}, {"name": "StatefulPartitionedCall/Generator_1/switchable_normalization_39_1/layer_normalization_39_3/moments/mean/reduction_indices", "op": "Const", "attr": {"value": {"tensor": {"dtype": "DT_INT32", "tensorShape": {"dim": [{"size": "1"}]}}}, "dtype": {"type": "DT_INT32"}}}, {"name": "StatefulPartitionedCall/Generator_1/switchable_normalization_39_1/layer_normalization_39_3/moments/variance/reduction_indices", "op": "Const", "attr": {"value": {"tensor": {"dtype": "DT_INT32", "tensorShape": {"dim": [{"size": "1"}]}}}, "dtype": {"type": "DT_INT32"}}}, {"name": "StatefulPartitionedCall/Generator_1/switchable_normalization_39_1/layer_normalization_39_3/add/y", "op": "Const", "attr": {"value": {"tensor": {"dtype": "DT_FLOAT", "tensorShape": {}}}, "dtype": {"type": "DT_FLOAT"}}}, {"name": "StatefulPartitionedCall/Generator_1/switchable_normalization_39_1/layer_normalization_39_3/Reshape", "op": "Const", "attr": {"value": {"tensor": {"dtype": "DT_FLOAT", "tensorShape": {"dim": [{"size": "1"}, {"size": "1"}, {"size": "1"}, {"size": "256"}]}}}, "dtype": {"type": "DT_FLOAT"}}}, {"name": "StatefulPartitionedCall/Generator_1/switchable_normalization_39_1/strided_slice_2", "op": "Const", "attr": {"value": {"tensor": {"dtype": "DT_FLOAT", "tensorShape": {}}}, "dtype": {"type": "DT_FLOAT"}}}, {"name": "StatefulPartitionedCall/Generator_1/switchable_normalization_39_1/group_normalization_39_3/Reshape_2", "op": "Const", "attr": {"value": {"tensor": {"dtype": "DT_FLOAT", "tensorShape": {"dim": [{"size": "1"}, {"size": "1"}, {"size": "1"}, {"size": "256"}, {"size": "1"}]}}}, "dtype": {"type": "DT_FLOAT"}}}, {"name": "StatefulPartitionedCall/Generator_1/switchable_normalization_39_1/group_normalization_39_3/Reshape/shape", "op": "Const", "attr": {"value": {"tensor": {"dtype": "DT_INT32", "tensorShape": {"dim": [{"size": "5"}]}}}, "dtype": {"type": "DT_INT32"}}}, {"name": "StatefulPartitionedCall/Generator_1/switchable_normalization_39_1/group_normalization_39_3/moments/mean/reduction_indices", "op": "Const", "attr": {"value": {"tensor": {"dtype": "DT_INT32", "tensorShape": {"dim": [{"size": "3"}]}}}, "dtype": {"type": "DT_INT32"}}}, {"name": "StatefulPartitionedCall/Generator_1/switchable_normalization_39_1/group_normalization_39_3/moments/variance/reduction_indices", "op": "Const", "attr": {"value": {"tensor": {"dtype": "DT_INT32", "tensorShape": {"dim": [{"size": "3"}]}}}, "dtype": {"type": "DT_INT32"}}}, {"name": "StatefulPartitionedCall/Generator_1/switchable_normalization_39_1/group_normalization_39_3/add/y", "op": "Const", "attr": {"value": {"tensor": {"dtype": "DT_FLOAT", "tensorShape": {}}}, "dtype": {"type": "DT_FLOAT"}}}, {"name": "StatefulPartitionedCall/Generator_1/switchable_normalization_39_1/group_normalization_39_3/Reshape_1", "op": "Const", "attr": {"value": {"tensor": {"dtype": "DT_FLOAT", "tensorShape": {"dim": [{"size": "1"}, {"size": "1"}, {"size": "1"}, {"size": "256"}, {"size": "1"}]}}}, "dtype": {"type": "DT_FLOAT"}}}, {"name": "StatefulPartitionedCall/Generator_1/switchable_normalization_39_1/group_normalization_39_3/strided_slice_1/stack", "op": "Const", "attr": {"value": {"tensor": {"dtype": "DT_INT32", "tensorShape": {"dim": [{"size": "1"}]}}}, "dtype": {"type": "DT_INT32"}}}, {"name": "StatefulPartitionedCall/Generator_1/switchable_normalization_39_1/group_normalization_39_3/strided_slice_1/stack_1", "op": "Const", "attr": {"value": {"tensor": {"dtype": "DT_INT32", "tensorShape": {"dim": [{"size": "1"}]}}}, "dtype": {"type": "DT_INT32"}}}, {"name": "StatefulPartitionedCall/Generator_1/switchable_normalization_39_1/group_normalization_39_3/strided_slice_1/stack_2", "op": "Const", "attr": {"value": {"tensor": {"dtype": "DT_INT32", "tensorShape": {"dim": [{"size": "1"}]}}}, "dtype": {"type": "DT_INT32"}}}, {"name": "StatefulPartitionedCall/Generator_1/switchable_normalization_39_1/group_normalization_39_3/Reshape_3/shape/1", "op": "Const", "attr": {"value": {"tensor": {"dtype": "DT_INT32", "tensorShape": {}}}, "dtype": {"type": "DT_INT32"}}}, {"name": "StatefulPartitionedCall/Generator_1/switchable_normalization_39_1/group_normalization_39_3/Reshape_3/shape/2", "op": "Const", "attr": {"value": {"tensor": {"dtype": "DT_INT32", "tensorShape": {}}}, "dtype": {"type": "DT_INT32"}}}, {"name": "StatefulPartitionedCall/Generator_1/switchable_normalization_39_1/group_normalization_39_3/Reshape_3/shape/3", "op": "Const", "attr": {"value": {"tensor": {"dtype": "DT_INT32", "tensorShape": {}}}, "dtype": {"type": "DT_INT32"}}}, {"name": "StatefulPartitionedCall/Generator_1/conv2d_71_1/convolution/ReadVariableOp", "op": "Const", "attr": {"value": {"tensor": {"dtype": "DT_FLOAT", "tensorShape": {"dim": [{"size": "3"}, {"size": "3"}, {"size": "256"}, {"size": "256"}]}}}, "dtype": {"type": "DT_FLOAT"}}}, {"name": "StatefulPartitionedCall/Generator_1/conv2d_71_1/Squeeze", "op": "Const", "attr": {"value": {"tensor": {"dtype": "DT_FLOAT", "tensorShape": {"dim": [{"size": "256"}]}}}, "dtype": {"type": "DT_FLOAT"}}}, {"name": "StatefulPartitionedCall/Generator_1/switchable_normalization_40_1/group_normalization_40_3/strided_slice_1/stack", "op": "Const", "attr": {"value": {"tensor": {"dtype": "DT_INT32", "tensorShape": {"dim": [{"size": "1"}]}}}, "dtype": {"type": "DT_INT32"}}}, {"name": "StatefulPartitionedCall/Generator_1/switchable_normalization_40_1/group_normalization_40_3/strided_slice_1/stack_1", "op": "Const", "attr": {"value": {"tensor": {"dtype": "DT_INT32", "tensorShape": {"dim": [{"size": "1"}]}}}, "dtype": {"type": "DT_INT32"}}}, {"name": "StatefulPartitionedCall/Generator_1/switchable_normalization_40_1/group_normalization_40_3/strided_slice_1/stack_2", "op": "Const", "attr": {"value": {"tensor": {"dtype": "DT_INT32", "tensorShape": {"dim": [{"size": "1"}]}}}, "dtype": {"type": "DT_INT32"}}}, {"name": "StatefulPartitionedCall/Generator_1/switchable_normalization_40_1/group_normalization_40_3/Reshape_3/shape/1", "op": "Const", "attr": {"value": {"tensor": {"dtype": "DT_INT32", "tensorShape": {}}}, "dtype": {"type": "DT_INT32"}}}, {"name": "StatefulPartitionedCall/Generator_1/switchable_normalization_40_1/group_normalization_40_3/Reshape_3/shape/2", "op": "Const", "attr": {"value": {"tensor": {"dtype": "DT_INT32", "tensorShape": {}}}, "dtype": {"type": "DT_INT32"}}}, {"name": "StatefulPartitionedCall/Generator_1/switchable_normalization_40_1/group_normalization_40_3/Reshape_3/shape/3", "op": "Const", "attr": {"value": {"tensor": {"dtype": "DT_INT32", "tensorShape": {}}}, "dtype": {"type": "DT_INT32"}}}, {"name": "StatefulPartitionedCall/Generator_1/conv2d_72_1/convolution/ReadVariableOp", "op": "Const", "attr": {"value": {"tensor": {"dtype": "DT_FLOAT", "tensorShape": {"dim": [{"size": "3"}, {"size": "3"}, {"size": "256"}, {"size": "256"}]}}}, "dtype": {"type": "DT_FLOAT"}}}, {"name": "StatefulPartitionedCall/Generator_1/conv2d_72_1/Squeeze", "op": "Const", "attr": {"value": {"tensor": {"dtype": "DT_FLOAT", "tensorShape": {"dim": [{"size": "256"}]}}}, "dtype": {"type": "DT_FLOAT"}}}, {"name": "StatefulPartitionedCall/Generator_1/global_average_pooling2d_19_1/Mean/reduction_indices", "op": "Const", "attr": {"value": {"tensor": {"dtype": "DT_INT32", "tensorShape": {"dim": [{"size": "2"}]}}}, "dtype": {"type": "DT_INT32"}}}, {"name": "StatefulPartitionedCall/Generator_1/reshape_19_1/strided_slice/stack", "op": "Const", "attr": {"value": {"tensor": {"dtype": "DT_INT32", "tensorShape": {"dim": [{"size": "1"}]}}}, "dtype": {"type": "DT_INT32"}}}, {"name": "StatefulPartitionedCall/Generator_1/reshape_19_1/strided_slice/stack_1", "op": "Const", "attr": {"value": {"tensor": {"dtype": "DT_INT32", "tensorShape": {"dim": [{"size": "1"}]}}}, "dtype": {"type": "DT_INT32"}}}, {"name": "StatefulPartitionedCall/Generator_1/reshape_19_1/strided_slice/stack_2", "op": "Const", "attr": {"value": {"tensor": {"dtype": "DT_INT32", "tensorShape": {"dim": [{"size": "1"}]}}}, "dtype": {"type": "DT_INT32"}}}, {"name": "StatefulPartitionedCall/Generator_1/reshape_19_1/Reshape/shape/1", "op": "Const", "attr": {"value": {"tensor": {"dtype": "DT_INT32", "tensorShape": {}}}, "dtype": {"type": "DT_INT32"}}}, {"name": "StatefulPartitionedCall/Generator_1/reshape_19_1/Reshape/shape/2", "op": "Const", "attr": {"value": {"tensor": {"dtype": "DT_INT32", "tensorShape": {}}}, "dtype": {"type": "DT_INT32"}}}, {"name": "StatefulPartitionedCall/Generator_1/reshape_19_1/Reshape/shape/3", "op": "Const", "attr": {"value": {"tensor": {"dtype": "DT_INT32", "tensorShape": {}}}, "dtype": {"type": "DT_INT32"}}}, {"name": "StatefulPartitionedCall/Generator_1/dense_38_1/Cast/ReadVariableOp", "op": "Const", "attr": {"value": {"tensor": {"dtype": "DT_FLOAT", "tensorShape": {"dim": [{"size": "256"}, {"size": "16"}]}}}, "dtype": {"type": "DT_FLOAT"}}}, {"name": "StatefulPartitionedCall/Generator_1/dense_38_1/BiasAdd/ReadVariableOp", "op": "Const", "attr": {"value": {"tensor": {"dtype": "DT_FLOAT", "tensorShape": {"dim": [{"size": "16"}]}}}, "dtype": {"type": "DT_FLOAT"}}}, {"name": "StatefulPartitionedCall/Generator_1/dense_39_1/Cast/ReadVariableOp", "op": "Const", "attr": {"value": {"tensor": {"dtype": "DT_FLOAT", "tensorShape": {"dim": [{"size": "16"}, {"size": "256"}]}}}, "dtype": {"type": "DT_FLOAT"}}}, {"name": "StatefulPartitionedCall/Generator_1/dense_39_1/BiasAdd/ReadVariableOp", "op": "Const", "attr": {"value": {"tensor": {"dtype": "DT_FLOAT", "tensorShape": {"dim": [{"size": "256"}]}}}, "dtype": {"type": "DT_FLOAT"}}}, {"name": "StatefulPartitionedCall/Generator_1/switchable_normalization_38_1/strided_slice", "op": "Const", "attr": {"value": {"tensor": {"dtype": "DT_FLOAT", "tensorShape": {}}}, "dtype": {"type": "DT_FLOAT"}}}, {"name": "StatefulPartitionedCall/Generator_1/switchable_normalization_38_1/batch_normalization_41_3/batchnorm/mul", "op": "Const", "attr": {"value": {"tensor": {"dtype": "DT_FLOAT", "tensorShape": {"dim": [{"size": "256"}]}}}, "dtype": {"type": "DT_FLOAT"}}}, {"name": "StatefulPartitionedCall/Generator_1/switchable_normalization_38_1/batch_normalization_41_3/batchnorm/sub", "op": "Const", "attr": {"value": {"tensor": {"dtype": "DT_FLOAT", "tensorShape": {"dim": [{"size": "256"}]}}}, "dtype": {"type": "DT_FLOAT"}}}, {"name": "StatefulPartitionedCall/Generator_1/switchable_normalization_38_1/strided_slice_1", "op": "Const", "attr": {"value": {"tensor": {"dtype": "DT_FLOAT", "tensorShape": {}}}, "dtype": {"type": "DT_FLOAT"}}}, {"name": "StatefulPartitionedCall/Generator_1/switchable_normalization_38_1/layer_normalization_38_3/Reshape_1", "op": "Const", "attr": {"value": {"tensor": {"dtype": "DT_FLOAT", "tensorShape": {"dim": [{"size": "1"}, {"size": "1"}, {"size": "1"}, {"size": "256"}]}}}, "dtype": {"type": "DT_FLOAT"}}}, {"name": "StatefulPartitionedCall/Generator_1/switchable_normalization_38_1/layer_normalization_38_3/moments/mean/reduction_indices", "op": "Const", "attr": {"value": {"tensor": {"dtype": "DT_INT32", "tensorShape": {"dim": [{"size": "1"}]}}}, "dtype": {"type": "DT_INT32"}}}, {"name": "StatefulPartitionedCall/Generator_1/switchable_normalization_38_1/layer_normalization_38_3/moments/variance/reduction_indices", "op": "Const", "attr": {"value": {"tensor": {"dtype": "DT_INT32", "tensorShape": {"dim": [{"size": "1"}]}}}, "dtype": {"type": "DT_INT32"}}}, {"name": "StatefulPartitionedCall/Generator_1/switchable_normalization_38_1/layer_normalization_38_3/add/y", "op": "Const", "attr": {"value": {"tensor": {"dtype": "DT_FLOAT", "tensorShape": {}}}, "dtype": {"type": "DT_FLOAT"}}}, {"name": "StatefulPartitionedCall/Generator_1/switchable_normalization_38_1/layer_normalization_38_3/Reshape", "op": "Const", "attr": {"value": {"tensor": {"dtype": "DT_FLOAT", "tensorShape": {"dim": [{"size": "1"}, {"size": "1"}, {"size": "1"}, {"size": "256"}]}}}, "dtype": {"type": "DT_FLOAT"}}}, {"name": "StatefulPartitionedCall/Generator_1/switchable_normalization_38_1/strided_slice_2", "op": "Const", "attr": {"value": {"tensor": {"dtype": "DT_FLOAT", "tensorShape": {}}}, "dtype": {"type": "DT_FLOAT"}}}, {"name": "StatefulPartitionedCall/Generator_1/switchable_normalization_38_1/group_normalization_38_3/Reshape_2", "op": "Const", "attr": {"value": {"tensor": {"dtype": "DT_FLOAT", "tensorShape": {"dim": [{"size": "1"}, {"size": "1"}, {"size": "1"}, {"size": "256"}, {"size": "1"}]}}}, "dtype": {"type": "DT_FLOAT"}}}, {"name": "StatefulPartitionedCall/Generator_1/switchable_normalization_38_1/group_normalization_38_3/Reshape/shape", "op": "Const", "attr": {"value": {"tensor": {"dtype": "DT_INT32", "tensorShape": {"dim": [{"size": "5"}]}}}, "dtype": {"type": "DT_INT32"}}}, {"name": "StatefulPartitionedCall/Generator_1/switchable_normalization_38_1/group_normalization_38_3/moments/mean/reduction_indices", "op": "Const", "attr": {"value": {"tensor": {"dtype": "DT_INT32", "tensorShape": {"dim": [{"size": "3"}]}}}, "dtype": {"type": "DT_INT32"}}}, {"name": "StatefulPartitionedCall/Generator_1/switchable_normalization_38_1/group_normalization_38_3/moments/variance/reduction_indices", "op": "Const", "attr": {"value": {"tensor": {"dtype": "DT_INT32", "tensorShape": {"dim": [{"size": "3"}]}}}, "dtype": {"type": "DT_INT32"}}}, {"name": "StatefulPartitionedCall/Generator_1/switchable_normalization_38_1/group_normalization_38_3/add/y", "op": "Const", "attr": {"value": {"tensor": {"dtype": "DT_FLOAT", "tensorShape": {}}}, "dtype": {"type": "DT_FLOAT"}}}, {"name": "StatefulPartitionedCall/Generator_1/switchable_normalization_38_1/group_normalization_38_3/Reshape_1", "op": "Const", "attr": {"value": {"tensor": {"dtype": "DT_FLOAT", "tensorShape": {"dim": [{"size": "1"}, {"size": "1"}, {"size": "1"}, {"size": "256"}, {"size": "1"}]}}}, "dtype": {"type": "DT_FLOAT"}}}, {"name": "StatefulPartitionedCall/Generator_1/switchable_normalization_37_1/strided_slice", "op": "Const", "attr": {"value": {"tensor": {"dtype": "DT_FLOAT", "tensorShape": {}}}, "dtype": {"type": "DT_FLOAT"}}}, {"name": "StatefulPartitionedCall/Generator_1/switchable_normalization_37_1/batch_normalization_40_3/batchnorm/mul", "op": "Const", "attr": {"value": {"tensor": {"dtype": "DT_FLOAT", "tensorShape": {"dim": [{"size": "256"}]}}}, "dtype": {"type": "DT_FLOAT"}}}, {"name": "StatefulPartitionedCall/Generator_1/switchable_normalization_37_1/batch_normalization_40_3/batchnorm/sub", "op": "Const", "attr": {"value": {"tensor": {"dtype": "DT_FLOAT", "tensorShape": {"dim": [{"size": "256"}]}}}, "dtype": {"type": "DT_FLOAT"}}}, {"name": "StatefulPartitionedCall/Generator_1/switchable_normalization_37_1/strided_slice_1", "op": "Const", "attr": {"value": {"tensor": {"dtype": "DT_FLOAT", "tensorShape": {}}}, "dtype": {"type": "DT_FLOAT"}}}, {"name": "StatefulPartitionedCall/Generator_1/switchable_normalization_37_1/layer_normalization_37_3/Reshape_1", "op": "Const", "attr": {"value": {"tensor": {"dtype": "DT_FLOAT", "tensorShape": {"dim": [{"size": "1"}, {"size": "1"}, {"size": "1"}, {"size": "256"}]}}}, "dtype": {"type": "DT_FLOAT"}}}, {"name": "StatefulPartitionedCall/Generator_1/switchable_normalization_37_1/layer_normalization_37_3/moments/mean/reduction_indices", "op": "Const", "attr": {"value": {"tensor": {"dtype": "DT_INT32", "tensorShape": {"dim": [{"size": "1"}]}}}, "dtype": {"type": "DT_INT32"}}}, {"name": "StatefulPartitionedCall/Generator_1/switchable_normalization_37_1/layer_normalization_37_3/moments/variance/reduction_indices", "op": "Const", "attr": {"value": {"tensor": {"dtype": "DT_INT32", "tensorShape": {"dim": [{"size": "1"}]}}}, "dtype": {"type": "DT_INT32"}}}, {"name": "StatefulPartitionedCall/Generator_1/switchable_normalization_37_1/layer_normalization_37_3/add/y", "op": "Const", "attr": {"value": {"tensor": {"dtype": "DT_FLOAT", "tensorShape": {}}}, "dtype": {"type": "DT_FLOAT"}}}, {"name": "StatefulPartitionedCall/Generator_1/switchable_normalization_37_1/layer_normalization_37_3/Reshape", "op": "Const", "attr": {"value": {"tensor": {"dtype": "DT_FLOAT", "tensorShape": {"dim": [{"size": "1"}, {"size": "1"}, {"size": "1"}, {"size": "256"}]}}}, "dtype": {"type": "DT_FLOAT"}}}, {"name": "StatefulPartitionedCall/Generator_1/switchable_normalization_37_1/strided_slice_2", "op": "Const", "attr": {"value": {"tensor": {"dtype": "DT_FLOAT", "tensorShape": {}}}, "dtype": {"type": "DT_FLOAT"}}}, {"name": "StatefulPartitionedCall/Generator_1/switchable_normalization_37_1/group_normalization_37_3/Reshape_2", "op": "Const", "attr": {"value": {"tensor": {"dtype": "DT_FLOAT", "tensorShape": {"dim": [{"size": "1"}, {"size": "1"}, {"size": "1"}, {"size": "256"}, {"size": "1"}]}}}, "dtype": {"type": "DT_FLOAT"}}}, {"name": "StatefulPartitionedCall/Generator_1/switchable_normalization_37_1/group_normalization_37_3/Reshape/shape", "op": "Const", "attr": {"value": {"tensor": {"dtype": "DT_INT32", "tensorShape": {"dim": [{"size": "5"}]}}}, "dtype": {"type": "DT_INT32"}}}, {"name": "StatefulPartitionedCall/Generator_1/switchable_normalization_37_1/group_normalization_37_3/moments/mean/reduction_indices", "op": "Const", "attr": {"value": {"tensor": {"dtype": "DT_INT32", "tensorShape": {"dim": [{"size": "3"}]}}}, "dtype": {"type": "DT_INT32"}}}, {"name": "StatefulPartitionedCall/Generator_1/switchable_normalization_37_1/group_normalization_37_3/moments/variance/reduction_indices", "op": "Const", "attr": {"value": {"tensor": {"dtype": "DT_INT32", "tensorShape": {"dim": [{"size": "3"}]}}}, "dtype": {"type": "DT_INT32"}}}, {"name": "StatefulPartitionedCall/Generator_1/switchable_normalization_37_1/group_normalization_37_3/add/y", "op": "Const", "attr": {"value": {"tensor": {"dtype": "DT_FLOAT", "tensorShape": {}}}, "dtype": {"type": "DT_FLOAT"}}}, {"name": "StatefulPartitionedCall/Generator_1/switchable_normalization_37_1/group_normalization_37_3/Reshape_1", "op": "Const", "attr": {"value": {"tensor": {"dtype": "DT_FLOAT", "tensorShape": {"dim": [{"size": "1"}, {"size": "1"}, {"size": "1"}, {"size": "256"}, {"size": "1"}]}}}, "dtype": {"type": "DT_FLOAT"}}}, {"name": "StatefulPartitionedCall/Generator_1/switchable_normalization_37_1/group_normalization_37_3/strided_slice_1/stack", "op": "Const", "attr": {"value": {"tensor": {"dtype": "DT_INT32", "tensorShape": {"dim": [{"size": "1"}]}}}, "dtype": {"type": "DT_INT32"}}}, {"name": "StatefulPartitionedCall/Generator_1/switchable_normalization_37_1/group_normalization_37_3/strided_slice_1/stack_1", "op": "Const", "attr": {"value": {"tensor": {"dtype": "DT_INT32", "tensorShape": {"dim": [{"size": "1"}]}}}, "dtype": {"type": "DT_INT32"}}}, {"name": "StatefulPartitionedCall/Generator_1/switchable_normalization_37_1/group_normalization_37_3/strided_slice_1/stack_2", "op": "Const", "attr": {"value": {"tensor": {"dtype": "DT_INT32", "tensorShape": {"dim": [{"size": "1"}]}}}, "dtype": {"type": "DT_INT32"}}}, {"name": "StatefulPartitionedCall/Generator_1/switchable_normalization_37_1/group_normalization_37_3/Reshape_3/shape/1", "op": "Const", "attr": {"value": {"tensor": {"dtype": "DT_INT32", "tensorShape": {}}}, "dtype": {"type": "DT_INT32"}}}, {"name": "StatefulPartitionedCall/Generator_1/switchable_normalization_37_1/group_normalization_37_3/Reshape_3/shape/2", "op": "Const", "attr": {"value": {"tensor": {"dtype": "DT_INT32", "tensorShape": {}}}, "dtype": {"type": "DT_INT32"}}}, {"name": "StatefulPartitionedCall/Generator_1/switchable_normalization_37_1/group_normalization_37_3/Reshape_3/shape/3", "op": "Const", "attr": {"value": {"tensor": {"dtype": "DT_INT32", "tensorShape": {}}}, "dtype": {"type": "DT_INT32"}}}, {"name": "StatefulPartitionedCall/Generator_1/conv2d_69_1/convolution/ReadVariableOp", "op": "Const", "attr": {"value": {"tensor": {"dtype": "DT_FLOAT", "tensorShape": {"dim": [{"size": "3"}, {"size": "3"}, {"size": "256"}, {"size": "256"}]}}}, "dtype": {"type": "DT_FLOAT"}}}, {"name": "StatefulPartitionedCall/Generator_1/conv2d_69_1/Squeeze", "op": "Const", "attr": {"value": {"tensor": {"dtype": "DT_FLOAT", "tensorShape": {"dim": [{"size": "256"}]}}}, "dtype": {"type": "DT_FLOAT"}}}, {"name": "StatefulPartitionedCall/Generator_1/switchable_normalization_38_1/group_normalization_38_3/strided_slice_1/stack", "op": "Const", "attr": {"value": {"tensor": {"dtype": "DT_INT32", "tensorShape": {"dim": [{"size": "1"}]}}}, "dtype": {"type": "DT_INT32"}}}, {"name": "StatefulPartitionedCall/Generator_1/switchable_normalization_38_1/group_normalization_38_3/strided_slice_1/stack_1", "op": "Const", "attr": {"value": {"tensor": {"dtype": "DT_INT32", "tensorShape": {"dim": [{"size": "1"}]}}}, "dtype": {"type": "DT_INT32"}}}, {"name": "StatefulPartitionedCall/Generator_1/switchable_normalization_38_1/group_normalization_38_3/strided_slice_1/stack_2", "op": "Const", "attr": {"value": {"tensor": {"dtype": "DT_INT32", "tensorShape": {"dim": [{"size": "1"}]}}}, "dtype": {"type": "DT_INT32"}}}, {"name": "StatefulPartitionedCall/Generator_1/switchable_normalization_38_1/group_normalization_38_3/Reshape_3/shape/1", "op": "Const", "attr": {"value": {"tensor": {"dtype": "DT_INT32", "tensorShape": {}}}, "dtype": {"type": "DT_INT32"}}}, {"name": "StatefulPartitionedCall/Generator_1/switchable_normalization_38_1/group_normalization_38_3/Reshape_3/shape/2", "op": "Const", "attr": {"value": {"tensor": {"dtype": "DT_INT32", "tensorShape": {}}}, "dtype": {"type": "DT_INT32"}}}, {"name": "StatefulPartitionedCall/Generator_1/switchable_normalization_38_1/group_normalization_38_3/Reshape_3/shape/3", "op": "Const", "attr": {"value": {"tensor": {"dtype": "DT_INT32", "tensorShape": {}}}, "dtype": {"type": "DT_INT32"}}}, {"name": "StatefulPartitionedCall/Generator_1/conv2d_70_1/convolution/ReadVariableOp", "op": "Const", "attr": {"value": {"tensor": {"dtype": "DT_FLOAT", "tensorShape": {"dim": [{"size": "3"}, {"size": "3"}, {"size": "256"}, {"size": "256"}]}}}, "dtype": {"type": "DT_FLOAT"}}}, {"name": "StatefulPartitionedCall/Generator_1/conv2d_70_1/Squeeze", "op": "Const", "attr": {"value": {"tensor": {"dtype": "DT_FLOAT", "tensorShape": {"dim": [{"size": "256"}]}}}, "dtype": {"type": "DT_FLOAT"}}}, {"name": "StatefulPartitionedCall/Generator_1/global_average_pooling2d_18_1/Mean/reduction_indices", "op": "Const", "attr": {"value": {"tensor": {"dtype": "DT_INT32", "tensorShape": {"dim": [{"size": "2"}]}}}, "dtype": {"type": "DT_INT32"}}}, {"name": "StatefulPartitionedCall/Generator_1/reshape_18_1/strided_slice/stack", "op": "Const", "attr": {"value": {"tensor": {"dtype": "DT_INT32", "tensorShape": {"dim": [{"size": "1"}]}}}, "dtype": {"type": "DT_INT32"}}}, {"name": "StatefulPartitionedCall/Generator_1/reshape_18_1/strided_slice/stack_1", "op": "Const", "attr": {"value": {"tensor": {"dtype": "DT_INT32", "tensorShape": {"dim": [{"size": "1"}]}}}, "dtype": {"type": "DT_INT32"}}}, {"name": "StatefulPartitionedCall/Generator_1/reshape_18_1/strided_slice/stack_2", "op": "Const", "attr": {"value": {"tensor": {"dtype": "DT_INT32", "tensorShape": {"dim": [{"size": "1"}]}}}, "dtype": {"type": "DT_INT32"}}}, {"name": "StatefulPartitionedCall/Generator_1/reshape_18_1/Reshape/shape/1", "op": "Const", "attr": {"value": {"tensor": {"dtype": "DT_INT32", "tensorShape": {}}}, "dtype": {"type": "DT_INT32"}}}, {"name": "StatefulPartitionedCall/Generator_1/reshape_18_1/Reshape/shape/2", "op": "Const", "attr": {"value": {"tensor": {"dtype": "DT_INT32", "tensorShape": {}}}, "dtype": {"type": "DT_INT32"}}}, {"name": "StatefulPartitionedCall/Generator_1/reshape_18_1/Reshape/shape/3", "op": "Const", "attr": {"value": {"tensor": {"dtype": "DT_INT32", "tensorShape": {}}}, "dtype": {"type": "DT_INT32"}}}, {"name": "StatefulPartitionedCall/Generator_1/dense_36_1/Cast/ReadVariableOp", "op": "Const", "attr": {"value": {"tensor": {"dtype": "DT_FLOAT", "tensorShape": {"dim": [{"size": "256"}, {"size": "16"}]}}}, "dtype": {"type": "DT_FLOAT"}}}, {"name": "StatefulPartitionedCall/Generator_1/dense_36_1/BiasAdd/ReadVariableOp", "op": "Const", "attr": {"value": {"tensor": {"dtype": "DT_FLOAT", "tensorShape": {"dim": [{"size": "16"}]}}}, "dtype": {"type": "DT_FLOAT"}}}, {"name": "StatefulPartitionedCall/Generator_1/dense_37_1/Cast/ReadVariableOp", "op": "Const", "attr": {"value": {"tensor": {"dtype": "DT_FLOAT", "tensorShape": {"dim": [{"size": "16"}, {"size": "256"}]}}}, "dtype": {"type": "DT_FLOAT"}}}, {"name": "StatefulPartitionedCall/Generator_1/dense_37_1/BiasAdd/ReadVariableOp", "op": "Const", "attr": {"value": {"tensor": {"dtype": "DT_FLOAT", "tensorShape": {"dim": [{"size": "256"}]}}}, "dtype": {"type": "DT_FLOAT"}}}, {"name": "StatefulPartitionedCall/Generator_1/conv2d_62_1/convolution/ReadVariableOp", "op": "Const", "attr": {"value": {"tensor": {"dtype": "DT_FLOAT", "tensorShape": {"dim": [{"size": "1"}, {"size": "1"}, {"size": "3"}, {"size": "64"}]}}}, "dtype": {"type": "DT_FLOAT"}}}, {"name": "StatefulPartitionedCall/Generator_1/conv2d_62_1/Squeeze", "op": "Const", "attr": {"value": {"tensor": {"dtype": "DT_FLOAT", "tensorShape": {"dim": [{"size": "64"}]}}}, "dtype": {"type": "DT_FLOAT"}}}, {"name": "StatefulPartitionedCall/Generator_1/conv2d_63_1/convolution/ReadVariableOp", "op": "Const", "attr": {"value": {"tensor": {"dtype": "DT_FLOAT", "tensorShape": {"dim": [{"size": "3"}, {"size": "3"}, {"size": "3"}, {"size": "64"}]}}}, "dtype": {"type": "DT_FLOAT"}}}, {"name": "StatefulPartitionedCall/Generator_1/conv2d_63_1/Squeeze", "op": "Const", "attr": {"value": {"tensor": {"dtype": "DT_FLOAT", "tensorShape": {"dim": [{"size": "64"}]}}}, "dtype": {"type": "DT_FLOAT"}}}, {"name": "StatefulPartitionedCall/Generator_1/conv2d_64_1/convolution/ReadVariableOp", "op": "Const", "attr": {"value": {"tensor": {"dtype": "DT_FLOAT", "tensorShape": {"dim": [{"size": "5"}, {"size": "5"}, {"size": "3"}, {"size": "64"}]}}}, "dtype": {"type": "DT_FLOAT"}}}, {"name": "StatefulPartitionedCall/Generator_1/conv2d_64_1/Squeeze", "op": "Const", "attr": {"value": {"tensor": {"dtype": "DT_FLOAT", "tensorShape": {"dim": [{"size": "64"}]}}}, "dtype": {"type": "DT_FLOAT"}}}, {"name": "StatefulPartitionedCall/Generator_1/conv2d_65_1/convolution/ReadVariableOp", "op": "Const", "attr": {"value": {"tensor": {"dtype": "DT_FLOAT", "tensorShape": {"dim": [{"size": "7"}, {"size": "7"}, {"size": "3"}, {"size": "64"}]}}}, "dtype": {"type": "DT_FLOAT"}}}, {"name": "StatefulPartitionedCall/Generator_1/conv2d_65_1/Squeeze", "op": "Const", "attr": {"value": {"tensor": {"dtype": "DT_FLOAT", "tensorShape": {"dim": [{"size": "64"}]}}}, "dtype": {"type": "DT_FLOAT"}}}, {"name": "StatefulPartitionedCall/Generator_1/concatenate_3_1/concat/axis", "op": "Const", "attr": {"value": {"tensor": {"dtype": "DT_INT32", "tensorShape": {}}}, "dtype": {"type": "DT_INT32"}}}, {"name": "StatefulPartitionedCall/Generator_1/conv2d_66_1/convolution/ReadVariableOp", "op": "Const", "attr": {"value": {"tensor": {"dtype": "DT_FLOAT", "tensorShape": {"dim": [{"size": "1"}, {"size": "1"}, {"size": "256"}, {"size": "64"}]}}}, "dtype": {"type": "DT_FLOAT"}}}, {"name": "StatefulPartitionedCall/Generator_1/conv2d_66_1/Squeeze", "op": "Const", "attr": {"value": {"tensor": {"dtype": "DT_FLOAT", "tensorShape": {"dim": [{"size": "64"}]}}}, "dtype": {"type": "DT_FLOAT"}}}, {"name": "StatefulPartitionedCall/Generator_1/conv2d_67_1/convolution/ReadVariableOp", "op": "Const", "attr": {"value": {"tensor": {"dtype": "DT_FLOAT", "tensorShape": {"dim": [{"size": "3"}, {"size": "3"}, {"size": "64"}, {"size": "128"}]}}}, "dtype": {"type": "DT_FLOAT"}}}, {"name": "StatefulPartitionedCall/Generator_1/conv2d_67_1/Squeeze", "op": "Const", "attr": {"value": {"tensor": {"dtype": "DT_FLOAT", "tensorShape": {"dim": [{"size": "128"}]}}}, "dtype": {"type": "DT_FLOAT"}}}, {"name": "StatefulPartitionedCall/Generator_1/conv2d_68_1/convolution/ReadVariableOp", "op": "Const", "attr": {"value": {"tensor": {"dtype": "DT_FLOAT", "tensorShape": {"dim": [{"size": "3"}, {"size": "3"}, {"size": "128"}, {"size": "256"}]}}}, "dtype": {"type": "DT_FLOAT"}}}, {"name": "StatefulPartitionedCall/Generator_1/conv2d_68_1/Squeeze", "op": "Const", "attr": {"value": {"tensor": {"dtype": "DT_FLOAT", "tensorShape": {"dim": [{"size": "256"}]}}}, "dtype": {"type": "DT_FLOAT"}}}, {"name": "StatefulPartitionedCall/Generator_1/conv2d_transpose_4_1/Squeeze", "op": "Const", "attr": {"value": {"tensor": {"dtype": "DT_FLOAT", "tensorShape": {"dim": [{"size": "128"}]}}}, "dtype": {"type": "DT_FLOAT"}}}, {"name": "StatefulPartitionedCall/Generator_1/conv2d_transpose_5_1/Squeeze", "op": "Const", "attr": {"value": {"tensor": {"dtype": "DT_FLOAT", "tensorShape": {"dim": [{"size": "64"}]}}}, "dtype": {"type": "DT_FLOAT"}}}, {"name": "StatefulPartitionedCall/Generator_1/conv2d_87_1/convolution/ReadVariableOp", "op": "Const", "attr": {"value": {"tensor": {"dtype": "DT_FLOAT", "tensorShape": {"dim": [{"size": "7"}, {"size": "7"}, {"size": "64"}, {"size": "3"}]}}}, "dtype": {"type": "DT_FLOAT"}}}, {"name": "StatefulPartitionedCall/Generator_1/conv2d_87_1/Squeeze", "op": "Const", "attr": {"value": {"tensor": {"dtype": "DT_FLOAT", "tensorShape": {"dim": [{"size": "3"}]}}}, "dtype": {"type": "DT_FLOAT"}}}, {"name": "keras_tensor_312", "op": "Placeholder", "attr": {"shape": {"shape": {"dim": [{"size": "-1"}, {"size": "256"}, {"size": "256"}, {"size": "3"}]}}, "dtype": {"type": "DT_FLOAT"}}}, {"name": "StatefulPartitionedCall/Generator_1/conv2d_62_1/Relu", "op": "_FusedConv2D", "input": ["keras_tensor_312", "StatefulPartitionedCall/Generator_1/conv2d_62_1/convolution/ReadVariableOp", "StatefulPartitionedCall/Generator_1/conv2d_62_1/Squeeze"], "device": "/device:CPU:0", "attr": {"num_host_args": {"i": "0"}, "data_format": {"s": "TkhXQw=="}, "filter_format": {"s": "SFdJTw=="}, "fused_ops": {"list": {"s": ["Qmlhc0FkZA==", "UmVsdQ=="]}}, "num_args": {"i": "1"}, "strides": {"list": {"i": ["1", "1", "1", "1"]}}, "TArgs": {"list": {"type": ["DT_FLOAT"]}}, "padding": {"s": "U0FNRQ=="}, "use_cudnn_on_gpu": {"b": true}, "leakyrelu_alpha": {"f": 0.2}, "epsilon": {"f": 0.0}, "T": {"type": "DT_FLOAT"}, "explicit_paddings": {"list": {}}, "dilations": {"list": {"i": ["1", "1", "1", "1"]}}}}, {"name": "StatefulPartitionedCall/Generator_1/conv2d_63_1/Relu", "op": "_FusedConv2D", "input": ["keras_tensor_312", "StatefulPartitionedCall/Generator_1/conv2d_63_1/convolution/ReadVariableOp", "StatefulPartitionedCall/Generator_1/conv2d_63_1/Squeeze"], "device": "/device:CPU:0", "attr": {"num_host_args": {"i": "0"}, "data_format": {"s": "TkhXQw=="}, "filter_format": {"s": "SFdJTw=="}, "fused_ops": {"list": {"s": ["Qmlhc0FkZA==", "UmVsdQ=="]}}, "num_args": {"i": "1"}, "strides": {"list": {"i": ["1", "1", "1", "1"]}}, "TArgs": {"list": {"type": ["DT_FLOAT"]}}, "padding": {"s": "U0FNRQ=="}, "use_cudnn_on_gpu": {"b": true}, "leakyrelu_alpha": {"f": 0.2}, "epsilon": {"f": 0.0}, "T": {"type": "DT_FLOAT"}, "explicit_paddings": {"list": {}}, "dilations": {"list": {"i": ["1", "1", "1", "1"]}}}}, {"name": "StatefulPartitionedCall/Generator_1/conv2d_64_1/Relu", "op": "_FusedConv2D", "input": ["keras_tensor_312", "StatefulPartitionedCall/Generator_1/conv2d_64_1/convolution/ReadVariableOp", "StatefulPartitionedCall/Generator_1/conv2d_64_1/Squeeze"], "device": "/device:CPU:0", "attr": {"num_host_args": {"i": "0"}, "data_format": {"s": "TkhXQw=="}, "filter_format": {"s": "SFdJTw=="}, "fused_ops": {"list": {"s": ["Qmlhc0FkZA==", "UmVsdQ=="]}}, "num_args": {"i": "1"}, "strides": {"list": {"i": ["1", "1", "1", "1"]}}, "TArgs": {"list": {"type": ["DT_FLOAT"]}}, "padding": {"s": "U0FNRQ=="}, "use_cudnn_on_gpu": {"b": true}, "leakyrelu_alpha": {"f": 0.2}, "epsilon": {"f": 0.0}, "T": {"type": "DT_FLOAT"}, "explicit_paddings": {"list": {}}, "dilations": {"list": {"i": ["1", "1", "1", "1"]}}}}, {"name": "StatefulPartitionedCall/Generator_1/conv2d_65_1/Relu", "op": "_FusedConv2D", "input": ["keras_tensor_312", "StatefulPartitionedCall/Generator_1/conv2d_65_1/convolution/ReadVariableOp", "StatefulPartitionedCall/Generator_1/conv2d_65_1/Squeeze"], "device": "/device:CPU:0", "attr": {"num_host_args": {"i": "0"}, "data_format": {"s": "TkhXQw=="}, "filter_format": {"s": "SFdJTw=="}, "fused_ops": {"list": {"s": ["Qmlhc0FkZA==", "UmVsdQ=="]}}, "num_args": {"i": "1"}, "strides": {"list": {"i": ["1", "1", "1", "1"]}}, "TArgs": {"list": {"type": ["DT_FLOAT"]}}, "padding": {"s": "U0FNRQ=="}, "use_cudnn_on_gpu": {"b": true}, "leakyrelu_alpha": {"f": 0.2}, "epsilon": {"f": 0.0}, "T": {"type": "DT_FLOAT"}, "explicit_paddings": {"list": {}}, "dilations": {"list": {"i": ["1", "1", "1", "1"]}}}}, {"name": "StatefulPartitionedCall/Generator_1/concatenate_3_1/concat", "op": "ConcatV2", "input": ["StatefulPartitionedCall/Generator_1/conv2d_62_1/Relu", "StatefulPartitionedCall/Generator_1/conv2d_63_1/Relu", "StatefulPartitionedCall/Generator_1/conv2d_64_1/Relu", "StatefulPartitionedCall/Generator_1/conv2d_65_1/Relu", "StatefulPartitionedCall/Generator_1/concatenate_3_1/concat/axis"], "attr": {"N": {"i": "4"}, "T": {"type": "DT_FLOAT"}, "Tidx": {"type": "DT_INT32"}}}, {"name": "StatefulPartitionedCall/Generator_1/conv2d_66_1/Relu", "op": "_FusedConv2D", "input": ["StatefulPartitionedCall/Generator_1/concatenate_3_1/concat", "StatefulPartitionedCall/Generator_1/conv2d_66_1/convolution/ReadVariableOp", "StatefulPartitionedCall/Generator_1/conv2d_66_1/Squeeze"], "device": "/device:CPU:0", "attr": {"num_host_args": {"i": "0"}, "data_format": {"s": "TkhXQw=="}, "filter_format": {"s": "SFdJTw=="}, "strides": {"list": {"i": ["1", "1", "1", "1"]}}, "num_args": {"i": "1"}, "fused_ops": {"list": {"s": ["Qmlhc0FkZA==", "UmVsdQ=="]}}, "TArgs": {"list": {"type": ["DT_FLOAT"]}}, "padding": {"s": "U0FNRQ=="}, "use_cudnn_on_gpu": {"b": true}, "leakyrelu_alpha": {"f": 0.2}, "epsilon": {"f": 0.0}, "T": {"type": "DT_FLOAT"}, "explicit_paddings": {"list": {}}, "dilations": {"list": {"i": ["1", "1", "1", "1"]}}}}, {"name": "StatefulPartitionedCall/Generator_1/conv2d_67_1/BiasAdd", "op": "_FusedConv2D", "input": ["StatefulPartitionedCall/Generator_1/conv2d_66_1/Relu", "StatefulPartitionedCall/Generator_1/conv2d_67_1/convolution/ReadVariableOp", "StatefulPartitionedCall/Generator_1/conv2d_67_1/Squeeze"], "device": "/device:CPU:0", "attr": {"num_host_args": {"i": "0"}, "data_format": {"s": "TkhXQw=="}, "filter_format": {"s": "SFdJTw=="}, "strides": {"list": {"i": ["1", "2", "2", "1"]}}, "num_args": {"i": "1"}, "fused_ops": {"list": {"s": ["Qmlhc0FkZA=="]}}, "TArgs": {"list": {"type": ["DT_FLOAT"]}}, "padding": {"s": "U0FNRQ=="}, "use_cudnn_on_gpu": {"b": true}, "leakyrelu_alpha": {"f": 0.2}, "epsilon": {"f": 0.0}, "T": {"type": "DT_FLOAT"}, "explicit_paddings": {"list": {}}, "dilations": {"list": {"i": ["1", "1", "1", "1"]}}}}, {"name": "StatefulPartitionedCall/Generator_1/conv2d_68_1/BiasAdd", "op": "_FusedConv2D", "input": ["StatefulPartitionedCall/Generator_1/conv2d_67_1/BiasAdd", "StatefulPartitionedCall/Generator_1/conv2d_68_1/convolution/ReadVariableOp", "StatefulPartitionedCall/Generator_1/conv2d_68_1/Squeeze"], "device": "/device:CPU:0", "attr": {"num_host_args": {"i": "0"}, "data_format": {"s": "TkhXQw=="}, "filter_format": {"s": "SFdJTw=="}, "strides": {"list": {"i": ["1", "2", "2", "1"]}}, "num_args": {"i": "1"}, "fused_ops": {"list": {"s": ["Qmlhc0FkZA=="]}}, "TArgs": {"list": {"type": ["DT_FLOAT"]}}, "padding": {"s": "U0FNRQ=="}, "use_cudnn_on_gpu": {"b": true}, "leakyrelu_alpha": {"f": 0.2}, "epsilon": {"f": 0.0}, "T": {"type": "DT_FLOAT"}, "explicit_paddings": {"list": {}}, "dilations": {"list": {"i": ["1", "1", "1", "1"]}}}}, {"name": "StatefulPartitionedCall/Generator_1/switchable_normalization_37_1/batch_normalization_40_3/batchnorm/mul_1", "op": "Mul", "input": ["StatefulPartitionedCall/Generator_1/conv2d_68_1/BiasAdd", "StatefulPartitionedCall/Generator_1/switchable_normalization_37_1/batch_normalization_40_3/batchnorm/mul"], "attr": {"T": {"type": "DT_FLOAT"}}}, {"name": "StatefulPartitionedCall/Generator_1/switchable_normalization_37_1/layer_normalization_37_3/moments/mean", "op": "Mean", "input": ["StatefulPartitionedCall/Generator_1/conv2d_68_1/BiasAdd", "StatefulPartitionedCall/Generator_1/switchable_normalization_37_1/layer_normalization_37_3/moments/mean/reduction_indices"], "attr": {"T": {"type": "DT_FLOAT"}, "Tidx": {"type": "DT_INT32"}, "keep_dims": {"b": true}}}, {"name": "StatefulPartitionedCall/Generator_1/switchable_normalization_37_1/group_normalization_37_3/Reshape", "op": "Reshape", "input": ["StatefulPartitionedCall/Generator_1/conv2d_68_1/BiasAdd", "StatefulPartitionedCall/Generator_1/switchab…
enerator_1/switchable_normalization_47_1/layer_normalization_47_3/moments/variance/reduction_indices", "shape": [1], "dtype": "int32"}, {"name": "StatefulPartitionedCall/Generator_1/switchable_normalization_47_1/layer_normalization_47_3/add/y", "shape": [], "dtype": "float32"}, {"name": "StatefulPartitionedCall/Generator_1/switchable_normalization_47_1/layer_normalization_47_3/Reshape", "shape": [1, 1, 1, 256], "dtype": "float32"}, {"name": "StatefulPartitionedCall/Generator_1/switchable_normalization_47_1/strided_slice_2", "shape": [], "dtype": "float32"}, {"name": "StatefulPartitionedCall/Generator_1/switchable_normalization_47_1/group_normalization_47_3/Reshape_2", "shape": [1, 1, 1, 256, 1], "dtype": "float32"}, {"name": "StatefulPartitionedCall/Generator_1/switchable_normalization_47_1/group_normalization_47_3/Reshape/shape", "shape": [5], "dtype": "int32"}, {"name": "StatefulPartitionedCall/Generator_1/switchable_normalization_47_1/group_normalization_47_3/moments/mean/reduction_indices", "shape": [3], "dtype": "int32"}, {"name": "StatefulPartitionedCall/Generator_1/switchable_normalization_47_1/group_normalization_47_3/moments/variance/reduction_indices", "shape": [3], "dtype": "int32"}, {"name": "StatefulPartitionedCall/Generator_1/switchable_normalization_47_1/group_normalization_47_3/add/y", "shape": [], "dtype": "float32"}, {"name": "StatefulPartitionedCall/Generator_1/switchable_normalization_47_1/group_normalization_47_3/Reshape_1", "shape": [1, 1, 1, 256, 1], "dtype": "float32"}, {"name": "StatefulPartitionedCall/Generator_1/switchable_normalization_47_1/group_normalization_47_3/strided_slice_1/stack", "shape": [1], "dtype": "int32"}, {"name": "StatefulPartitionedCall/Generator_1/switchable_normalization_47_1/group_normalization_47_3/strided_slice_1/stack_1", "shape": [1], "dtype": "int32"}, {"name": "StatefulPartitionedCall/Generator_1/switchable_normalization_47_1/group_normalization_47_3/strided_slice_1/stack_2", "shape": [1], "dtype": "int32"}, {"name": "StatefulPartitionedCall/Generator_1/switchable_normalization_47_1/group_normalization_47_3/Reshape_3/shape/1", "shape": [], "dtype": "int32"}, {"name": "StatefulPartitionedCall/Generator_1/switchable_normalization_47_1/group_normalization_47_3/Reshape_3/shape/2", "shape": [], "dtype": "int32"}, {"name": "StatefulPartitionedCall/Generator_1/switchable_normalization_47_1/group_normalization_47_3/Reshape_3/shape/3", "shape": [], "dtype": "int32"}, {"name": "StatefulPartitionedCall/Generator_1/conv2d_79_1/convolution/ReadVariableOp", "shape": [3, 3, 256, 256], "dtype": "float32"}, {"name": "StatefulPartitionedCall/Generator_1/conv2d_79_1/Squeeze", "shape": [256], "dtype": "float32"}, {"name": "StatefulPartitionedCall/Generator_1/switchable_normalization_48_1/group_normalization_48_3/strided_slice_1/stack", "shape": [1], "dtype": "int32"}, {"name": "StatefulPartitionedCall/Generator_1/switchable_normalization_48_1/group_normalization_48_3/strided_slice_1/stack_1", "shape": [1], "dtype": "int32"}, {"name": "StatefulPartitionedCall/Generator_1/switchable_normalization_48_1/group_normalization_48_3/strided_slice_1/stack_2", "shape": [1], "dtype": "int32"}, {"name": "StatefulPartitionedCall/Generator_1/switchable_normalization_48_1/group_normalization_48_3/Reshape_3/shape/1", "shape": [], "dtype": "int32"}, {"name": "StatefulPartitionedCall/Generator_1/switchable_normalization_48_1/group_normalization_48_3/Reshape_3/shape/2", "shape": [], "dtype": "int32"}, {"name": "StatefulPartitionedCall/Generator_1/switchable_normalization_48_1/group_normalization_48_3/Reshape_3/shape/3", "shape": [], "dtype": "int32"}, {"name": "StatefulPartitionedCall/Generator_1/conv2d_80_1/convolution/ReadVariableOp", "shape": [3, 3, 256, 256], "dtype": "float32"}, {"name": "StatefulPartitionedCall/Generator_1/conv2d_80_1/Squeeze", "shape": [256], "dtype": "float32"}, {"name": "StatefulPartitionedCall/Generator_1/global_average_pooling2d_23_1/Mean/reduction_indices", "shape": [2], "dtype": "int32"}, {"name": "StatefulPartitionedCall/Generator_1/reshape_23_1/strided_slice/stack", "shape": [1], "dtype": "int32"}, {"name": "StatefulPartitionedCall/Generator_1/reshape_23_1/strided_slice/stack_1", "shape": [1], "dtype": "int32"}, {"name": "StatefulPartitionedCall/Generator_1/reshape_23_1/strided_slice/stack_2", "shape": [1], "dtype": "int32"}, {"name": "StatefulPartitionedCall/Generator_1/reshape_23_1/Reshape/shape/1", "shape": [], "dtype": "int32"}, {"name": "StatefulPartitionedCall/Generator_1/reshape_23_1/Reshape/shape/2", "shape": [], "dtype": "int32"}, {"name": "StatefulPartitionedCall/Generator_1/reshape_23_1/Reshape/shape/3", "shape": [], "dtype": "int32"}, {"name": "StatefulPartitionedCall/Generator_1/dense_46_1/Cast/ReadVariableOp", "shape": [256, 16], "dtype": "float32"}, {"name": "StatefulPartitionedCall/Generator_1/dense_46_1/BiasAdd/ReadVariableOp", "shape": [16], "dtype": "float32"}, {"name": "StatefulPartitionedCall/Generator_1/dense_47_1/Cast/ReadVariableOp", "shape": [16, 256], "dtype": "float32"}, {"name": "StatefulPartitionedCall/Generator_1/dense_47_1/BiasAdd/ReadVariableOp", "shape": [256], "dtype": "float32"}, {"name": "StatefulPartitionedCall/Generator_1/switchable_normalization_46_1/strided_slice", "shape": [], "dtype": "float32"}, {"name": "StatefulPartitionedCall/Generator_1/switchable_normalization_46_1/batch_normalization_49_3/batchnorm/mul", "shape": [256], "dtype": "float32"}, {"name": "StatefulPartitionedCall/Generator_1/switchable_normalization_46_1/batch_normalization_49_3/batchnorm/sub", "shape": [256], "dtype": "float32"}, {"name": "StatefulPartitionedCall/Generator_1/switchable_normalization_46_1/strided_slice_1", "shape": [], "dtype": "float32"}, {"name": "StatefulPartitionedCall/Generator_1/switchable_normalization_46_1/layer_normalization_46_3/Reshape_1", "shape": [1, 1, 1, 256], "dtype": "float32"}, {"name": "StatefulPartitionedCall/Generator_1/switchable_normalization_46_1/layer_normalization_46_3/moments/mean/reduction_indices", "shape": [1], "dtype": "int32"}, {"name": "StatefulPartitionedCall/Generator_1/switchable_normalization_46_1/layer_normalization_46_3/moments/variance/reduction_indices", "shape": [1], "dtype": "int32"}, {"name": "StatefulPartitionedCall/Generator_1/switchable_normalization_46_1/layer_normalization_46_3/add/y", "shape": [], "dtype": "float32"}, {"name": "StatefulPartitionedCall/Generator_1/switchable_normalization_46_1/layer_normalization_46_3/Reshape", "shape": [1, 1, 1, 256], "dtype": "float32"}, {"name": "StatefulPartitionedCall/Generator_1/switchable_normalization_46_1/strided_slice_2", "shape": [], "dtype": "float32"}, {"name": "StatefulPartitionedCall/Generator_1/switchable_normalization_46_1/group_normalization_46_3/Reshape_2", "shape": [1, 1, 1, 256, 1], "dtype": "float32"}, {"name": "StatefulPartitionedCall/Generator_1/switchable_normalization_46_1/group_normalization_46_3/Reshape/shape", "shape": [5], "dtype": "int32"}, {"name": "StatefulPartitionedCall/Generator_1/switchable_normalization_46_1/group_normalization_46_3/moments/mean/reduction_indices", "shape": [3], "dtype": "int32"}, {"name": "StatefulPartitionedCall/Generator_1/switchable_normalization_46_1/group_normalization_46_3/moments/variance/reduction_indices", "shape": [3], "dtype": "int32"}, {"name": "StatefulPartitionedCall/Generator_1/switchable_normalization_46_1/group_normalization_46_3/add/y", "shape": [], "dtype": "float32"}, {"name": "StatefulPartitionedCall/Generator_1/switchable_normalization_46_1/group_normalization_46_3/Reshape_1", "shape": [1, 1, 1, 256, 1], "dtype": "float32"}, {"name": "StatefulPartitionedCall/Generator_1/switchable_normalization_45_1/strided_slice", "shape": [], "dtype": "float32"}, {"name": "StatefulPartitionedCall/Generator_1/switchable_normalization_45_1/batch_normalization_48_3/batchnorm/mul", "shape": [256], "dtype": "float32"}, {"name": "StatefulPartitionedCall/Generator_1/switchable_normalization_45_1/batch_normalization_48_3/batchnorm/sub", "shape": [256], "dtype": "float32"}, {"name": "StatefulPartitionedCall/Generator_1/switchable_normalization_45_1/strided_slice_1", "shape": [], "dtype": "float32"}, {"name": "StatefulPartitionedCall/Generator_1/switchable_normalization_45_1/layer_normalization_45_3/Reshape_1", "shape": [1, 1, 1, 256], "dtype": "float32"}, {"name": "StatefulPartitionedCall/Generator_1/switchable_normalization_45_1/layer_normalization_45_3/moments/mean/reduction_indices", "shape": [1], "dtype": "int32"}, {"name": "StatefulPartitionedCall/Generator_1/switchable_normalization_45_1/layer_normalization_45_3/moments/variance/reduction_indices", "shape": [1], "dtype": "int32"}, {"name": "StatefulPartitionedCall/Generator_1/switchable_normalization_45_1/layer_normalization_45_3/add/y", "shape": [], "dtype": "float32"}, {"name": "StatefulPartitionedCall/Generator_1/switchable_normalization_45_1/layer_normalization_45_3/Reshape", "shape": [1, 1, 1, 256], "dtype": "float32"}, {"name": "StatefulPartitionedCall/Generator_1/switchable_normalization_45_1/strided_slice_2", "shape": [], "dtype": "float32"}, {"name": "StatefulPartitionedCall/Generator_1/switchable_normalization_45_1/group_normalization_45_3/Reshape_2", "shape": [1, 1, 1, 256, 1], "dtype": "float32"}, {"name": "StatefulPartitionedCall/Generator_1/switchable_normalization_45_1/group_normalization_45_3/Reshape/shape", "shape": [5], "dtype": "int32"}, {"name": "StatefulPartitionedCall/Generator_1/switchable_normalization_45_1/group_normalization_45_3/moments/mean/reduction_indices", "shape": [3], "dtype": "int32"}, {"name": "StatefulPartitionedCall/Generator_1/switchable_normalization_45_1/group_normalization_45_3/moments/variance/reduction_indices", "shape": [3], "dtype": "int32"}, {"name": "StatefulPartitionedCall/Generator_1/switchable_normalization_45_1/group_normalization_45_3/add/y", "shape": [], "dtype": "float32"}, {"name": "StatefulPartitionedCall/Generator_1/switchable_normalization_45_1/group_normalization_45_3/Reshape_1", "shape": [1, 1, 1, 256, 1], "dtype": "float32"}, {"name": "StatefulPartitionedCall/Generator_1/switchable_normalization_45_1/group_normalization_45_3/strided_slice_1/stack", "shape": [1], "dtype": "int32"}, {"name": "StatefulPartitionedCall/Generator_1/switchable_normalization_45_1/group_normalization_45_3/strided_slice_1/stack_1", "shape": [1], "dtype": "int32"}, {"name": "StatefulPartitionedCall/Generator_1/switchable_normalization_45_1/group_normalization_45_3/strided_slice_1/stack_2", "shape": [1], "dtype": "int32"}, {"name": "StatefulPartitionedCall/Generator_1/switchable_normalization_45_1/group_normalization_45_3/Reshape_3/shape/1", "shape": [], "dtype": "int32"}, {"name": "StatefulPartitionedCall/Generator_1/switchable_normalization_45_1/group_normalization_45_3/Reshape_3/shape/2", "shape": [], "dtype": "int32"}, {"name": "StatefulPartitionedCall/Generator_1/switchable_normalization_45_1/group_normalization_45_3/Reshape_3/shape/3", "shape": [], "dtype": "int32"}, {"name": "StatefulPartitionedCall/Generator_1/conv2d_77_1/convolution/ReadVariableOp", "shape": [3, 3, 256, 256], "dtype": "float32"}, {"name": "StatefulPartitionedCall/Generator_1/conv2d_77_1/Squeeze", "shape": [256], "dtype": "float32"}, {"name": "StatefulPartitionedCall/Generator_1/switchable_normalization_46_1/group_normalization_46_3/strided_slice_1/stack", "shape": [1], "dtype": "int32"}, {"name": "StatefulPartitionedCall/Generator_1/switchable_normalization_46_1/group_normalization_46_3/strided_slice_1/stack_1", "shape": [1], "dtype": "int32"}, {"name": "StatefulPartitionedCall/Generator_1/switchable_normalization_46_1/group_normalization_46_3/strided_slice_1/stack_2", "shape": [1], "dtype": "int32"}, {"name": "StatefulPartitionedCall/Generator_1/switchable_normalization_46_1/group_normalization_46_3/Reshape_3/shape/1", "shape": [], "dtype": "int32"}, {"name": "StatefulPartitionedCall/Generator_1/switchable_normalization_46_1/group_normalization_46_3/Reshape_3/shape/2", "shape": [], "dtype": "int32"}, {"name": "StatefulPartitionedCall/Generator_1/switchable_normalization_46_1/group_normalization_46_3/Reshape_3/shape/3", "shape": [], "dtype": "int32"}, {"name": "StatefulPartitionedCall/Generator_1/conv2d_78_1/convolution/ReadVariableOp", "shape": [3, 3, 256, 256], "dtype": "float32"}, {"name": "StatefulPartitionedCall/Generator_1/conv2d_78_1/Squeeze", "shape": [256], "dtype": "float32"}, {"name": "StatefulPartitionedCall/Generator_1/global_average_pooling2d_22_1/Mean/reduction_indices", "shape": [2], "dtype": "int32"}, {"name": "StatefulPartitionedCall/Generator_1/reshape_22_1/strided_slice/stack", "shape": [1], "dtype": "int32"}, {"name": "StatefulPartitionedCall/Generator_1/reshape_22_1/strided_slice/stack_1", "shape": [1], "dtype": "int32"}, {"name": "StatefulPartitionedCall/Generator_1/reshape_22_1/strided_slice/stack_2", "shape": [1], "dtype": "int32"}, {"name": "StatefulPartitionedCall/Generator_1/reshape_22_1/Reshape/shape/1", "shape": [], "dtype": "int32"}, {"name": "StatefulPartitionedCall/Generator_1/reshape_22_1/Reshape/shape/2", "shape": [], "dtype": "int32"}, {"name": "StatefulPartitionedCall/Generator_1/reshape_22_1/Reshape/shape/3", "shape": [], "dtype": "int32"}, {"name": "StatefulPartitionedCall/Generator_1/dense_44_1/Cast/ReadVariableOp", "shape": [256, 16], "dtype": "float32"}, {"name": "StatefulPartitionedCall/Generator_1/dense_44_1/BiasAdd/ReadVariableOp", "shape": [16], "dtype": "float32"}, {"name": "StatefulPartitionedCall/Generator_1/dense_45_1/Cast/ReadVariableOp", "shape": [16, 256], "dtype": "float32"}, {"name": "StatefulPartitionedCall/Generator_1/dense_45_1/BiasAdd/ReadVariableOp", "shape": [256], "dtype": "float32"}, {"name": "StatefulPartitionedCall/Generator_1/switchable_normalization_44_1/strided_slice", "shape": [], "dtype": "float32"}, {"name": "StatefulPartitionedCall/Generator_1/switchable_normalization_44_1/batch_normalization_47_3/batchnorm/mul", "shape": [256], "dtype": "float32"}, {"name": "StatefulPartitionedCall/Generator_1/switchable_normalization_44_1/batch_normalization_47_3/batchnorm/sub", "shape": [256], "dtype": "float32"}, {"name": "StatefulPartitionedCall/Generator_1/switchable_normalization_44_1/strided_slice_1", "shape": [], "dtype": "float32"}, {"name": "StatefulPartitionedCall/Generator_1/switchable_normalization_44_1/layer_normalization_44_3/Reshape_1", "shape": [1, 1, 1, 256], "dtype": "float32"}, {"name": "StatefulPartitionedCall/Generator_1/switchable_normalization_44_1/layer_normalization_44_3/moments/mean/reduction_indices", "shape": [1], "dtype": "int32"}, {"name": "StatefulPartitionedCall/Generator_1/switchable_normalization_44_1/layer_normalization_44_3/moments/variance/reduction_indices", "shape": [1], "dtype": "int32"}, {"name": "StatefulPartitionedCall/Generator_1/switchable_normalization_44_1/layer_normalization_44_3/add/y", "shape": [], "dtype": "float32"}, {"name": "StatefulPartitionedCall/Generator_1/switchable_normalization_44_1/layer_normalization_44_3/Reshape", "shape": [1, 1, 1, 256], "dtype": "float32"}, {"name": "StatefulPartitionedCall/Generator_1/switchable_normalization_44_1/strided_slice_2", "shape": [], "dtype": "float32"}, {"name": "StatefulPartitionedCall/Generator_1/switchable_normalization_44_1/group_normalization_44_3/Reshape_2", "shape": [1, 1, 1, 256, 1], "dtype": "float32"}, {"name": "StatefulPartitionedCall/Generator_1/switchable_normalization_44_1/group_normalization_44_3/Reshape/shape", "shape": [5], "dtype": "int32"}, {"name": "StatefulPartitionedCall/Generator_1/switchable_normalization_44_1/group_normalization_44_3/moments/mean/reduction_indices", "shape": [3], "dtype": "int32"}, {"name": "StatefulPartitionedCall/Generator_1/switchable_normalization_44_1/group_normalization_44_3/moments/variance/reduction_indices", "shape": [3], "dtype": "int32"}, {"name": "StatefulPartitionedCall/Generator_1/switchable_normalization_44_1/group_normalization_44_3/add/y", "shape": [], "dtype": "float32"}, {"name": "StatefulPartitionedCall/Generator_1/switchable_normalization_44_1/group_normalization_44_3/Reshape_1", "shape": [1, 1, 1, 256, 1], "dtype": "float32"}, {"name": "StatefulPartitionedCall/Generator_1/switchable_normalization_43_1/strided_slice", "shape": [], "dtype": "float32"}, {"name": "StatefulPartitionedCall/Generator_1/switchable_normalization_43_1/batch_normalization_46_3/batchnorm/mul", "shape": [256], "dtype": "float32"}, {"name": "StatefulPartitionedCall/Generator_1/switchable_normalization_43_1/batch_normalization_46_3/batchnorm/sub", "shape": [256], "dtype": "float32"}, {"name": "StatefulPartitionedCall/Generator_1/switchable_normalization_43_1/strided_slice_1", "shape": [], "dtype": "float32"}, {"name": "StatefulPartitionedCall/Generator_1/switchable_normalization_43_1/layer_normalization_43_3/Reshape_1", "shape": [1, 1, 1, 256], "dtype": "float32"}, {"name": "StatefulPartitionedCall/Generator_1/switchable_normalization_43_1/layer_normalization_43_3/moments/mean/reduction_indices", "shape": [1], "dtype": "int32"}, {"name": "StatefulPartitionedCall/Generator_1/switchable_normalization_43_1/layer_normalization_43_3/moments/variance/reduction_indices", "shape": [1], "dtype": "int32"}, {"name": "StatefulPartitionedCall/Generator_1/switchable_normalization_43_1/layer_normalization_43_3/add/y", "shape": [], "dtype": "float32"}, {"name": "StatefulPartitionedCall/Generator_1/switchable_normalization_43_1/layer_normalization_43_3/Reshape", "shape": [1, 1, 1, 256], "dtype": "float32"}, {"name": "StatefulPartitionedCall/Generator_1/switchable_normalization_43_1/strided_slice_2", "shape": [], "dtype": "float32"}, {"name": "StatefulPartitionedCall/Generator_1/switchable_normalization_43_1/group_normalization_43_3/Reshape_2", "shape": [1, 1, 1, 256, 1], "dtype": "float32"}, {"name": "StatefulPartitionedCall/Generator_1/switchable_normalization_43_1/group_normalization_43_3/Reshape/shape", "shape": [5], "dtype": "int32"}, {"name": "StatefulPartitionedCall/Generator_1/switchable_normalization_43_1/group_normalization_43_3/moments/mean/reduction_indices", "shape": [3], "dtype": "int32"}, {"name": "StatefulPartitionedCall/Generator_1/switchable_normalization_43_1/group_normalization_43_3/moments/variance/reduction_indices", "shape": [3], "dtype": "int32"}, {"name": "StatefulPartitionedCall/Generator_1/switchable_normalization_43_1/group_normalization_43_3/add/y", "shape": [], "dtype": "float32"}, {"name": "StatefulPartitionedCall/Generator_1/switchable_normalization_43_1/group_normalization_43_3/Reshape_1", "shape": [1, 1, 1, 256, 1], "dtype": "float32"}, {"name": "StatefulPartitionedCall/Generator_1/switchable_normalization_43_1/group_normalization_43_3/strided_slice_1/stack", "shape": [1], "dtype": "int32"}, {"name": "StatefulPartitionedCall/Generator_1/switchable_normalization_43_1/group_normalization_43_3/strided_slice_1/stack_1", "shape": [1], "dtype": "int32"}, {"name": "StatefulPartitionedCall/Generator_1/switchable_normalization_43_1/group_normalization_43_3/strided_slice_1/stack_2", "shape": [1], "dtype": "int32"}, {"name": "StatefulPartitionedCall/Generator_1/switchable_normalization_43_1/group_normalization_43_3/Reshape_3/shape/1", "shape": [], "dtype": "int32"}, {"name": "StatefulPartitionedCall/Generator_1/switchable_normalization_43_1/group_normalization_43_3/Reshape_3/shape/2", "shape": [], "dtype": "int32"}, {"name": "StatefulPartitionedCall/Generator_1/switchable_normalization_43_1/group_normalization_43_3/Reshape_3/shape/3", "shape": [], "dtype": "int32"}, {"name": "StatefulPartitionedCall/Generator_1/conv2d_75_1/convolution/ReadVariableOp", "shape": [3, 3, 256, 256], "dtype": "float32"}, {"name": "StatefulPartitionedCall/Generator_1/conv2d_75_1/Squeeze", "shape": [256], "dtype": "float32"}, {"name": "StatefulPartitionedCall/Generator_1/switchable_normalization_44_1/group_normalization_44_3/strided_slice_1/stack", "shape": [1], "dtype": "int32"}, {"name": "StatefulPartitionedCall/Generator_1/switchable_normalization_44_1/group_normalization_44_3/strided_slice_1/stack_1", "shape": [1], "dtype": "int32"}, {"name": "StatefulPartitionedCall/Generator_1/switchable_normalization_44_1/group_normalization_44_3/strided_slice_1/stack_2", "shape": [1], "dtype": "int32"}, {"name": "StatefulPartitionedCall/Generator_1/switchable_normalization_44_1/group_normalization_44_3/Reshape_3/shape/1", "shape": [], "dtype": "int32"}, {"name": "StatefulPartitionedCall/Generator_1/switchable_normalization_44_1/group_normalization_44_3/Reshape_3/shape/2", "shape": [], "dtype": "int32"}, {"name": "StatefulPartitionedCall/Generator_1/switchable_normalization_44_1/group_normalization_44_3/Reshape_3/shape/3", "shape": [], "dtype": "int32"}, {"name": "StatefulPartitionedCall/Generator_1/conv2d_76_1/convolution/ReadVariableOp", "shape": [3, 3, 256, 256], "dtype": "float32"}, {"name": "StatefulPartitionedCall/Generator_1/conv2d_76_1/Squeeze", "shape": [256], "dtype": "float32"}, {"name": "StatefulPartitionedCall/Generator_1/global_average_pooling2d_21_1/Mean/reduction_indices", "shape": [2], "dtype": "int32"}, {"name": "StatefulPartitionedCall/Generator_1/reshape_21_1/strided_slice/stack", "shape": [1], "dtype": "int32"}, {"name": "StatefulPartitionedCall/Generator_1/reshape_21_1/strided_slice/stack_1", "shape": [1], "dtype": "int32"}, {"name": "StatefulPartitionedCall/Generator_1/reshape_21_1/strided_slice/stack_2", "shape": [1], "dtype": "int32"}, {"name": "StatefulPartitionedCall/Generator_1/reshape_21_1/Reshape/shape/1", "shape": [], "dtype": "int32"}, {"name": "StatefulPartitionedCall/Generator_1/reshape_21_1/Reshape/shape/2", "shape": [], "dtype": "int32"}, {"name": "StatefulPartitionedCall/Generator_1/reshape_21_1/Reshape/shape/3", "shape": [], "dtype": "int32"}, {"name": "StatefulPartitionedCall/Generator_1/dense_42_1/Cast/ReadVariableOp", "shape": [256, 16], "dtype": "float32"}, {"name": "StatefulPartitionedCall/Generator_1/dense_42_1/BiasAdd/ReadVariableOp", "shape": [16], "dtype": "float32"}, {"name": "StatefulPartitionedCall/Generator_1/dense_43_1/Cast/ReadVariableOp", "shape": [16, 256], "dtype": "float32"}, {"name": "StatefulPartitionedCall/Generator_1/dense_43_1/BiasAdd/ReadVariableOp", "shape": [256], "dtype": "float32"}, {"name": "StatefulPartitionedCall/Generator_1/switchable_normalization_42_1/strided_slice", "shape": [], "dtype": "float32"}, {"name": "StatefulPartitionedCall/Generator_1/switchable_normalization_42_1/batch_normalization_45_3/batchnorm/mul", "shape": [256], "dtype": "float32"}, {"name": "StatefulPartitionedCall/Generator_1/switchable_normalization_42_1/batch_normalization_45_3/batchnorm/sub", "shape": [256], "dtype": "float32"}, {"name": "StatefulPartitionedCall/Generator_1/switchable_normalization_42_1/strided_slice_1", "shape": [], "dtype": "float32"}, {"name": "StatefulPartitionedCall/Generator_1/switchable_normalization_42_1/layer_normalization_42_3/Reshape_1", "shape": [1, 1, 1, 256], "dtype": "float32"}, {"name": "StatefulPartitionedCall/Generator_1/switchable_normalization_42_1/layer_normalization_42_3/moments/mean/reduction_indices", "shape": [1], "dtype": "int32"}, {"name": "StatefulPartitionedCall/Generator_1/switchable_normalization_42_1/layer_normalization_42_3/moments/variance/reduction_indices", "shape": [1], "dtype": "int32"}, {"name": "StatefulPartitionedCall/Generator_1/switchable_normalization_42_1/layer_normalization_42_3/add/y", "shape": [], "dtype": "float32"}, {"name": "StatefulPartitionedCall/Generator_1/switchable_normalization_42_1/layer_normalization_42_3/Reshape", "shape": [1, 1, 1, 256], "dtype": "float32"}, {"name": "StatefulPartitionedCall/Generator_1/switchable_normalization_42_1/strided_slice_2", "shape": [], "dtype": "float32"}, {"name": "StatefulPartitionedCall/Generator_1/switchable_normalization_42_1/group_normalization_42_3/Reshape_2", "shape": [1, 1, 1, 256, 1], "dtype": "float32"}, {"name": "StatefulPartitionedCall/Generator_1/switchable_normalization_42_1/group_normalization_42_3/Reshape/shape", "shape": [5], "dtype": "int32"}, {"name": "StatefulPartitionedCall/Generator_1/switchable_normalization_42_1/group_normalization_42_3/moments/mean/reduction_indices", "shape": [3], "dtype": "int32"}, {"name": "StatefulPartitionedCall/Generator_1/switchable_normalization_42_1/group_normalization_42_3/moments/variance/reduction_indices", "shape": [3], "dtype": "int32"}, {"name": "StatefulPartitionedCall/Generator_1/switchable_normalization_42_1/group_normalization_42_3/add/y", "shape": [], "dtype": "float32"}, {"name": "StatefulPartitionedCall/Generator_1/switchable_normalization_42_1/group_normalization_42_3/Reshape_1", "shape": [1, 1, 1, 256, 1], "dtype": "float32"}, {"name": "StatefulPartitionedCall/Generator_1/switchable_normalization_41_1/strided_slice", "shape": [], "dtype": "float32"}, {"name": "StatefulPartitionedCall/Generator_1/switchable_normalization_41_1/batch_normalization_44_3/batchnorm/mul", "shape": [256], "dtype": "float32"}, {"name": "StatefulPartitionedCall/Generator_1/switchable_normalization_41_1/batch_normalization_44_3/batchnorm/sub", "shape": [256], "dtype": "float32"}, {"name": "StatefulPartitionedCall/Generator_1/switchable_normalization_41_1/strided_slice_1", "shape": [], "dtype": "float32"}, {"name": "StatefulPartitionedCall/Generator_1/switchable_normalization_41_1/layer_normalization_41_3/Reshape_1", "shape": [1, 1, 1, 256], "dtype": "float32"}, {"name": "StatefulPartitionedCall/Generator_1/switchable_normalization_41_1/layer_normalization_41_3/moments/mean/reduction_indices", "shape": [1], "dtype": "int32"}, {"name": "StatefulPartitionedCall/Generator_1/switchable_normalization_41_1/layer_normalization_41_3/moments/variance/reduction_indices", "shape": [1], "dtype": "int32"}, {"name": "StatefulPartitionedCall/Generator_1/switchable_normalization_41_1/layer_normalization_41_3/add/y", "shape": [], "dtype": "float32"}, {"name": "StatefulPartitionedCall/Generator_1/switchable_normalization_41_1/layer_normalization_41_3/Reshape", "shape": [1, 1, 1, 256], "dtype": "float32"}, {"name": "StatefulPartitionedCall/Generator_1/switchable_normalization_41_1/strided_slice_2", "shape": [], "dtype": "float32"}, {"name": "StatefulPartitionedCall/Generator_1/switchable_normalization_41_1/group_normalization_41_3/Reshape_2", "shape": [1, 1, 1, 256, 1], "dtype": "float32"}, {"name": "StatefulPartitionedCall/Generator_1/switchable_normalization_41_1/group_normalization_41_3/Reshape/shape", "shape": [5], "dtype": "int32"}, {"name": "StatefulPartitionedCall/Generator_1/switchable_normalization_41_1/group_normalization_41_3/moments/mean/reduction_indices", "shape": [3], "dtype": "int32"}, {"name": "StatefulPartitionedCall/Generator_1/switchable_normalization_41_1/group_normalization_41_3/moments/variance/reduction_indices", "shape": [3], "dtype": "int32"}, {"name": "StatefulPartitionedCall/Generator_1/switchable_normalization_41_1/group_normalization_41_3/add/y", "shape": [], "dtype": "float32"}, {"name": "StatefulPartitionedCall/Generator_1/switchable_normalization_41_1/group_normalization_41_3/Reshape_1", "shape": [1, 1, 1, 256, 1], "dtype": "float32"}, {"name": "StatefulPartitionedCall/Generator_1/switchable_normalization_41_1/group_normalization_41_3/strided_slice_1/stack", "shape": [1], "dtype": "int32"}, {"name": "StatefulPartitionedCall/Generator_1/switchable_normalization_41_1/group_normalization_41_3/strided_slice_1/stack_1", "shape": [1], "dtype": "int32"}, {"name": "StatefulPartitionedCall/Generator_1/switchable_normalization_41_1/group_normalization_41_3/strided_slice_1/stack_2", "shape": [1], "dtype": "int32"}, {"name": "StatefulPartitionedCall/Generator_1/switchable_normalization_41_1/group_normalization_41_3/Reshape_3/shape/1", "shape": [], "dtype": "int32"}, {"name": "StatefulPartitionedCall/Generator_1/switchable_normalization_41_1/group_normalization_41_3/Reshape_3/shape/2", "shape": [], "dtype": "int32"}, {"name": "StatefulPartitionedCall/Generator_1/switchable_normalization_41_1/group_normalization_41_3/Reshape_3/shape/3", "shape": [], "dtype": "int32"}, {"name": "StatefulPartitionedCall/Generator_1/conv2d_73_1/convolution/ReadVariableOp", "shape": [3, 3, 256, 256], "dtype": "float32"}, {"name": "StatefulPartitionedCall/Generator_1/conv2d_73_1/Squeeze", "shape": [256], "dtype": "float32"}, {"name": "StatefulPartitionedCall/Generator_1/switchable_normalization_42_1/group_normalization_42_3/strided_slice_1/stack", "shape": [1], "dtype": "int32"}, {"name": "StatefulPartitionedCall/Generator_1/switchable_normalization_42_1/group_normalization_42_3/strided_slice_1/stack_1", "shape": [1], "dtype": "int32"}, {"name": "StatefulPartitionedCall/Generator_1/switchable_normalization_42_1/group_normalization_42_3/strided_slice_1/stack_2", "shape": [1], "dtype": "int32"}, {"name": "StatefulPartitionedCall/Generator_1/switchable_normalization_42_1/group_normalization_42_3/Reshape_3/shape/1", "shape": [], "dtype": "int32"}, {"name": "StatefulPartitionedCall/Generator_1/switchable_normalization_42_1/group_normalization_42_3/Reshape_3/shape/2", "shape": [], "dtype": "int32"}, {"name": "StatefulPartitionedCall/Generator_1/switchable_normalization_42_1/group_normalization_42_3/Reshape_3/shape/3", "shape": [], "dtype": "int32"}, {"name": "StatefulPartitionedCall/Generator_1/conv2d_74_1/convolution/ReadVariableOp", "shape": [3, 3, 256, 256], "dtype": "float32"}, {"name": "StatefulPartitionedCall/Generator_1/conv2d_74_1/Squeeze", "shape": [256], "dtype": "float32"}, {"name": "StatefulPartitionedCall/Generator_1/global_average_pooling2d_20_1/Mean/reduction_indices", "shape": [2], "dtype": "int32"}, {"name": "StatefulPartitionedCall/Generator_1/reshape_20_1/strided_slice/stack", "shape": [1], "dtype": "int32"}, {"name": "StatefulPartitionedCall/Generator_1/reshape_20_1/strided_slice/stack_1", "shape": [1], "dtype": "int32"}, {"name": "StatefulPartitionedCall/Generator_1/reshape_20_1/strided_slice/stack_2", "shape": [1], "dtype": "int32"}, {"name": "StatefulPartitionedCall/Generator_1/reshape_20_1/Reshape/shape/1", "shape": [], "dtype": "int32"}, {"name": "StatefulPartitionedCall/Generator_1/reshape_20_1/Reshape/shape/2", "shape": [], "dtype": "int32"}, {"name": "StatefulPartitionedCall/Generator_1/reshape_20_1/Reshape/shape/3", "shape": [], "dtype": "int32"}, {"name": "StatefulPartitionedCall/Generator_1/dense_40_1/Cast/ReadVariableOp", "shape": [256, 16], "dtype": "float32"}, {"name": "StatefulPartitionedCall/Generator_1/dense_40_1/BiasAdd/ReadVariableOp", "shape": [16], "dtype": "float32"}, {"name": "StatefulPartitionedCall/Generator_1/dense_41_1/Cast/ReadVariableOp", "shape": [16, 256], "dtype": "float32"}, {"name": "StatefulPartitionedCall/Generator_1/dense_41_1/BiasAdd/ReadVariableOp", "shape": [256], "dtype": "float32"}, {"name": "StatefulPartitionedCall/Generator_1/switchable_normalization_40_1/strided_slice", "shape": [], "dtype": "float32"}, {"name": "StatefulPartitionedCall/Generator_1/switchable_normalization_40_1/batch_normalization_43_3/batchnorm/mul", "shape": [256], "dtype": "float32"}, {"name": "StatefulPartitionedCall/Generator_1/switchable_normalization_40_1/batch_normalization_43_3/batchnorm/sub", "shape": [256], "dtype": "float32"}, {"name": "StatefulPartitionedCall/Generator_1/switchable_normalization_40_1/strided_slice_1", "shape": [], "dtype": "float32"}, {"name": "StatefulPartitionedCall/Generator_1/switchable_normalization_40_1/layer_normalization_40_3/Reshape_1", "shape": [1, 1, 1, 256], "dtype": "float32"}, {"name": "StatefulPartitionedCall/Generator_1/switchable_normalization_40_1/layer_normalization_40_3/moments/mean/reduction_indices", "shape": [1], "dtype": "int32"}, {"name": "StatefulPartitionedCall/Generator_1/switchable_normalization_40_1/layer_normalization_40_3/moments/variance/reduction_indices", "shape": [1], "dtype": "int32"}, {"name": "StatefulPartitionedCall/Generator_1/switchable_normalization_40_1/layer_normalization_40_3/add/y", "shape": [], "dtype": "float32"}, {"name": "StatefulPartitionedCall/Generator_1/switchable_normalization_40_1/layer_normalization_40_3/Reshape", "shape": [1, 1, 1, 256], "dtype": "float32"}, {"name": "StatefulPartitionedCall/Generator_1/switchable_normalization_40_1/strided_slice_2", "shape": [], "dtype": "float32"}, {"name": "StatefulPartitionedCall/Generator_1/switchable_normalization_40_1/group_normalization_40_3/Reshape_2", "shape": [1, 1, 1, 256, 1], "dtype": "float32"}, {"name": "StatefulPartitionedCall/Generator_1/switchable_normalization_40_1/group_normalization_40_3/Reshape/shape", "shape": [5], "dtype": "int32"}, {"name": "StatefulPartitionedCall/Generator_1/switchable_normalization_40_1/group_normalization_40_3/moments/mean/reduction_indices", "shape": [3], "dtype": "int32"}, {"name": "StatefulPartitionedCall/Generator_1/switchable_normalization_40_1/group_normalization_40_3/moments/variance/reduction_indices", "shape": [3], "dtype": "int32"}, {"name": "StatefulPartitionedCall/Generator_1/switchable_normalization_40_1/group_normalization_40_3/add/y", "shape": [], "dtype": "float32"}, {"name": "StatefulPartitionedCall/Generator_1/switchable_normalization_40_1/group_normalization_40_3/Reshape_1", "shape": [1, 1, 1, 256, 1], "dtype": "float32"}, {"name": "StatefulPartitionedCall/Generator_1/switchable_normalization_39_1/strided_slice", "shape": [], "dtype": "float32"}, {"name": "StatefulPartitionedCall/Generator_1/switchable_normalization_39_1/batch_normalization_42_3/batchnorm/mul", "shape": [256], "dtype": "float32"}, {"name": "StatefulPartitionedCall/Generator_1/switchable_normalization_39_1/batch_normalization_42_3/batchnorm/sub", "shape": [256], "dtype": "float32"}, {"name": "StatefulPartitionedCall/Generator_1/switchable_normalization_39_1/strided_slice_1", "shape": [], "dtype": "float32"}, {"name": "StatefulPartitionedCall/Generator_1/switchable_normalization_39_1/layer_normalization_39_3/Reshape_1", "shape": [1, 1, 1, 256], "dtype": "float32"}, {"name": "StatefulPartitionedCall/Generator_1/switchable_normalization_39_1/layer_normalization_39_3/moments/mean/reduction_indices", "shape": [1], "dtype": "int32"}, {"name": "StatefulPartitionedCall/Generator_1/switchable_normalization_39_1/layer_normalization_39_3/moments/variance/reduction_indices", "shape": [1], "dtype": "int32"}, {"name": "StatefulPartitionedCall/Generator_1/switchable_normalization_39_1/layer_normalization_39_3/add/y", "shape": [], "dtype": "float32"}, {"name": "StatefulPartitionedCall/Generator_1/switchable_normalization_39_1/layer_normalization_39_3/Reshape", "shape": [1, 1, 1, 256], "dtype": "float32"}, {"name": "StatefulPartitionedCall/Generator_1/switchable_normalization_39_1/strided_slice_2", "shape": [], "dtype": "float32"}, {"name": "StatefulPartitionedCall/Generator_1/switchable_normalization_39_1/group_normalization_39_3/Reshape_2", "shape": [1, 1, 1, 256, 1], "dtype": "float32"}, {"name": "StatefulPartitionedCall/Generator_1/switchable_normalization_39_1/group_normalization_39_3/Reshape/shape", "shape": [5], "dtype": "int32"}, {"name": "StatefulPartitionedCall/Generator_1/switchable_normalization_39_1/group_normalization_39_3/moments/mean/reduction_indices", "shape": [3], "dtype": "int32"}, {"name": "StatefulPartitionedCall/Generator_1/switchable_normalization_39_1/group_normalization_39_3/moments/variance/reduction_indices", "shape": [3], "dtype": "int32"}, {"name": "StatefulPartitionedCall/Generator_1/switchable_normalization_39_1/group_normalization_39_3/add/y", "shape": [], "dtype": "float32"}, {"name": "StatefulPartitionedCall/Generator_1/switchable_normalization_39_1/group_normalization_39_3/Reshape_1", "shape": [1, 1, 1, 256, 1], "dtype": "float32"}, {"name": "StatefulPartitionedCall/Generator_1/switchable_normalization_39_1/group_normalization_39_3/strided_slice_1/stack", "shape": [1], "dtype": "int32"}, {"name": "StatefulPartitionedCall/Generator_1/switchable_normalization_39_1/group_normalization_39_3/strided_slice_1/stack_1", "shape": [1], "dtype": "int32"}, {"name": "StatefulPartitionedCall/Generator_1/switchable_normalization_39_1/group_normalization_39_3/strided_slice_1/stack_2", "shape": [1], "dtype": "int32"}, {"name": "StatefulPartitionedCall/Generator_1/switchable_normalization_39_1/group_normalization_39_3/Reshape_3/shape/1", "shape": [], "dtype": "int32"}, {"name": "StatefulPartitionedCall/Generator_1/switchable_normalization_39_1/group_normalization_39_3/Reshape_3/shape/2", "shape": [], "dtype": "int32"}, {"name": "StatefulPartitionedCall/Generator_1/switchable_normalization_39_1/group_normalization_39_3/Reshape_3/shape/3", "shape": [], "dtype": "int32"}, {"name": "StatefulPartitionedCall/Generator_1/conv2d_71_1/convolution/ReadVariableOp", "shape": [3, 3, 256, 256], "dtype": "float32"}, {"name": "StatefulPartitionedCall/Generator_1/conv2d_71_1/Squeeze", "shape": [256], "dtype": "float32"}, {"name": "StatefulPartitionedCall/Generator_1/switchable_normalization_40_1/group_normalization_40_3/strided_slice_1/stack", "shape": [1], "dtype": "int32"}, {"name": "StatefulPartitionedCall/Generator_1/switchable_normalization_40_1/group_normalization_40_3/strided_slice_1/stack_1", "shape": [1], "dtype": "int32"}, {"name": "StatefulPartitionedCall/Generator_1/switchable_normalization_40_1/group_normalization_40_3/strided_slice_1/stack_2", "shape": [1], "dtype": "int32"}, {"name": "StatefulPartitionedCall/Generator_1/switchable_normalization_40_1/group_normalization_40_3/Reshape_3/shape/1", "shape": [], "dtype": "int32"}, {"name": "StatefulPartitionedCall/Generator_1/switchable_normalization_40_1/group_normalization_40_3/Reshape_3/shape/2", "shape": [], "dtype": "int32"}, {"name": "StatefulPartitionedCall/Generator_1/switchable_normalization_40_1/group_normalization_40_3/Reshape_3/shape/3", "shape": [], "dtype": "int32"}, {"name": "StatefulPartitionedCall/Generator_1/conv2d_72_1/convolution/ReadVariableOp", "shape": [3, 3, 256, 256], "dtype": "float32"}, {"name": "StatefulPartitionedCall/Generator_1/conv2d_72_1/Squeeze", "shape": [256], "dtype": "float32"}, {"name": "StatefulPartitionedCall/Generator_1/global_average_pooling2d_19_1/Mean/reduction_indices", "shape": [2], "dtype": "int32"}, {"name": "StatefulPartitionedCall/Generator_1/reshape_19_1/strided_slice/stack", "shape": [1], "dtype": "int32"}, {"name": "StatefulPartitionedCall/Generator_1/reshape_19_1/strided_slice/stack_1", "shape": [1], "dtype": "int32"}, {"name": "StatefulPartitionedCall/Generator_1/reshape_19_1/strided_slice/stack_2", "shape": [1], "dtype": "int32"}, {"name": "StatefulPartitionedCall/Generator_1/reshape_19_1/Reshape/shape/1", "shape": [], "dtype": "int32"}, {"name": "StatefulPartitionedCall/Generator_1/reshape_19_1/Reshape/shape/2", "shape": [], "dtype": "int32"}, {"name": "StatefulPartitionedCall/Generator_1/reshape_19_1/Reshape/shape/3", "shape": [], "dtype": "int32"}, {"name": "StatefulPartitionedCall/Generator_1/dense_38_1/Cast/ReadVariableOp", "shape": [256, 16], "dtype": "float32"}, {"name": "StatefulPartitionedCall/Generator_1/dense_38_1/BiasAdd/ReadVariableOp", "shape": [16], "dtype": "float32"}, {"name": "StatefulPartitionedCall/Generator_1/dense_39_1/Cast/ReadVariableOp", "shape": [16, 256], "dtype": "float32"}, {"name": "StatefulPartitionedCall/Generator_1/dense_39_1/BiasAdd/ReadVariableOp", "shape": [256], "dtype": "float32"}, {"name": "StatefulPartitionedCall/Generator_1/switchable_normalization_38_1/strided_slice", "shape": [], "dtype": "float32"}, {"name": "StatefulPartitionedCall/Generator_1/switchable_normalization_38_1/batch_normalization_41_3/batchnorm/mul", "shape": [256], "dtype": "float32"}, {"name": "StatefulPartitionedCall/Generator_1/switchable_normalization_38_1/batch_normalization_41_3/batchnorm/sub", "shape": [256], "dtype": "float32"}, {"name": "StatefulPartitionedCall/Generator_1/switchable_normalization_38_1/strided_slice_1", "shape": [], "dtype": "float32"}, {"name": "StatefulPartitionedCall/Generator_1/switchable_normalization_38_1/layer_normalization_38_3/Reshape_1", "shape": [1, 1, 1, 256], "dtype": "float32"}, {"name": "StatefulPartitionedCall/Generator_1/switchable_normalization_38_1/layer_normalization_38_3/moments/mean/reduction_indices", "shape": [1], "dtype": "int32"}, {"name": "StatefulPartitionedCall/Generator_1/switchable_normalization_38_1/layer_normalization_38_3/moments/variance/reduction_indices", "shape": [1], "dtype": "int32"}, {"name": "StatefulPartitionedCall/Generator_1/switchable_normalization_38_1/layer_normalization_38_3/add/y", "shape": [], "dtype": "float32"}, {"name": "StatefulPartitionedCall/Generator_1/switchable_normalization_38_1/layer_normalization_38_3/Reshape", "shape": [1, 1, 1, 256], "dtype": "float32"}, {"name": "StatefulPartitionedCall/Generator_1/switchable_normalization_38_1/strided_slice_2", "shape": [], "dtype": "float32"}, {"name": "StatefulPartitionedCall/Generator_1/switchable_normalization_38_1/group_normalization_38_3/Reshape_2", "shape": [1, 1, 1, 256, 1], "dtype": "float32"}, {"name": "StatefulPartitionedCall/Generator_1/switchable_normalization_38_1/group_normalization_38_3/Reshape/shape", "shape": [5], "dtype": "int32"}, {"name": "StatefulPartitionedCall/Generator_1/switchable_normalization_38_1/group_normalization_38_3/moments/mean/reduction_indices", "shape": [3], "dtype": "int32"}, {"name": "StatefulPartitionedCall/Generator_1/switchable_normalization_38_1/group_normalization_38_3/moments/variance/reduction_indices", "shape": [3], "dtype": "int32"}, {"name": "StatefulPartitionedCall/Generator_1/switchable_normalization_38_1/group_normalization_38_3/add/y", "shape": [], "dtype": "float32"}, {"name": "StatefulPartitionedCall/Generator_1/switchable_normalization_38_1/group_normalization_38_3/Reshape_1", "shape": [1, 1, 1, 256, 1], "dtype": "float32"}, {"name": "StatefulPartitionedCall/Generator_1/switchable_normalization_37_1/strided_slice", "shape": [], "dtype": "float32"}, {"name": "StatefulPartitionedCall/Generator_1/switchable_normalization_37_1/batch_normalization_40_3/batchnorm/mul", "shape": [256], "dtype": "float32"}, {"name": "StatefulPartitionedCall/Generator_1/switchable_normalization_37_1/batch_normalization_40_3/batchnorm/sub", "shape": [256], "dtype": "float32"}, {"name": "StatefulPartitionedCall/Generator_1/switchable_normalization_37_1/strided_slice_1", "shape": [], "dtype": "float32"}, {"name": "StatefulPartitionedCall/Generator_1/switchable_normalization_37_1/layer_normalization_37_3/Reshape_1", "shape": [1, 1, 1, 256], "dtype": "float32"}, {"name": "StatefulPartitionedCall/Generator_1/switchable_normalization_37_1/layer_normalization_37_3/moments/mean/reduction_indices", "shape": [1], "dtype": "int32"}, {"name": "StatefulPartitionedCall/Generator_1/switchable_normalization_37_1/layer_normalization_37_3/moments/variance/reduction_indices", "shape": [1], "dtype": "int32"}, {"name": "StatefulPartitionedCall/Generator_1/switchable_normalization_37_1/layer_normalization_37_3/add/y", "shape": [], "dtype": "float32"}, {"name": "StatefulPartitionedCall/Generator_1/switchable_normalization_37_1/layer_normalization_37_3/Reshape", "shape": [1, 1, 1, 256], "dtype": "float32"}, {"name": "StatefulPartitionedCall/Generator_1/switchable_normalization_37_1/strided_slice_2", "shape": [], "dtype": "float32"}, {"name": "StatefulPartitionedCall/Generator_1/switchable_normalization_37_1/group_normalization_37_3/Reshape_2", "shape": [1, 1, 1, 256, 1], "dtype": "float32"}, {"name": "StatefulPartitionedCall/Generator_1/switchable_normalization_37_1/group_normalization_37_3/Reshape/shape", "shape": [5], "dtype": "int32"}, {"name": "StatefulPartitionedCall/Generator_1/switchable_normalization_37_1/group_normalization_37_3/moments/mean/reduction_indices", "shape": [3], "dtype": "int32"}, {"name": "StatefulPartitionedCall/Generator_1/switchable_normalization_37_1/group_normalization_37_3/moments/variance/reduction_indices", "shape": [3], "dtype": "int32"}, {"name": "StatefulPartitionedCall/Generator_1/switchable_normalization_37_1/group_normalization_37_3/add/y", "shape": [], "dtype": "float32"}, {"name": "StatefulPartitionedCall/Generator_1/switchable_normalization_37_1/group_normalization_37_3/Reshape_1", "shape": [1, 1, 1, 256, 1], "dtype": "float32"}, {"name": "StatefulPartitionedCall/Generator_1/switchable_normalization_37_1/group_normalization_37_3/strided_slice_1/stack", "shape": [1], "dtype": "int32"}, {"name": "StatefulPartitionedCall/Generator_1/switchable_normalization_37_1/group_normalization_37_3/strided_slice_1/stack_1", "shape": [1], "dtype": "int32"}, {"name": "StatefulPartitionedCall/Generator_1/switchable_normalization_37_1/group_normalization_37_3/strided_slice_1/stack_2", "shape": [1], "dtype": "int32"}, {"name": "StatefulPartitionedCall/Generator_1/switchable_normalization_37_1/group_normalization_37_3/Reshape_3/shape/1", "shape": [], "dtype": "int32"}, {"name": "StatefulPartitionedCall/Generator_1/switchable_normalization_37_1/group_normalization_37_3/Reshape_3/shape/2", "shape": [], "dtype": "int32"}, {"name": "StatefulPartitionedCall/Generator_1/switchable_normalization_37_1/group_normalization_37_3/Reshape_3/shape/3", "shape": [], "dtype": "int32"}, {"name": "StatefulPartitionedCall/Generator_1/conv2d_69_1/convolution/ReadVariableOp", "shape": [3, 3, 256, 256], "dtype": "float32"}, {"name": "StatefulPartitionedCall/Generator_1/conv2d_69_1/Squeeze", "shape": [256], "dtype": "float32"}, {"name": "StatefulPartitionedCall/Generator_1/switchable_normalization_38_1/group_normalization_38_3/strided_slice_1/stack", "shape": [1], "dtype": "int32"}, {"name": "StatefulPartitionedCall/Generator_1/switchable_normalization_38_1/group_normalization_38_3/strided_slice_1/stack_1", "shape": [1], "dtype": "int32"}, {"name": "StatefulPartitionedCall/Generator_1/switchable_normalization_38_1/group_normalization_38_3/strided_slice_1/stack_2", "shape": [1], "dtype": "int32"}, {"name": "StatefulPartitionedCall/Generator_1/switchable_normalization_38_1/group_normalization_38_3/Reshape_3/shape/1", "shape": [], "dtype": "int32"}, {"name": "StatefulPartitionedCall/Generator_1/switchable_normalization_38_1/group_normalization_38_3/Reshape_3/shape/2", "shape": [], "dtype": "int32"}, {"name": "StatefulPartitionedCall/Generator_1/switchable_normalization_38_1/group_normalization_38_3/Reshape_3/shape/3", "shape": [], "dtype": "int32"}, {"name": "StatefulPartitionedCall/Generator_1/conv2d_70_1/convolution/ReadVariableOp", "shape": [3, 3, 256, 256], "dtype": "float32"}, {"name": "StatefulPartitionedCall/Generator_1/conv2d_70_1/Squeeze", "shape": [256], "dtype": "float32"}, {"name": "StatefulPartitionedCall/Generator_1/global_average_pooling2d_18_1/Mean/reduction_indices", "shape": [2], "dtype": "int32"}, {"name": "StatefulPartitionedCall/Generator_1/reshape_18_1/strided_slice/stack", "shape": [1], "dtype": "int32"}, {"name": "StatefulPartitionedCall/Generator_1/reshape_18_1/strided_slice/stack_1", "shape": [1], "dtype": "int32"}, {"name": "StatefulPartitionedCall/Generator_1/reshape_18_1/strided_slice/stack_2", "shape": [1], "dtype": "int32"}, {"name": "StatefulPartitionedCall/Generator_1/reshape_18_1/Reshape/shape/1", "shape": [], "dtype": "int32"}, {"name": "StatefulPartitionedCall/Generator_1/reshape_18_1/Reshape/shape/2", "shape": [], "dtype": "int32"}, {"name": "StatefulPartitionedCall/Generator_1/reshape_18_1/Reshape/shape/3", "shape": [], "dtype": "int32"}, {"name": "StatefulPartitionedCall/Generator_1/dense_36_1/Cast/ReadVariableOp", "shape": [256, 16], "dtype": "float32"}, {"name": "StatefulPartitionedCall/Generator_1/dense_36_1/BiasAdd/ReadVariableOp", "shape": [16], "dtype": "float32"}, {"name": "StatefulPartitionedCall/Generator_1/dense_37_1/Cast/ReadVariableOp", "shape": [16, 256], "dtype": "float32"}, {"name": "StatefulPartitionedCall/Generator_1/dense_37_1/BiasAdd/ReadVariableOp", "shape": [256], "dtype": "float32"}, {"name": "StatefulPartitionedCall/Generator_1/conv2d_62_1/convolution/ReadVariableOp", "shape": [1, 1, 3, 64], "dtype": "float32"}, {"name": "StatefulPartitionedCall/Generator_1/conv2d_62_1/Squeeze", "shape": [64], "dtype": "float32"}, {"name": "StatefulPartitionedCall/Generator_1/conv2d_63_1/convolution/ReadVariableOp", "shape": [3, 3, 3, 64], "dtype": "float32"}, {"name": "StatefulPartitionedCall/Generator_1/conv2d_63_1/Squeeze", "shape": [64], "dtype": "float32"}, {"name": "StatefulPartitionedCall/Generator_1/conv2d_64_1/convolution/ReadVariableOp", "shape": [5, 5, 3, 64], "dtype": "float32"}, {"name": "StatefulPartitionedCall/Generator_1/conv2d_64_1/Squeeze", "shape": [64], "dtype": "float32"}, {"name": "StatefulPartitionedCall/Generator_1/conv2d_65_1/convolution/ReadVariableOp", "shape": [7, 7, 3, 64], "dtype": "float32"}, {"name": "StatefulPartitionedCall/Generator_1/conv2d_65_1/Squeeze", "shape": [64], "dtype": "float32"}, {"name": "StatefulPartitionedCall/Generator_1/concatenate_3_1/concat/axis", "shape": [], "dtype": "int32"}, {"name": "StatefulPartitionedCall/Generator_1/conv2d_66_1/convolution/ReadVariableOp", "shape": [1, 1, 256, 64], "dtype": "float32"}, {"name": "StatefulPartitionedCall/Generator_1/conv2d_66_1/Squeeze", "shape": [64], "dtype": "float32"}, {"name": "StatefulPartitionedCall/Generator_1/conv2d_67_1/convolution/ReadVariableOp", "shape": [3, 3, 64, 128], "dtype": "float32"}, {"name": "StatefulPartitionedCall/Generator_1/conv2d_67_1/Squeeze", "shape": [128], "dtype": "float32"}, {"name": "StatefulPartitionedCall/Generator_1/conv2d_68_1/convolution/ReadVariableOp", "shape": [3, 3, 128, 256], "dtype": "float32"}, {"name": "StatefulPartitionedCall/Generator_1/conv2d_68_1/Squeeze", "shape": [256], "dtype": "float32"}, {"name": "StatefulPartitionedCall/Generator_1/conv2d_transpose_4_1/Squeeze", "shape": [128], "dtype": "float32"}, {"name": "StatefulPartitionedCall/Generator_1/conv2d_transpose_5_1/Squeeze", "shape": [64], "dtype": "float32"}, {"name": "StatefulPartitionedCall/Generator_1/conv2d_87_1/convolution/ReadVariableOp", "shape": [7, 7, 64, 3], "dtype": "float32"}, {"name": "StatefulPartitionedCall/Generator_1/conv2d_87_1/Squeeze", "shape": [3], "dtype": "float32"}]}]}